FinalModels/BR/Data3Models/br-0-312-82-128-0.01-0.4706.pt (torch, 1383 bytes, 1 tensors)

dnn.0.weight f4 [1, 72]
0	0x3f0fba5a	0.56143725
1	0x3ee939a9	0.45551804
2	0x3e69ae3e	0.22820374
3	0x3cbbe96b	0.02293845
4	0xbd2d8395	-0.042361815
5	0xbe6d9d4d	-0.23204537
6	0xbe1230a3	-0.14276366
7	0x3e567a56	0.20945105
8	0x3e588562	0.21144632
9	0xbd89c666	-0.067272946
10	0x3ea78fc5	0.32726875
11	0x3e05a3a9	0.13050713
12	0xbd71bb9e	-0.059016816
13	0x3d67389d	0.056450475
14	0x3e5895ef	0.21150945
15	0x3dc80147	0.09765869
16	0x3dbfda38	0.09367794
17	0x3d3e5b47	0.046473768
18	0x3e2f48d4	0.17117625
19	0xbdf67425	-0.120338716
20	0xbdc560ef	-0.09637629
21	0xbe2500a7	-0.1611353
22	0xbea5bccc	-0.32370603
23	0xbe6aa298	-0.22913587
24	0xbe1f9f11	-0.15588023
25	0xbc2d2894	-0.010568757
26	0x3d9a1e0f	0.075252645
27	0xbb874dcf	-0.0041291486
28	0x3e181712	0.1485255
29	0x3e2458b2	0.1604946
30	0x3dbfa8c4	0.09358361
31	0x3ddb47e8	0.107070744
32	0x3e5d6ae3	0.21622805
33	0xbdf00ca3	-0.1172116
34	0x3e556ca1	0.2084222
35	0xbdaac865	-0.083390035
36	0xbd972b37	-0.073812895
37	0xbea014af	-0.3126578
38	0xbecd7278	-0.40126395
39	0xbe8a1344	-0.26967824
40	0xbec6909f	-0.38782212
41	0xbcdf0190	-0.027222425
42	0xbe34bb5b	-0.17649595
43	0xbe8f81f3	-0.2802883
44	0xbebbe35b	-0.36696896
45	0xbe9c4e0c	-0.30528295
46	0xbe80d91a	-0.25165635
47	0xbea6ecd8	-0.32602572
48	0xbeb6725c	-0.35634124
49	0xbe8686a9	-0.26274613
50	0x3e8ca487	0.27469274
51	0x3e119ab8	0.14219177
52	0xbd0f98e7	-0.03505793
53	0xbeaaa5fc	-0.3332976
54	0xbed95284	-0.42445767
55	0xbee19206	-0.4405672
56	0xbea3fe4a	-0.32029945
57	0xbe9240d8	-0.28565097
58	0xbe346fe8	-0.17620814
59	0xbe4b97b3	-0.19882087
60	0xbe57ec8b	-0.21086328
61	0xbe3dfc0f	-0.18553184
62	0xbe9d8b4f	-0.30770347
63	0xbd5bc797	-0.05365714
64	0x3ec07c95	0.3759505
65	0xbbd84208	-0.0065996684
66	0x3f0947d5	0.5362523
67	0x3c64e564	0.013970707
68	0x3dd0aa70	0.101887584
69	0x3eb23042	0.34802443
70	0x3e95aad7	0.29231903
71	0x3edb2fab	0.42809805
