FinalModels/BR/Data3Models/br-1-312-82-128-0.01-0.3030.pt (torch, 1383 bytes, 1 tensors)

dnn.0.weight f4 [1, 72]
0	0xbd37cecb	-0.044874948
1	0xbd778f87	-0.060439613
2	0x3d9d2571	0.07673157
3	0x3d152e52	0.036421128
4	0x3c0445d7	0.008073292
5	0xbea58f0b	-0.32335696
6	0x3e89ab0a	0.26888305
7	0xbf0b822d	-0.5449551
8	0xbe859bb0	-0.26095343
9	0xbe8e2283	-0.27760705
10	0x3d82b01c	0.063812464
11	0x3ccb6ceb	0.02483221
12	0xbdcdd15a	-0.10049696
13	0xbe118466	-0.14210662
14	0x3e65d872	0.22445849
15	0xbe37b777	-0.1794108
16	0xbe3eb85d	-0.18625017
17	0x3d41736d	0.04722922
18	0x3e77094e	0.24124643
19	0x3e4bcab1	0.1990154
20	0xbe729944	-0.23691279
21	0xbd9b07e3	-0.07569864
22	0x3d668c74	0.05628629
23	0xbdd3c70a	-0.10340698
24	0x3cdd7b65	0.027036378
25	0x3d26f749	0.040763173
26	0x3ba4a1cc	0.0050241705
27	0xbcec61ef	-0.028855292
28	0xbd88478c	-0.066542715
29	0xbc7671e9	-0.015041807
30	0x3cb76fa7	0.022392107
31	0xbda06b71	-0.07832993
32	0xbe3904ee	-0.18068287
33	0x3e237f2b	0.1596648
34	0x3dca4e58	0.09878224
35	0x3e46e350	0.1942265
36	0xbe732f06	-0.23748407
37	0xbdbb541b	-0.09146901
38	0x3dd45eab	0.10369619
39	0xbe251d74	-0.16124517
40	0x3d8d47d9	0.068984695
41	0x3d295eba	0.041350104
42	0x3e37e639	0.17958917
43	0x3e2e263f	0.17006777
44	0xbe09231e	-0.13392302
45	0x3daa667b	0.08320328
46	0xbc375f91	-0.011192218
47	0xbd61b828	-0.055107266
48	0x3e039238	0.12848747
49	0x3e738977	0.23782907
50	0xbd040f68	-0.032241255
51	0x3c9deb33	0.01927719
52	0xbebbef41	-0.36705974
53	0x3e07d374	0.13264257
54	0x3ca7401a	0.020416308
55	0x3bdbab7d	0.0067037926
56	0x3dd5e399	0.104438014
57	0x3df5e1f8	0.12005991
58	0xbb06474e	-0.0020489278
59	0x3e818a19	0.25300673
60	0x3e84814e	0.25879902
61	0x3e95c990	0.29255342
62	0x3dd3acfa	0.10335727
63	0x3de4b57b	0.11167427
64	0x3cd2af44	0.025718339
65	0x3c2421b1	0.010017798
66	0x3e035b52	0.12827805
67	0xba369842	-0.0006965437
68	0xbd2ecf23	-0.04267801
69	0x3ebcd62a	0.36882144
70	0xbdccfd5e	-0.100092635
71	0x3e959856	0.29217786
