FinalModels/BR/Data3Models/br-2-312-100-128-0.01-0.6429.pt (torch, 1383 bytes, 1 tensors)

dnn.0.weight f4 [1, 72]
000000 24 9f 22 bf d7 5f 19 bf bd f3 0a be d8 dd ad 3c
       -0.6352408 -0.59911865 -0.13569541 0.021223947
000010 84 fe 7e 3e 44 e5 5d be 59 58 70 3e ba c7 0f 3e
       0.24901778 -0.21669489 0.23471202 0.14041033
000020 d5 8d 13 be b0 23 a8 bc 81 93 23 be ab 1d 61 3d
       -0.14409573 -0.02052483 -0.15974237 0.054959934
000030 f7 64 ad be 96 c9 e4 be 4b 6b e0 be df 70 e7 bc
       -0.33866093 -0.44685048 -0.43831858 -0.028252063
000040 28 de be be 2d 2c 32 bd 30 fb e1 bd e5 ab cc 3d
       -0.37278867 -0.04349916 -0.11034238 0.09993724
000050 ba c3 2b be df c4 99 bd c8 c5 5a 3e ff 97 cf bd
       -0.16773883 -0.07508253 0.2136451 -0.10136413
000060 bf 96 41 3d ba 2d 15 3d 31 eb a0 bc 6b 85 9e 3b
       0.047262903 0.03642056 -0.019643398 0.004837682
000070 ca 39 6c ba f8 45 2b bd 15 bf ba 3c f0 89 0b be
       -0.0009011297 -0.041814774 0.022796193 -0.13626838
000080 81 ad a3 be 6d a3 75 3d 9e fb c1 be 69 dd 97 3e
       -0.3196831 0.059970308 -0.3788728 0.2966111
000090 c5 f5 89 bc 8c a7 79 3e 4b 08 ea 3e 0d 8c a6 3e
       -0.016840825 0.2438032 0.45709452 0.32528725
0000a0 ec af d6 3e 07 59 d5 3e 5c c4 9b 3e db 08 8e 3e
       0.41931093 0.41669485 0.30423248 0.2774113
0000b0 14 45 69 3e 51 09 cc 3e cc 46 65 3e ec 51 a6 3e
       0.22780257 0.39850858 0.22390288 0.32484376
0000c0 17 9e 67 bd 44 25 60 3e ae 66 14 be fc 46 ba bd
       -0.05654725 0.21889216 -0.14492294 -0.090955704
0000d0 73 fe 1d bd a7 06 59 3e 80 09 e2 3e a0 06 d3 3d
       -0.03857274 0.21193944 0.44147873 0.10303998
0000e0 79 b3 cb 3e 87 f3 59 3e b6 a3 75 3e b6 4f f8 3d
       0.39785364 0.21284305 0.23988232 0.12124579
0000f0 bf 50 47 3e 0b 58 7e 3d 1c 42 a1 3d da 61 58 3e
       0.19464396 0.062095683 0.078739375 0.21131077
000100 33 39 d0 be d2 8c 9a 3c 69 91 99 be 91 31 5d bc
       -0.4066864 0.018865976 -0.29993752 -0.013500587
000110 cf 60 29 be e4 1e b8 3c 18 a9 35 bf 16 98 3f be
       -0.16540836 0.022475667 -0.7096114 -0.1871036
