FinalModels/BR/Data3Models/br-3-312-100-128-0.01-0.8772.pt (torch, 1383 bytes, 1 tensors)

dnn.0.weight f4 [1, 72]
0	0xbf4707d1	-0.777463
1	0xbf696bde	-0.9118022
2	0xbecfe494	-0.4060408
3	0xbbe71da5	-0.0070530945
4	0x3ed0d9de	0.4079122
5	0x3f493972	0.7860328
6	0x3d738728	0.059455067
7	0xbdaf0817	-0.08546465
8	0x3e8c2a4b	0.27376017
9	0x3e296590	0.1654265
10	0xbbc8c6a8	-0.0061271973
11	0xbcec9a7f	-0.028882263
12	0x3eaa55b1	0.33268502
13	0x3ba13af1	0.0049203564
14	0xbe3417f1	-0.17587258
15	0x3e139a99	0.14414443
16	0xbf2d9401	-0.6780396
17	0xbf54100d	-0.8283699
18	0xbe8acbbd	-0.27108565
19	0xbeaee6c5	-0.34160438
20	0xbe6f32c0	-0.23359203
21	0xbee09ad1	-0.43868116
22	0xbea9f3f4	-0.33193934
23	0xbeb750ee	-0.35803932
24	0xbed1cee6	-0.40978163
25	0xbe7190c8	-0.23590386
26	0xbed2e5c2	-0.41190916
27	0xbebb8290	-0.3662305
28	0xbef90dbf	-0.486433
29	0xbe9ad08c	-0.30237234
30	0xbe23a3b1	-0.15980412
31	0xbe4408d4	-0.19143993
32	0xbec6955a	-0.3878582
33	0xbe5fda1a	-0.21860543
34	0xbe8757a3	-0.2643405
35	0x3db6a7a2	0.08918692
36	0x3e2dc3d1	0.1696923
37	0x3e989925	0.2980434
38	0x3e32668f	0.17421935
39	0x3e80eeb5	0.2518212
40	0x3eaf0e35	0.34190527
41	0x3eb88887	0.36041662
42	0x3f01d665	0.50717765
43	0x3e91720f	0.28407332
44	0x3e9c0467	0.3047211
45	0x3f0c5a4b	0.54825276
46	0x3f5ba7f2	0.8580314
47	0x3f436815	0.7633069
48	0xbcb5c094	-0.022186555
49	0xbde68be4	-0.11257151
50	0xbdd97ea6	-0.106198594
51	0xbd6fb6ba	-0.05852387
52	0x3ec5d55b	0.3863934
53	0x3dca3fac	0.09875426
54	0xbdad6946	-0.08467345
55	0x3d2dc882	0.042427547
56	0x3cb7cc54	0.022436298
57	0x3e006858	0.12539804
58	0x3e32370d	0.17403813
59	0x3e382e58	0.17986429
60	0xbd88ca0f	-0.066791646
61	0x3eac056e	0.33597893
62	0x3eac2f48	0.33629823
63	0x3f1a2d84	0.602257
64	0xbf308618	-0.6895461
65	0x3a19f818	0.00058734557
66	0xbf3784c5	-0.71686965
67	0xbbb93a9a	-0.005652738
68	0xbe44cb42	-0.19218162
69	0xbf0cec12	-0.55047715
70	0xbf33f33f	-0.7029304
71	0xbf0fb118	-0.561296
