FinalModels/BR/Data3Models/br-4-312-82-128-0.01-0.6842.pt (torch, 1383 bytes, 1 tensors)

dnn.0.weight f4 [1, 72]
000000 da 0d c9 be 6c 6c 08 bf 38 08 02 be 02 08 4b 3d
       -0.3926838 -0.5329044 -0.12698448 0.049568184
000010 a2 73 9e 3e e0 2c cf 3e 81 40 b6 3e 67 76 e1 3e
       0.30947596 0.40463924 0.35596088 0.44035646
000020 f0 3d 8c 3e f5 ef 15 3c b9 6f 58 3d f0 64 80 3d
       0.27391005 0.0091514485 0.052840922 0.06269252
000030 90 a0 9b 3e 1e 60 ba 3e 39 cd 76 3c 90 32 00 3f
       0.30395937 0.36401457 0.015063577 0.5007715
000040 b1 8e e7 be 82 03 02 bf c0 fe 0c be ec 68 3a be
       -0.45226052 -0.507866 -0.13769054 -0.18204087
000050 0a b8 6a 3d d9 13 d4 3d ec d3 d4 3c 8f db 2a be
       0.05730442 0.10355348 0.025979958 -0.16685317
000060 1f d3 41 be ce be 9c bd 47 6d 20 be 72 40 2a bc
       -0.18928193 -0.076535806 -0.15666686 -0.0103913415
000070 1b c8 07 be ea 9d 45 bd 89 f3 95 bd 4b 3e d5 bd
       -0.13259928 -0.0482463 -0.07321841 -0.10412272
000080 ab bf 9e 3d 83 8f d6 bb 18 63 26 bc 3f b4 f6 3c
       0.077514015 -0.0065478696 -0.010155462 0.030115245
000090 79 f1 36 3d 6c 68 95 3e 7c 78 c4 3d bb 47 a3 3e
       0.04466388 0.2918123 0.09593293 0.31890664
0000a0 76 67 62 3d 90 73 a7 3d 29 96 c4 3c 23 2c a1 3e
       0.05527445 0.08176339 0.023997383 0.31478986
0000b0 42 56 7c 3e d8 74 d0 bc 92 6f 05 3f fb 00 02 3f
       0.2464228 -0.02544634 0.5212337 0.50782746
0000c0 c0 b2 05 3e de e2 83 3e 5f 2f c5 3d 5f 82 97 bd
       0.13056469 0.25759023 0.09628176 -0.07397913
0000d0 13 f8 f8 3e 77 54 2b 3f ed d5 8c 3e 1d c7 b5 3e
       0.48626766 0.6692576 0.27506962 0.35503474
0000e0 9b b8 22 3e 1d af 07 3f e3 01 e9 3d fe cc ff 3d
       0.15890734 0.53001577 0.11377313 0.12490271
0000f0 c8 78 e5 bd 10 31 9e 3d f2 73 2c 3e 80 13 88 3d
       -0.11204678 0.07724202 0.16841105 0.06644344
000100 ba e8 8a be da 78 36 3b b5 78 2b be 2e c5 e4 bb
       -0.2713068 0.002784303 -0.16745265 -0.0069815135
000110 01 b4 14 3e 79 8e 3a be 95 f9 1a bf ad 14 66 be
       0.14521791 -0.18218412 -0.6053708 -0.22468825
