FinalModels/BR/Data3Models/br-5-312-91-128-0.01-0.6286.pt (torch, 1383 bytes, 1 tensors)

dnn.0.weight f4 [1, 72]
000000 d4 c1 36 3e 1c e1 bc 3e ca 5b 94 3e 74 f0 9c 3c
       0.17847377 0.36890495 0.2897628 0.019157626
000010 45 75 76 be 26 d3 30 3e e4 77 f1 bd fa 4f bb 3d
       -0.24068172 0.17268047 -0.117904454 0.09146114
000020 cb 54 11 3e 3c 17 35 3e 1c 17 38 3e 37 6f d5 3d
       0.14192502 0.17684644 0.17977566 0.10421603
000030 81 07 93 3e 2b 62 a0 3c 6b 58 fb bd bc 67 de bd
       0.28716663 0.01957806 -0.12272724 -0.108596295
000040 62 cc 24 3e 8e 7e 2a 3f 93 ca 79 3e c4 bb 86 3d
       0.16093591 0.6659936 0.24393682 0.06578782
000050 e2 f4 f4 3e 59 dd 2b 3e 76 c7 78 3e 76 fc 84 3e
       0.4784308 0.16783656 0.24294838 0.25973862
000060 d5 6a 7c 3e d3 df 77 3e 33 fe 49 3e 05 df 06 3e
       0.24650128 0.24206476 0.19725876 0.13171013
000070 33 4e 7b 3e 4f 51 83 3e 5a 48 da 3d a1 71 68 3d
       0.2454155 0.2564797 0.10658331 0.05674899
000080 bc a8 bc 3e e8 d6 63 bb 4e 4f 80 3e 88 9e ab be
       0.36847484 -0.0034765545 0.25060505 -0.33519387
000090 c8 86 cb 3d 7b a7 b4 be b4 36 bd be 2c 49 a5 be
       0.09937817 -0.35284027 -0.36955798 -0.32282388
0000a0 b7 49 c8 be a0 df 02 bf 54 56 f8 be a0 04 01 bf
       -0.3911874 -0.51122475 -0.48503363 -0.5039768
0000b0 8c 08 19 bf a4 60 0e bf 91 6c 61 bf 63 18 4f bf
       -0.59778666 -0.5561621 -0.88056284 -0.80896586
0000c0 72 25 10 3e da 1f 45 be 88 f5 11 3d 3c 86 36 3e
       0.14076784 -0.19250432 0.035634547 0.17824644
0000d0 5c 62 39 3e 8c 2d 13 be 18 eb f6 bc 16 8f a9 3d
       0.18103927 -0.14372844 -0.030141398 0.082792446
0000e0 74 0b 4e be aa 95 a0 be e8 09 83 be a2 e6 d9 be
       -0.20121557 -0.31364185 -0.25593495 -0.4255877
0000f0 fa 7c f8 be e6 e4 0f bf 00 fb 63 bf 06 73 37 bf
       -0.4853285 -0.56208646 -0.8905487 -0.71659887
000100 af 3b 89 be 0c 29 86 bc fa b6 15 bd ed 13 86 3c
       -0.26803347 -0.016376995 -0.036551453 0.016366923
000110 6f 89 b3 3e 10 69 c3 be 64 3c 5b 3d ee ec 1a be
       0.3506579 -0.38166094 0.05352439 -0.15129444
