FinalModels/Zhang/Data3Models/zhang-312-91-128-0.01-0.6579.pt (torch, 33375 bytes, 4 tensors)

dnn.0.weight f4 [72, 72]
000000 7b 90 b7 3e 21 24 18 3f 46 be 10 3e 8d 7c c0 bd
       0.35852417 0.5943013 0.14135084 -0.09398756
000010 4a ea ec be fc 40 2a be a4 cf 84 be 57 c7 30 3e
       -0.46272498 -0.16626352 -0.25939667 0.17263542
000020 4a f9 a3 3e de cc b0 3e 90 56 d9 bb 42 be 27 be
       0.3202613 0.345313 -0.0066326335 -0.16381171
000030 2e eb 93 3d 34 80 e4 3d 2f 2a 9c bc 7c f4 32 bc
       0.07222591 0.11157265 -0.019063083 -0.010922547
000040 e4 40 27 3f 7c 95 3a 3f 47 84 1a 3e 5d 35 2e 3e
       0.6533339 0.72884345 0.15089522 0.17012544
000050 d9 c5 a2 3e 33 b9 a3 3e e8 e2 bb 3e 0e 0f 11 3f
       0.3179157 0.31977233 0.36696553 0.56663597
000060 5b ff 9d 3e 5f 19 56 3e e6 0a 80 3e 30 cc 26 3e
       0.30858883 0.20908116 0.25008315 0.16288829
000070 4e 79 6a 3e 31 25 af 3e d4 56 a4 3d 13 a7 61 3d
       0.22897837 0.34208062 0.08024374 0.055090975
000080 2c 05 6c 3e 4e ac 39 3e 43 71 be 3d fc 8f 36 bf
       0.23048848 0.18132135 0.09298947 -0.7131345
000090 7e 1a 88 bc c4 5e 7c be 3c 1c 11 be 65 dd a2 be
       -0.016614195 -0.24645525 -0.14170927 -0.31809536
0000a0 86 27 e7 be 10 ab c7 be 69 e9 f2 be ed 47 18 bf
       -0.4514734 -0.38997698 -0.47443703 -0.5948475
0000b0 9a ad 0c bf e7 b6 1c bf 8a 0f 22 bf 82 b2 3f bf
       -0.54952395 -0.61216587 -0.6330496 -0.74881756
0000c0 f9 4b 4a 3e 03 a1 34 be 11 eb f0 3d 41 e2 10 be
       0.19755544 -0.17639546 0.11763585 -0.14148809
0000d0 c6 f1 31 bc ec e9 ed bd 77 e3 48 3d d3 aa ba 3d
       -0.010860866 -0.11616883 0.049045052 0.091146134
0000e0 f6 7e 4a bd 1d 97 48 be b3 14 7a be 0e b2 40 be
       -0.049437486 -0.19588895 -0.24421959 -0.18817922
0000f0 6d 9e ac be 96 1a fa be 08 9f bf be 5c 6f f7 be
       -0.3371462 -0.48848408 -0.3742602 -0.48327148
000100 28 64 43 bc fc f3 c4 bc 42 de 9d be 18 9b ab bb
       -0.011925735 -0.024042122 -0.30833632 -0.0052369945
000110 58 da 05 3e 89 86 15 bf 99 c4 22 3f a4 38 5a be
       0.13071573 -0.5840841 0.63581234 -0.21310669
000120 58 2c 52 33 72 82 c9 37 7f e0 26 b8 ea 46 25 3d
       4.8934766e-08 2.402181e-05 -3.9786562e-05 0.040350832
000130 b9 aa 1c 3c 50 82 59 b9 c5 54 21 bd 55 7e dc bc
       0.009562188 -0.00020743278 -0.039387483 -0.026915709
000140 10 c1 d0 bc ac aa c2 bc a7 eb 0a 3b 13 52 c7 bc
       -0.025482684 -0.023763023 0.0021197589 -0.024331128
000150 4d 44 73 bc 94 9b ef bc 82 9c 72 3b 4c c3 8a bc
       -0.014847827 -0.02924899 0.0037019555 -0.016938828
000160 45 35 63 34 a5 8b c0 39 aa cf 2f b4 28 4a 99 bc
       2.1160402e-07 0.00036725137 -1.6373693e-07 -0.018712118
000170 b9 f4 2b 3c 5c 29 51 bc fb 20 2e bd 74 58 97 bc
       0.010495358 -0.0127662085 -0.04251192 -0.018474795
000180 9b 46 15 bd 27 26 aa bc 82 ec 01 bc 37 b5 54 3b
       -0.036444288 -0.020770146 -0.007929923 0.0032456645
000190 4b 4c 3f bd d4 ca 45 bd 6d 0a a5 bc 32 9b b7 bc
       -0.046703618 -0.048289135 -0.020146573 -0.02241287
0001a0 71 2d 23 33 ea 2f 2c b5 f4 02 90 32 4e 94 57 3b
       3.7992724e-08 -6.414472e-07 1.676515e-08 0.0032894793
0001b0 ca b9 87 bd d3 dc a1 bd 0d d6 a7 bc 98 00 11 bd
       -0.06627233 -0.07903447 -0.02048781 -0.035400957
0001c0 9f e3 2e bd d2 26 8f bc 5c a9 16 bd bf 75 67 bc
       -0.042697545 -0.017474566 -0.036782607 -0.014127194
0001d0 de a8 be bc 1b e2 ed ba 72 03 05 bc dc 07 01 bd
       -0.023273882 -0.001814905 -0.008118497 -0.031501636
0001e0 40 6e f4 33 af 25 d9 b9 c8 aa b1 34 36 4e 1c bd
       1.138219e-07 -0.00041417542 3.309308e-07 -0.038160525
0001f0 0d 15 44 bd 8b d0 2e bc 28 37 ff ba f1 7a 7d bb
       -0.047871638 -0.010669838 -0.0019471394 -0.0038678015
000200 89 d1 f1 ba c7 76 56 bb 13 7b 70 bb 7c 11 05 bb
       -0.0018449287 -0.0032724605 -0.0036694452 -0.002030461
000210 3c 90 9e bb f4 bb c5 bb 64 c8 25 bc 61 9e 01 bc
       -0.0048389714 -0.0060343686 -0.010118578 -0.007911296
000220 5c 3d ac 3b 06 1a b1 bd 72 b7 ee 3b ab 9c 16 bd
       0.005256338 -0.08647542 0.007285052 -0.036770504
000230 43 e2 2a bd 45 a1 0e ba cf 56 9d 3a a4 50 f6 bb
       -0.041719686 -0.0005440901 0.001200402 -0.0075169373
000240 10 df 0b bd 07 03 a8 bc fe 40 19 be 3d 10 81 bc
       -0.034148276 -0.020509256 -0.14966199 -0.015754813
000250 27 a0 0f be 4a 1a 40 be a3 3e 67 bd 8e 76 2b be
       -0.14025937 -0.18760028 -0.05645622 -0.16744444
000260 57 a9 ac 3c 79 c8 ed 3c 5d cf a5 bd fd 8c 8a 3b
       0.021076841 0.029026257 -0.08096192 0.004228233
000270 1b 47 5e bd a1 b7 5f 3c 77 a2 c8 bc b4 70 0c be
       -0.05426703 0.01365462 -0.024491532 -0.13714868
000280 e4 6e 96 bd 24 15 71 3c 9d 82 83 bc 4d 51 93 bd
       -0.073453695 0.014714513 -0.016053492 -0.07193241
000290 73 c1 43 bd 40 79 b7 bd 55 d4 fb bc 16 b7 ee bd
       -0.04779191 -0.089586735 -0.030740896 -0.116560146
0002a0 e8 11 fd bd 6f 17 b5 bd 88 cd ea bc 24 7c 08 bd
       -0.12356931 -0.0884236 -0.028662458 -0.033321515
0002b0 c3 e2 a4 bc f1 7c a9 bb d2 5f 11 bd e4 fa 16 be
       -0.02012766 -0.005172365 -0.035491772 -0.14744145
0002c0 5e e1 a5 bd f4 d9 b2 bb ea 52 0f bc 57 91 b6 bd
       -0.08099626 -0.005458111 -0.008747796 -0.0891444
0002d0 37 92 83 bc 83 96 df bd e0 14 27 be 6e 3d 8d bd
       -0.016060932 -0.1091738 -0.16316557 -0.068964824
0002e0 28 0f 94 bd be d6 2c be ab 66 3c be 20 e8 40 3c
       -0.07229453 -0.16878793 -0.1839854 0.011774093
0002f0 36 b6 2d be 2b 7b dd bd bf 7d 13 3c 1c 04 67 3c
       -0.16964039 -0.10814508 0.009002148 0.014100101
000300 01 22 5e bc 0e 53 0b be 4f 83 50 bd b8 b1 36 be
       -0.013557912 -0.13605902 -0.050906476 -0.17841232
000310 8b c1 24 be 30 87 35 be eb 10 0b be da 7f 17 bc
       -0.16089456 -0.17727351 -0.13580672 -0.009246791
000320 93 c8 19 be 4e 2f 8b 3c cc 60 99 bd 86 52 48 bd
       -0.15017919 0.01699033 -0.07489166 -0.048906825
000330 33 7f f8 bd 0b 20 fa bd b8 50 8f bd 2f 27 72 bd
       -0.12133636 -0.12213143 -0.06997818 -0.0591194
000340 0a 31 2d bc 0f 98 08 bb 65 a3 3c 3d 65 56 aa bd
       -0.010570774 -0.0020842587 0.046054263 -0.0831726
000350 3b ef 49 be c6 73 ed bd 17 74 89 3c bc 5b 22 bd
       -0.19720165 -0.11594348 0.016778989 -0.039638266
000360 1d 47 a9 32 55 f0 7a 34 be 66 3f b3 5b d5 40 3d
       1.9706528e-08 2.3370497e-07 -4.4564096e-08 0.04707847
000370 b0 8a 89 3b b3 f7 dc ba 97 41 a0 b8 60 d5 5b 35
       0.004197441 -0.0016858488 -7.6416116e-05 8.189436e-07
000380 b0 6c f6 b0 b7 9b 92 b4 fc 8c a2 33 a3 98 3c b4
       -1.7929747e-09 -2.7307917e-07 7.569358e-08 -1.7564393e-07
000390 07 2c a9 34 92 10 18 32 fb 3b 3b b3 cf ac a9 33
       3.1510737e-07 8.851332e-09 -4.3593882e-08 7.9011095e-08
0003a0 cc 04 0f 33 da 6b 59 b3 af 5e 72 b3 48 70 a1 bc
       3.3299145e-08 -5.062234e-08 -5.643113e-08 -0.01970686
0003b0 52 f0 a6 b9 eb 8d c7 b3 fd 99 14 32 b8 40 d4 34
       -0.0003184104 -9.292474e-08 8.649747e-09 3.9535166e-07
0003c0 7a 8e 79 33 4a fd af b4 a8 d8 a5 b4 72 61 3b 33
       5.8104412e-08 -3.2780582e-07 -3.0891283e-07 4.3627956e-08
0003d0 08 d6 23 32 ed b0 85 b4 a4 a6 1f 34 12 d5 4e 32
       9.536514e-09 -2.490191e-07 1.4868652e-07 1.2039225e-08
0003e0 07 b2 2f 33 0b 10 67 33 23 74 0c 33 34 99 1b bc
       4.0907278e-08 5.379847e-08 3.2701916e-08 -0.009496976
0003f0 c3 dd 9b 35 5c 28 23 b4 18 de 2e 33 0c 39 79 b3
       1.1612941e-06 -1.519524e-07 4.0714525e-08 -5.8026714e-08

dnn.0.bias f4 [72]
000000 c0 93 1d 3e 8e b0 5e bd 48 10 08 bd 25 d9 0f 36
       0.15388393 -0.054367594 -0.033218652 2.1435055e-06
000010 f4 5c a4 3d 90 0d d9 b3 9b 0a e0 3d 58 57 a3 b2
       0.08025542 -1.0107317e-07 0.10939523 -1.9015417e-08
000020 70 0e 4a be 7f 42 45 bd 67 61 a0 be 46 95 68 bd
       -0.1973207 -0.04815912 -0.31324312 -0.056782983
000030 eb 7f fb bc 80 06 8e bd ee df 7a 3d d6 78 c2 3d
       -0.030700644 -0.069348335 0.061248712 0.09495704
000040 b0 18 47 bd ed 73 9b bc 10 fc 62 bc a8 ac d5 3d
       -0.04860753 -0.018976176 -0.013854042 0.10433322
000050 0e 65 a3 bc 42 b2 93 bd 5e 4a ab 3e 22 d3 25 bd
       -0.019945648 -0.07211734 0.33455175 -0.040484555
000060 b2 c8 5a 3b 5c dc ab bd cf 50 fb bc b5 5a 7d bc
       0.0033383784 -0.083916396 -0.030678181 -0.015463521
000070 f8 07 76 bd 2c 00 05 be 92 99 71 bd 9c 43 5b bc
       -0.060066193 -0.12988347 -0.058984347 -0.013382819
000080 f0 cc 0b 3d 8d a3 ab 3d b3 50 93 bd 08 70 9d 3d
       0.03413099 0.08380804 -0.071931265 0.07687384
000090 3e 8a 42 3d 45 b6 48 bd 24 93 ab bd 78 0d ec bb
       0.04749512 -0.04900195 -0.08377674 -0.007203754
0000a0 8b ee 08 3e ad 04 94 bc de 52 b9 3b be 6e e8 3d
       0.13372247 -0.018068636 0.0056556305 0.113492474
0000b0 96 0f a2 bb 3f 11 c0 bd e9 35 e7 bc 48 a1 8b 3d
       -0.0049457056 -0.093782894 -0.028223949 0.06817871
0000c0 4d 17 ae bc e8 3f a2 3b 64 02 05 be ab a7 91 bd
       -0.021251345 0.004951466 -0.12989193 -0.07112058
0000d0 67 5d 95 bd 5a 3a 1c 3e 21 8c 04 3d 62 57 ed 3d
       -0.07293206 0.15256634 0.0323602 0.115889326
0000e0 64 3f 56 bd 0e 31 03 3e 96 34 d7 3c 8f db 90 36
       -0.052306548 0.12811682 0.026270192 4.3170944e-06
0000f0 d0 bb 95 3c cd 2b 1b 34 84 cd a3 ba 8d 8c ae bc
       0.018278033 1.4451435e-07 -0.0012497162 -0.021307254
000100 04 90 66 3b 06 0a 1a be 6d ca c6 3d 08 f0 18 3b
       0.0035181055 -0.15042886 0.097065784 0.002333643
000110 7f 3f cc b2 60 30 e9 ba 27 a9 6b bc 7d f7 a3 bd
       -2.37776e-08 -0.0017790906 -0.014383591 -0.08006189

dnn.2.weight f4 [37, 72]
000000 e7 40 d9 bd 58 e3 08 31 8a 1b c9 bb 98 ed 28 b2
       -0.10608082 1.9919835e-09 -0.006137316 -9.83291e-09
000010 1c bc bc bd 44 6d e8 32 ae 82 f1 bb 00 af a7 b1
       -0.092155665 2.7058043e-08 -0.0073703146 -4.880235e-09
000020 84 84 1f bd cf d1 6d ba 89 9c 45 be ad 8d f8 ba
       -0.038944736 -0.00090720964 -0.19297995 -0.0018963121
000030 49 45 15 b3 55 25 42 35 eb 6c 87 bd 64 d5 ed bc
       -3.475478e-08 7.2324957e-07 -0.06612571 -0.029032417
000040 c3 88 8e bc fe 82 25 be e6 60 f9 bd 70 d1 d8 bc
       -0.017399197 -0.16163251 -0.12176685 -0.026467055
000050 e0 5f 2a 30 71 34 5a 34 f6 12 65 3c 96 3c 03 be
       6.1981886e-10 2.032191e-07 0.013981571 -0.1281608
000060 94 73 ba 3b 78 a8 8f 33 5b 6b 31 bd de 72 79 33
       0.0056900475 6.689601e-08 -0.043315273 5.80793e-08
000070 fb f4 88 3c 8d 89 56 be 64 5a 71 bd 59 17 94 3b
       0.016718378 -0.20950909 -0.058924094 0.004519385
000080 ef 78 3d bc 58 60 2d be 20 32 13 b4 45 6d b7 bd
       -0.011564477 -0.16931283 -1.3708677e-07 -0.089563884
000090 78 91 d9 bd 1d a0 2e be 26 b5 2b bd cf 0f 26 33
       -0.10623449 -0.17053266 -0.041920803 3.8664265e-08
0000a0 e3 a0 3b be 74 ea 91 33 18 fb 3f bd ce ae a0 be
       -0.18323092 6.7947354e-08 -0.04687032 -0.31383365
0000b0 c4 39 62 bd e5 62 bb bc d9 8d 7a b3 cf 57 0d bf
       -0.05523087 -0.022874305 -5.833667e-08 -0.5521211
0000c0 af 0b f2 33 67 2e c2 bd 90 42 ef bc 32 e8 c7 33
       1.12711284e-07 -0.09481507 -0.029206544 9.308896e-08
0000d0 7f 9d 59 3d df 6e d5 bd 05 2f f2 bd c2 47 a7 bd
       0.053128716 -0.104215376 -0.118253745 -0.081679836
0000e0 51 64 31 be 75 cc 77 3b 9c 3a 08 be c4 15 b5 32
       -0.17323424 0.0037811075 -0.13303608 2.1081071e-08
0000f0 6b 51 b0 bd 71 ef 45 33 73 ed 4f 33 39 0c 51 bc
       -0.08609279 4.6085407e-08 4.8411902e-08 -0.012759262
000100 9f a4 84 bc c1 7d 8a bd fd 54 82 bb 3a b0 f9 ba
       -0.016191779 -0.06762267 -0.0039774165 -0.0019049712
000110 7d 4e 2d b3 76 26 5e bb 08 e9 2a b1 96 d2 04 be
       -4.0351086e-08 -0.0033897436 -2.4870719e-09 -0.12970957
000120 2f 62 e9 bd 03 38 7f 3d fd a1 46 3d 4d 28 11 32
       -0.1139568 0.062309276 0.048494328 8.449274e-09
000130 01 40 4e 3d fa 8f 9c b2 ae a9 ae bd 74 cd c7 b1
       0.050354008 -1.8226263e-08 -0.085284576 -5.8150196e-09
000140 91 78 dc bd 12 ff ed 3c a1 60 8b bd fa 5b d9 3d
       -0.10765184 0.029052291 -0.0680554 0.10613246
000150 1a 31 b1 bd cf 15 1e bd 9c 72 a7 bd 68 50 0e be
       -0.086519435 -0.038595017 -0.08176157 -0.1389786
000160 1d 88 12 ba e4 33 20 bc 42 37 29 be 41 ee e9 bd
       -0.00055897405 -0.009777997 -0.16524985 -0.114223965
000170 a8 7d 50 b4 3e 66 f6 3c 86 20 d9 3d 94 d4 d8 3c
       -1.9417223e-07 0.03007805 0.106019065 0.026468553
000180 e8 77 62 3c 55 fa aa bc ae 43 2d bd e7 93 e2 33
       0.013822533 -0.02087132 -0.042300873 1.05508484e-07
000190 6c 9e 15 bd da bc 7d be be f6 54 3d 66 f0 61 3c
       -0.036528036 -0.24779072 0.051993124 0.013790226
0001a0 56 be 2a be 6f 3b 06 be d4 bf 94 bd 29 08 6d 3d
       -0.1667417 -0.1310861 -0.07263151 0.05786911
0001b0 ad 86 8d bd 44 fe 27 be d1 c9 9b bd 14 b0 02 33
       -0.06910453 -0.16405588 -0.07606853 3.0428126e-08
0001c0 f7 81 7e 3d f6 bb 0c 3a f7 f5 45 3d 03 a5 7f be
       0.062135663 0.00053685845 0.048330273 -0.2496529
0001d0 bb 3e 7a bc b9 fd 17 3b 2c cf 6e 3b eb f4 1d 3e
       -0.015273745 0.0023192002 0.0036439402 0.1542546
0001e0 93 c4 eb 3c a4 3c 17 be 37 23 ba 3c b0 f2 69 ba
       0.028780257 -0.14769226 0.02272187 -0.0008924408
0001f0 1e 2d 24 be 0e d9 61 3d a0 03 28 be f4 eb 3e 3d
       -0.16032836 0.05513864 -0.16407633 0.04661174
000200 85 24 e5 bd 43 fb 94 3c f1 e2 fe 3c 0f ce 3a 34
       -0.11188606 0.018186217 0.031114073 1.7397564e-07
000210 f0 3f b7 bd 3e 21 a1 33 5b 6a 73 33 1f 32 f0 bc
       -0.08947742 7.5031934e-08 5.6674576e-08 -0.029320775
000220 b8 85 11 be d3 1c e0 bd 77 e4 4f be f7 5d 09 3e
       -0.14211166 -0.10942998 -0.20301996 0.13414751
000230 74 3a b9 b1 5d f7 74 bb 8f 31 36 3d 9c 12 a1 bc
       -5.390854e-09 -0.0037378885 0.044480857 -0.019662194
000240 73 cb a5 bd cc 07 05 3d f6 30 9f bd 20 f7 3f b3
       -0.080954455 0.03247814 -0.077730104 -4.4695412e-08
000250 8f b3 88 3d 14 31 9d b3 0f dd 1d 3d 42 53 c5 31
       0.06674873 -7.3198095e-08 0.038540896 5.74292e-09
000260 fa 93 b6 bd 41 19 6f 3d 9b a6 57 be 40 08 53 3d
       -0.08914943 0.058373693 -0.21059649 0.05152154
000270 c7 d1 98 bd cb cb 22 ba c0 ef 37 be 55 a7 53 be
       -0.07461887 -0.0006210177 -0.17962551 -0.20669301
000280 71 05 ab 3c 9c ef 69 3d 6f 5e 2e 3c 20 93 25 3c
       0.020876618 0.057113275 0.010642632 0.010105878
000290 02 6d b8 3c a9 89 50 bc cf 91 99 3d d1 7d d9 3c
       0.022512916 -0.012728133 0.07498514 0.026549252
0002a0 a8 71 a9 bd 1e dd 01 3b 8b 7b 27 3b fb 87 82 33
       -0.08273631 0.0019815634 0.0025555815 6.0783314e-08
0002b0 95 c1 17 bc 96 fb d2 bd ac a0 6e bd 7e 4f bf 3c
       -0.009262462 -0.103018925 -0.058258697 0.023353335
0002c0 d4 71 dc bd af 6d 7a bd 5e 29 68 bd 93 f7 99 bc
       -0.107638985 -0.06113976 -0.056680076 -0.01879481
0002d0 2b 4c 02 be ea e1 03 be ae c1 55 bc 45 02 05 3d
       -0.12724368 -0.12879148 -0.013046665 0.032472868
0002e0 f4 9a f6 bd 42 05 03 b3 50 40 65 bd d0 f0 1d 3e
       -0.12041274 -3.0505596e-08 -0.055969536 0.15423894
0002f0 eb 4c 57 bd a1 2e a9 bb 44 ed 60 3d 8a fe 06 3e
       -0.05256359 -0.0051630293 0.054913774 0.13183036
000300 44 d3 6f bc 2b 26 56 3c 10 c7 a5 bc 7c 75 b0 bc
       -0.014637772 0.013070623 -0.020236522 -0.021540396
000310 b8 65 34 be a4 6b fe 3d 56 14 e3 bd 01 c5 05 3d
       -0.17616928 0.124228746 -0.11087863 0.03265858
000320 ef 38 07 3d 68 a6 93 3d c0 c5 b9 bc 1c 86 2f 3d
       0.03301328 0.07209474 -0.022677302 0.042852506
000330 1c 0a 86 bd 71 9a 06 b4 f0 50 5c 3b 82 b8 5b bd
       -0.06544897 -1.2535908e-07 0.0033617578 -0.053642757
000340 fa 92 1d 3d 92 4e 9e bd ce 2a c1 bd c6 a8 43 bd
       0.038470246 -0.0772983 -0.094319925 -0.047768377
000350 b0 4c 7c b2 ac 95 88 bc cf 9f 1d 3d 1c 58 35 be
       -1.4685767e-08 -0.016672932 0.038482483 -0.17709392
000360 2a 05 f3 bc 19 85 be 3a 6a 59 c7 bd dc c1 9e b1
       -0.029665548 0.0014535516 -0.09733851 -4.6204445e-09
000370 12 fa 16 be 34 f6 96 31 a8 b7 0a bd 02 77 e0 b1
       -0.14743832 4.3935646e-09 -0.033866554 -6.5327876e-09
000380 60 f7 a9 bd 1b ac af 3c 28 88 01 be 8c c4 30 3d
       -0.08299136 0.021444371 -0.12649596 0.04315619
000390 5a dc b7 3d ed 6c 65 3e 0d 5d d1 bd ad fd 16 bd
       0.089775756 0.22404833 -0.10222826 -0.036863018
0003a0 29 e8 33 3c bc 49 7f bd 45 d4 23 bd c7 97 b1 bd
       0.010980644 -0.062326178 -0.039997358 -0.08671527
0003b0 bc 2f f4 b9 cb e6 0e 3e 33 ca dd bd 06 fe c6 bd
       -0.00046574872 0.13955228 -0.10829582 -0.0971642
0003c0 33 1b 23 be bf 87 c0 3d 8b 9c db bb d4 4b 48 b3
       -0.15928344 0.094008915 -0.006702011 -4.6635094e-08
0003d0 68 d5 63 bc e5 7c 99 bd bf ed 3d 3b 66 e5 29 bd
       -0.0139058605 -0.07494525 0.002898082 -0.041478537
0003e0 7e 1d 7a bd 54 f3 20 bd 10 71 0c 3e e6 b9 81 bc
       -0.061063282 -0.039294556 0.13715005 -0.015835714
0003f0 36 20 80 3c ba 56 52 bd f1 f6 55 3b 88 fb c4 36
       0.01564036 -0.05135224 0.003264841 5.8705373e-06

dnn.2.bias f4 [37]
000000 a1 a8 37 bd 06 b1 b5 3b 59 b7 39 3e c6 b0 47 be
       -0.04483855 0.0055447845 0.18136348 -0.19501027
000010 37 a6 ba bc 40 39 8d 3c 2d 92 8f bd 78 c5 c1 3b
       -0.022784336 0.017239213 -0.07010303 0.0059134327
000020 de e9 1a 3d 50 2d 1d be 1b 93 13 be c3 7f a9 bd
       0.03782069 -0.15349317 -0.14411585 -0.08276322
000030 f7 fe bb bc b7 1e 01 be a9 04 19 be 42 79 f0 bd
       -0.022948725 -0.12609373 -0.14943184 -0.11741878
000040 be 60 96 bd 61 ef e5 bd a5 28 5f 3c c5 60 5c be
       -0.07342671 -0.112272985 0.01362053 -0.2152129
000050 f7 cd 8a be f4 c3 37 be dd 93 38 be 99 1c 04 be
       -0.27110264 -0.17945844 -0.18025155 -0.12901534
000060 83 80 af bd 18 35 7f bd a2 9f 1e be 08 52 64 be
       -0.085694335 -0.062306494 -0.15490583 -0.22296917
000070 2a 5c b2 bc 3e 3b 07 be 87 6e f2 bd 95 67 2b be
       -0.021772463 -0.13206193 -0.11837488 -0.16738732
000080 bf 5b 3e 3e 70 4d 70 be 3b 6e a5 bd 1c 71 46 be
       0.18589686 -0.2346704 -0.080776654 -0.19379085
000090 7d 57 21 bc
       -0.009847519
