FinalModels/Sener/Data1Models/sener_dnn1-10000-91-128-0.001-0.6290.pt (torch, 19815 bytes, 42 tensors)

dnn.0.weight f4 [6, 100]
0	0xbe5d37d1	-0.21603324
1	0x3c263910	0.010145441
2	0x3d6bd1f3	0.05757327
3	0xbe8887d2	-0.26666123
4	0xbda36252	-0.079777375
5	0xbe76ac5d	-0.24089189
6	0x3dab44fb	0.08362766
7	0xbe444e0a	-0.19170395
8	0xba3b350b	-0.0007141388
9	0x3e0a80a0	0.13525629
10	0xbdc8879d	-0.09791491
11	0x3daa42b1	0.083135016
12	0xbdd0f157	-0.10202282
13	0xbdd68ce8	-0.104760945
14	0x3e43e75e	0.19131228
15	0xbe24c97d	-0.16092487
16	0xbe27b5db	-0.16377966
17	0xbc939270	-0.018014163
18	0xbd1e76c0	-0.038687468
19	0x3d9bc23b	0.07605406
20	0xbebc962e	-0.36833328
21	0x3cef72c5	0.029229531
22	0xbdf80ca0	-0.12111783
23	0x3c742b4a	0.014902899
24	0x3e179594	0.14803153
25	0xbe1367ab	-0.14395015
26	0xbe380f3b	-0.1797456
27	0x3c6e2bcb	0.014536808
28	0x3e1f4f5d	0.15557618
29	0xbdf2540e	-0.118324384
30	0x3ddf484f	0.10902464
31	0x3dc1b8b3	0.09459057
32	0x3c97cd32	0.018530462
33	0xbc46f1df	-0.0121426275
34	0xbc8a4f96	-0.016883653
35	0x3e6d68f0	0.23184562
36	0x3d82e754	0.063917786
37	0x3e12939a	0.14314118
38	0xbd23b35a	-0.039965965
39	0xbdc0f3b6	-0.09421484
40	0x3dbc71f4	0.09201422
41	0x3d8643e2	0.06555916
42	0xbda21d26	-0.07915716
43	0xbd239e60	-0.03994596
44	0x3e7fec73	0.24992542
45	0x3c22fd16	0.009948036
46	0xbe1a5941	-0.1507311
47	0x3d95bb72	0.07311143
48	0x3e7cc356	0.2468389
49	0x3c51f56a	0.012814859
50	0x3cd86c97	0.026418967
51	0xbc566ee6	-0.013087964
52	0x3c8e89bc	0.017399661
53	0x3d942a0a	0.07234581
54	0xbda3c37c	-0.0799627
55	0xbd9068be	-0.07051228
56	0x3d7e20bd	0.06204294
57	0xbd8610d4	-0.065461785
58	0x3e515d91	0.20445849
59	0x3d9de24e	0.0770918
60	0x3ea1c488	0.31595254
61	0xbe3581d5	-0.17725308
62	0xbe1c599d	-0.1526856
63	0xbbd674dc	-0.0065446924
64	0xbe62faf7	-0.22166048
65	0xbd8acc53	-0.06777253
66	0x3e1ab5db	0.15108435
67	0xbdaf165a	-0.08549185
68	0xbe269e43	-0.1627131
69	0x3ddf6872	0.10908593
70	0xbd7ba89a	-0.061440088
71	0xbd3580ea	-0.044312395
72	0xbcb06562	-0.021532718
73	0xbdcc0047	-0.099609904
74	0xbdc9fa45	-0.09862188
75	0x3db30c47	0.08742576
76	0xbd42fce8	-0.04760447
77	0xbe0832d8	-0.13300645
78	0x3dec3df7	0.11535256
79	0x3e17cf5c	0.14825195
80	0xbd4729db	-0.0486239
81	0xbe13d3f4	-0.14436322
82	0xbdd84cc4	-0.10561517
83	0xbc0899f5	-0.0083374875
84	0xbaa7045f	-0.0012742392
85	0xbdbf304c	-0.09335384
86	0x3ab56bd0	0.0013841335
87	0x3dce2380	0.10065365
88	0xbe288b7a	-0.16459456
89	0xbd272c16	-0.040813528
90	0xbe37bd0b	-0.17943208
91	0x3e148a43	0.14505868
92	0x3cc4e6f3	0.024035906
93	0x3e06d748	0.13168061
94	0x3e2b6b25	0.16740091
95	0xbd8d305f	-0.06893992
96	0x3dfe3247	0.124119334
97	0xbe3a5a2e	-0.18198463
98	0xbd58c1e9	-0.052919302
99	0xbd979848	-0.07402092
100	0xbd118221	-0.03552449
101	0x3e31cdbf	0.17363642
102	0x3d2eba39	0.042658065
103	0xbe097730	-0.13424373
104	0xbde05303	-0.10953333
105	0x3c1c78f1	0.009550319
106	0xbc475782	-0.01216686
107	0x3d60dfe8	0.054901034
108	0x3d356249	0.044283185
109	0xbdc4c617	-0.09608095
110	0x3d3c3244	0.045946375
111	0xbe0e8826	-0.13919124
112	0x3c1c757a	0.009549493
113	0x3e0e6951	0.13907363
114	0xbe68cf17	-0.22735249
115	0xbe17060a	-0.14748397
116	0x3e2372f2	0.15961817
117	0xbd340ee8	-0.04395953
118	0xbe0cf149	-0.13763918
119	0xb9940397	-0.00028231434
120	0x3d328d89	0.04359201
121	0xbc1cb0f4	-0.009563673
122	0xbe77c0f9	-0.24194707
123	0x3c8acd39	0.01694356
124	0xbe2617e5	-0.16220053
125	0x3d34aefc	0.04411219
126	0x3e924b28	0.28572965
127	0x3b6b46e4	0.0035900408
128	0xbc980782	-0.018558268
129	0xbdad81bf	-0.08472013
130	0x3e563f76	0.20922646
131	0x3ddb9591	0.10721887
132	0xbbb007b9	-0.0053720144
133	0xbc794432	-0.015214013
134	0x3b7660d6	0.003759434
135	0x3ca7941b	0.020456364
136	0x3da0d8a3	0.0785382
137	0x3e134afc	0.14384073
138	0x3cbd56ad	0.02311262
139	0x3dbca4dc	0.09211132
140	0xbd243520	-0.040089726
141	0x3df13a8f	0.11778747
142	0x3b09d54b	0.0021031674
143	0xbd5a637f	-0.053317543
144	0x3d1a07f4	0.03760524
145	0xbe0615a6	-0.13094196
146	0x3d3b7879	0.04576919
147	0x3d41e260	0.04733503
148	0x3d231b93	0.03982122
149	0x3dcbe415	0.099556126
150	0xbd63e626	-0.05563941
151	0x3df83319	0.12119121
152	0xbd7eca75	-0.062204797
153	0x3da4981e	0.080368266
154	0x3b86c7d5	0.0041131773
155	0xbd86eaf8	-0.065877855
156	0x3c9a3222	0.018822733
157	0x3d41482c	0.04718797
158	0xbe5c4ba0	-0.21513224
159	0x3cb30324	0.021852084
160	0x3e119a2b	0.14218967
161	0x3da35e20	0.07976937
162	0x3d4fa7d9	0.05069718
163	0x3dda095a	0.10646315
164	0x3e34a92b	0.17642657
165	0xbe3c2361	-0.18372871
166	0xbe19d17b	-0.15021317
167	0x3daad919	0.08342189
168	0x3cf058f2	0.029339287
169	0x3e1bc9d0	0.15213704
170	0xbdb7b17d	-0.089694
171	0x3d5431b9	0.05180523
172	0xbd685e9b	-0.056730848
173	0xbd0fde8c	-0.035124347
174	0x3e167a63	0.14695124
175	0xbd2f122f	-0.04274195
176	0x3cdd49b8	0.02701269
177	0x3cb98a62	0.022648994
178	0xbe15f46d	-0.14644022
179	0xbdc8b807	-0.098007254
180	0x3d752154	0.059846237
181	0xbdcb4517	-0.09925287
182	0xbd3b8ac5	-0.045786638
183	0x3db42202	0.08795549
184	0x3c6afe1b	0.01434281
185	0x3e627f8b	0.22118966
186	0xbe3c16cd	-0.18368073
187	0x3d3ac861	0.045601252
188	0xbe064b79	-0.13114728
189	0x3caf57ca	0.021404166
190	0xbda567c6	-0.08076434
191	0x3d92062a	0.07130082
192	0x3d2a1815	0.041526873
193	0xbe38ddd1	-0.18053366
194	0x3d41e973	0.047341775
195	0xbd13cb93	-0.036082815
196	0xbe37fba6	-0.1796709
197	0xbe083ddf	-0.13304852
198	0x3e16b660	0.14718008
199	0xbd2f6c7e	-0.042828076
200	0xbd91d88c	-0.07121381
201	0xbe4aceca	-0.19805446
202	0xbe2b320e	-0.16718313
203	0x3d7127ee	0.05887597
204	0xbdcbdb27	-0.09953909
205	0x3da32a1c	0.07967016
206	0xbdb4253b	-0.08796164
207	0x3e22d41c	0.15901226
208	0x3d8d5de0	0.06902671
209	0xbde58034	-0.112060934
210	0x3ddbef15	0.10738961
211	0xbcc6ced4	-0.024268545
212	0xbe178407	-0.14796458
213	0xbe1ae56e	-0.15126583
214	0xbdeab9e3	-0.11461236
215	0xbe530998	-0.20609128
216	0xbe3836e0	-0.17989683
217	0xbe25b2d0	-0.16181493
218	0xbc6e14d4	-0.014531333
219	0x3e6e81a0	0.23291636
220	0x3d8334a2	0.06406523
221	0xbd94c1de	-0.0726354
222	0xbe54f689	-0.2079717
223	0xbc823999	-0.015896605
224	0xbdd6a9ed	-0.104816295
225	0x3d25f26c	0.040514395
226	0x3caf7d8f	0.021422176
227	0xbd9e127d	-0.0771837
228	0x3d8290fb	0.06375309
229	0x3d4bebb7	0.049785342
230	0xbc9deffb	-0.01927947
231	0xbe2265b6	-0.15859112
232	0x3c982e61	0.018576803
233	0x3e01dfaf	0.12682985
234	0xbdd30281	-0.10303212
235	0xbdbb0819	-0.09132404
236	0x3dd5048b	0.10401257
237	0xbef6fa50	-0.48237848
238	0x3cd138f7	0.025539858
239	0x3de9610e	0.11395465
240	0x3c3740fe	0.011184929
241	0x3da39e03	0.07989123
242	0xbcddb1e5	-0.027062366
243	0x3da5e901	0.081010826
244	0x3d6f3c40	0.05840707
245	0x3e2e2aae	0.17008469
246	0x3c872b7b	0.016500225
247	0xbe123891	-0.14279391
248	0x3e16ce25	0.14727075
249	0xbdf0be82	-0.117550865
250	0xbe4995ac	-0.19686002
251	0xbd914d76	-0.070948526
252	0xbe1060b1	-0.14099385
253	0x3dfad999	0.12248535
254	0x3c4f7287	0.012661583
255	0xbe1ea147	-0.1549121

dnn.0.bias f4 [6]
0	0x3e3dcc0c	0.18534869
1	0xbd802995	-0.06257931
2	0x3e49f918	0.19723928
3	0xb2a11cc2	-1.8755944e-08
4	0x3e149348	0.14509308
5	0x3e673946	0.22580442

exp_avg f4 [6, 100]
0	0xbb81450a	-0.0039449977
1	0xbc1b03cd	-0.009461355
2	0x3c1b070c	0.009462129
3	0xbb65a42c	-0.003504048
4	0xbb8287a2	-0.003983454
5	0xbc0a610c	-0.008445989
6	0xbb8c5d2c	-0.004283568
7	0x3ba9a9e6	0.005177724
8	0x3bf55bc2	0.007487745
9	0xbab53853	-0.001382599
10	0x394e5b7f	0.00019679776
11	0xbb8cf2c8	-0.0043014027
12	0x3afeade7	0.0019430489
13	0x3bfa7e68	0.0076444633
14	0xbc1342d7	-0.008988104
15	0x3b7cfced	0.0038602904
16	0x3a2d59e5	0.00066128216
17	0xbcaf480e	-0.021396663
18	0xbca60f3c	-0.020270936
19	0xbb6b521d	-0.0035907098
20	0x3af01122	0.0018315653
21	0xb9cb2b82	-0.00038751593
22	0x3b84b985	0.004050436
23	0x3baee45e	0.005337282
24	0xb9fa4d07	-0.00047741106
25	0xbc0a7ef7	-0.008453122
26	0x3b4a7b50	0.0030896254
27	0xb9b786d6	-0.0003500494
28	0xbc1cbddb	-0.009566749
29	0x3bdd2958	0.0067493133
30	0x3b6009de	0.0034185569
31	0xb9e81abb	-0.00044270404
32	0xbbcd79dc	-0.0062706303
33	0xbb09a99c	-0.0021005636
34	0xba8320b1	-0.001000425
35	0xbc37c764	-0.011216972
36	0x3af16b50	0.0018418822
37	0xbac8e8b7	-0.0015328143
38	0x399675c4	0.00028697972
39	0xbc3d14c5	-0.011540596
40	0x3ab97a30	0.0014150795
41	0x3b91dca0	0.0044513494
42	0xbc03a8d5	-0.008035858
43	0x3c3f3e79	0.0116726095
44	0x3b97bc83	0.0046306266
45	0xbb53bbf8	-0.0032308083
46	0x3bef52ba	0.007303563
47	0x3bdbb373	0.0067047416
48	0xbb68c8fe	-0.0035520191
49	0x3c48de50	0.012260035
50	0x3bb46c69	0.0055060876
51	0xbc034311	-0.008011595
52	0xbb3ac988	-0.002850147
53	0xbbb5cafd	-0.0055478797
54	0x3b432366	0.0029775738
55	0x3a097498	0.0005243509
56	0x3c660999	0.014040374
57	0xba0df27a	-0.0005414855
58	0x3bad9e79	0.0052984324
59	0xbb3523aa	-0.0027639666
60	0x3a97b0ef	0.0011573116
61	0xbaa17461	-0.0012318009
62	0x3ab850fb	0.001406222
63	0xbc3312a6	-0.010929739
64	0xb9c146af	-0.00036864492
65	0x3b79e94a	0.0038133436
66	0xbb7167fb	-0.0036835659
67	0xbb2ccde0	-0.0026367828
68	0xbc340b7a	-0.010989064
69	0x3b9bbfab	0.004753073
70	0x3b31748a	0.002707752
71	0xbc0d81fe	-0.00863695
72	0xba520827	-0.0008012079
73	0x3bdbc852	0.0067072297
74	0x3c9efca9	0.019407587
75	0xbc260820	-0.010133773
76	0xbb7030ae	-0.003665011
77	0x3a2adcf9	0.0006517913
78	0x3c147edd	0.00906345
79	0x3ac6b65e	0.0015160551
80	0x3c2dd698	0.010610245
81	0xbcbb89b4	-0.02289281
82	0xbb1f5969	-0.0024314767
83	0xbb404608	-0.0029338617
84	0xbb6ee0ed	-0.0036449984
85	0x3b5c5de5	0.0033625301
86	0x3b953c08	0.0045542754
87	0xbb9b0b26	-0.0047315536
88	0x3bab6d9a	0.0052315714
89	0xba476379	-0.000760607
90	0x3bafd70b	0.0053662113
91	0xbbeb60fe	-0.007183193
92	0x3b8c98f1	0.004290693
93	0x3b966ad8	0.0045903735
94	0x3c05cc88	0.00816644
95	0xbb5978e3	-0.0033183626
96	0x3b50b86b	0.0031848203
97	0xbb339948	-0.0027404595
98	0xbaa8f4da	-0.0012890354
99	0xbc3d197e	-0.011541722
100	0x3acece34	0.0015778006
101	0x3ab76264	0.0013991115
102	0xbb39c222	-0.0028344472
103	0x3ab3e5c8	0.0013725096
104	0x3a23299b	0.0006224156
105	0x3b436fb9	0.002982123
106	0x3abd7e16	0.0014457132
107	0xbb980810	-0.004639633
108	0xbb90568f	-0.00440485
109	0x3b41869e	0.00295297
110	0x3a2b9360	0.0006545093
111	0x3a62dbe8	0.00086539844
112	0xbae5f21c	-0.0017543468
113	0xbb83636e	-0.0040096557
114	0x3b0fcc59	0.002194187
115	0xbae19cb0	-0.0017212834
116	0xb80640c1	-3.2008396e-05
117	0x3c0dcf00	0.00865531
118	0x3bbcb8c8	0.0057593323
119	0x3b1a0ae6	0.002350503
120	0xbaf9868a	-0.0019037288
121	0xb880441f	-6.116204e-05
122	0xbaa33597	-0.0012451884
123	0xb95b04a2	-0.00020887193
124	0x3aaee426	0.001334314
125	0x3bce11bb	0.0062887347
126	0xbada25e8	-0.0016643377
127	0x3931a8db	0.00016942939
128	0x3b68db2e	0.0035531032
129	0xba922005	-0.0011148459
130	0x395a3207	0.00020808737
131	0xba7e2fc7	-0.00096964504
132	0x3b0737b8	0.0020632576
133	0x3ae2d473	0.0017305746
134	0x398556bc	0.0002543236
135	0x3bbaccf8	0.0057007037
136	0x3987ded4	0.00025915226
137	0x3a8f0dbd	0.0010914129
138	0x39366d70	0.00017397641
139	0x3ba4df89	0.0050315303
140	0xbb078228	-0.0020676944
141	0xba7913bd	-0.00095015374
142	0x3bdfc0bb	0.006828395
143	0xbb59a26d	-0.0033208386
144	0xbbb9d976	-0.0056716753
145	0x3bb439da	0.0055000605
146	0xbb255582	-0.0025227969
147	0xbb916ac5	-0.0044377767
148	0x3a7e866b	0.0009709361
149	0xbb9d4332	-0.00479927
150	0xbb12109b	-0.002228773
151	0x3b7b5d60	0.0038355216
152	0xb901d516	-0.0001238178
153	0x3b2be902	0.0026231413
154	0xbb5af0e8	-0.0033407751
155	0xb99b2cba	-0.00029597228
156	0xbba22b6b	-0.0049490235
157	0xb9b68de2	-0.00034819456
158	0xbb6b3353	-0.0035888746
159	0xb91a8eeb	-0.00014739826
160	0xb91bb2b3	-0.00014848523
161	0x39be58e5	0.00036305856
162	0xb9addf20	-0.00033163372
163	0x3ba88bdc	0.0051436257
164	0x39eed952	0.00045556814
165	0xbb8347dc	-0.004006369
166	0x3a1b4c02	0.0005924107
167	0x39ec3bcb	0.00045057977
168	0x3b3e899a	0.0029073716
169	0xbaee6a58	-0.0018189652
170	0xbb562d04	-0.003268064
171	0x3a8a6c80	0.00105609
172	0xbb3e1e50	-0.0029009767
173	0xbb20055f	-0.0024417264
174	0xbbde8d1d	-0.0067917244
175	0x3b8a4531	0.004219674
176	0x3b00fdd3	0.001968254
177	0x3a17113e	0.0005762762
178	0xbad880c0	-0.0016517863
179	0xb99e0909	-0.0003014284
180	0xbb5fc43a	-0.003414406
181	0x3c2029df	0.009775608
182	0xba978565	-0.001156014
183	0x3a4c25c7	0.00077876117
184	0x3b0b50e8	0.002125794
185	0xb9c3dc28	-0.00037357328
186	0xbad761fe	-0.0016432402
187	0x3a91fcfc	0.0011138017
188	0xbb0ee715	-0.0021805216
189	0x3b085509	0.0020802638
190	0xbb20bdc3	-0.002452717
191	0x3b4dd939	0.0031409992
192	0xbb2ef885	-0.0026698422
193	0xbae740cc	-0.0017643212
194	0xbb9cb56b	-0.004782369
195	0x39b0a7b4	0.00033694285
196	0xb9cf957b	-0.00039593488
197	0x397a0228	0.00023842661
198	0x3b80acb8	0.0039268397
199	0x3b42b15d	0.0029707768
200	0x3b4c8160	0.0031205043
201	0x3b592096	0.0033130995
202	0xba05b471	-0.0005100435
203	0xb939df8e	-0.00017726255
204	0x3b31df78	0.0027141254
205	0x3aa9a636	0.0012943211
206	0xba293c7f	-0.0006455853
207	0xbb9dcb80	-0.004815519
208	0xbacd778c	-0.0015675887
209	0x3a09b095	0.0005252448
210	0x3b0524ae	0.0020316052
211	0xba365ce9	-0.0006956594
212	0x3a1e25ff	0.00060328835
213	0xba7e4394	-0.0009699401
214	0x3a6f442a	0.00091272837
215	0xba7b00e3	-0.0009575022
216	0xbb3af80a	-0.002852919
217	0x3b82c3d3	0.003990629
218	0x3b2749c3	0.0025526143
219	0x3ae6a4c9	0.0017596717
220	0x3a25656d	0.0006309364
221	0x38b86640	8.792849e-05
222	0xbb38d11f	-0.0028200818
223	0xba83ee3b	-0.0010065505
224	0x3ad87937	0.0016515617
225	0x3aa60b5d	0.0012668181
226	0xba8c17b6	-0.0010688219
227	0x39e806c7	0.00044255538
228	0x3aa9b00c	0.0012946143
229	0xb957332a	-0.00020523058
230	0xbaaac567	-0.0013028801
231	0x3a4a32fa	0.00077132846
232	0x3aefb450	0.001828799
233	0xba2fcec7	-0.00067065324
234	0x39cc4a17	0.00038965113
235	0x3a165924	0.0005735329
236	0x3a238b93	0.0006238755
237	0xba261b47	-0.0006336462
238	0xb9cba0b2	-0.00038838905
239	0x3b689193	0.003548716
240	0xb99f62ae	-0.00030400365
241	0x3a4bf729	0.0007780665
242	0x39b5dc80	0.00034687296
243	0xbb0c0d44	-0.0021370212
244	0xbb362d13	-0.0027797862
245	0x39dfaefc	0.00042664248
246	0xbaefacb0	-0.0018285718
247	0xba0c8425	-0.0005360267
248	0x39993516	0.00029221986
249	0xbb194a57	-0.0023390257
250	0xba436f91	-0.00074552844
251	0x3a8714d8	0.0010305895
252	0xba4adf64	-0.0007738976
253	0x39a11f42	0.00030731602
254	0xba0b8750	-0.00053225923
255	0xba1c461f	-0.00059613766

exp_avg_sq f4 [6, 100]
0	0x382fc2f2	4.190481e-05
1	0x3938bf16	0.00017618792
2	0x39928ac1	0.0002795067
3	0x383b408b	4.4644385e-05
4	0x38952c8c	7.113171e-05
5	0x3881f1d7	6.1962455e-05
6	0x3942eb2a	0.00018588887
7	0x394705aa	0.00018980229
8	0x391114db	0.00013836047
9	0x38632b2c	5.4161224e-05
10	0x38a79516	7.99095e-05
11	0x38ad7ec1	8.2728926e-05
12	0x37236f92	9.741534e-06
13	0x3917cb9b	0.00014476331
14	0x38c4230c	9.352536e-05
15	0x3883ae06	6.278981e-05
16	0x394a0ea8	0.00019269681
17	0x3a371f0e	0.00069855235
18	0x3a442681	0.0007482544
19	0x3901977a	0.00012358828
20	0x386bbabf	5.6202287e-05
21	0x38c0ac97	9.187421e-05
22	0x3811e59b	3.478453e-05
23	0x3908ae6a	0.00013034945
24	0x38696114	5.564194e-05
25	0x3990e471	0.00027636022
26	0x387fbeca	6.0974424e-05
27	0x38be9ab1	9.0887195e-05
28	0x389f1cab	7.587051e-05
29	0x398dd65f	0.00027053335
30	0x388ce81a	6.7189525e-05
31	0x37ca95ab	2.4149971e-05
32	0x387b0477	5.984722e-05
33	0x37e1deb2	2.692579e-05
34	0x3882411d	6.211011e-05
35	0x390f28ce	0.00013652744
36	0x388144b4	6.163996e-05
37	0x375bce32	1.3101426e-05
38	0x38e52ba0	0.00010927697
39	0x391d1a50	0.00014982489
40	0x38264294	3.963949e-05
41	0x38bd84de	9.036971e-05
42	0x39424d69	0.00018530119
43	0x39c1cabd	0.0003696288
44	0x390e79ac	0.00013587502
45	0x38d4f7b7	0.00010155088
46	0x38a548f0	7.881399e-05
47	0x395fb7c3	0.00021335394
48	0x382bcd79	4.096094e-05
49	0x39129a81	0.00013981202
50	0x38c530de	9.402794e-05
51	0x38bca6fe	8.995643e-05
52	0x39922673	0.00027875937
53	0x38c0a9ce	9.186902e-05
54	0x38bf038c	9.1082504e-05
55	0x36e109df	6.7066717e-06
56	0x39b01a2c	0.00033588836
57	0x39452725	0.00018801967
58	0x389cafcb	7.471404e-05
59	0x3982f8a4	0.00024980784
60	0x378b6c1c	1.6620434e-05
61	0x3842794b	4.6366167e-05
62	0x37918e56	1.7351627e-05
63	0x397e1ec9	0.00024234796
64	0x3735e208	1.0841068e-05
65	0x38a16b45	7.697059e-05
66	0x38856a22	6.361703e-05
67	0x385bdca2	5.241915e-05
68	0x39272017	0.00015938315
69	0x3885ee5d	6.386333e-05
70	0x3888e29c	6.527195e-05
71	0x3922a4c0	0.00015510898
72	0x398958a9	0.00026196733
73	0x39194e6f	0.00014620436
74	0x3a3ad59a	0.0007127166
75	0x38aed3cb	8.336416e-05
76	0x389da2eb	7.516689e-05
77	0x37d348ce	2.5187062e-05
78	0x390175f0	0.00012346334
79	0x38377609	4.374053e-05
80	0x39e5abb8	0.00043806224
81	0x39f9b4dd	0.00047627735
82	0x38c26170	9.26879e-05
83	0x38555b01	5.086791e-05
84	0x388895d1	6.512891e-05
85	0x37d90e16	2.5874975e-05
86	0x3896a7e1	7.183827e-05
87	0x3857ab20	5.1419367e-05
88	0x385e7480	5.3037424e-05
89	0x3872062f	5.7703055e-05
90	0x3867487b	5.5142194e-05
91	0x39256c51	0.00015775977
92	0x39181a16	0.00014505567
93	0x38c4d14d	9.3849936e-05
94	0x390aef60	0.0001324988
95	0x3896f63c	7.198422e-05
96	0x38971fdc	7.206175e-05
97	0x38ac0206	8.201976e-05
98	0x38941c35	7.062444e-05
99	0x3a481d75	0.0007633784
100	0x378477a7	1.5791344e-05
101	0x3858ef00	5.1721e-05
102	0x38bd7786	9.034485e-05
103	0x378f8451	1.7108543e-05
104	0x37bb131b	2.2301034e-05
105	0x37a82de7	2.0048536e-05
106	0x388b31de	6.637325e-05
107	0x3891abb8	6.946124e-05
108	0x38465ee6	4.729526e-05
109	0x379a573a	1.8398849e-05
110	0x37f009c5	2.8614779e-05
111	0x37f88619	2.9626348e-05
112	0x3674521e	3.6406632e-06
113	0x38543ad8	5.059954e-05
114	0x3809dac1	3.2867076e-05
115	0x37ae8b7c	2.0807369e-05
116	0x389834bf	7.2577495e-05
117	0x396ef378	0.00022788148
118	0x39787761	0.00023695595
119	0x38267ad0	3.9691862e-05
120	0x37b3a287	2.1414146e-05
121	0x38035181	3.130874e-05
122	0x37567059	1.2781552e-05
123	0x382edd80	4.169112e-05
124	0x37b0c6fa	2.107349e-05
125	0x38ba288c	8.8767236e-05
126	0x37a6df40	1.9892701e-05
127	0x380f8f5b	3.4227367e-05
128	0x37d5adcd	2.5472511e-05
129	0x38b4c4a5	8.619697e-05
130	0x37b83dba	2.1963253e-05
131	0x37068d3c	8.019906e-06
132	0x37a0557b	1.9113291e-05
133	0x3737c323	1.0953084e-05
134	0x37ae3961	2.0769136e-05
135	0x384a6bbb	4.8260885e-05
136	0x37bfec5f	2.2879043e-05
137	0x3690f0d9	4.319573e-06
138	0x3828ab0a	4.0213614e-05
139	0x38513eb3	4.9887876e-05
140	0x37591d8b	1.2941086e-05
141	0x3808560e	3.250507e-05
142	0x3884627e	6.312596e-05
143	0x38efb165	0.000114294504
144	0x384d1121	4.889176e-05
145	0x38179022	3.613544e-05
146	0x37e61f73	2.7432781e-05
147	0x389a8064	7.367207e-05
148	0x3779ca56	1.4888667e-05
149	0x383c5a64	4.4906876e-05
150	0x37fbe67c	3.002886e-05
151	0x3803d815	3.1434076e-05
152	0x38c013b6	9.158945e-05
153	0x37f92cbf	2.970395e-05
154	0x38031b2e	3.1258147e-05
155	0x361601ed	2.2352863e-06
156	0x38f2959f	0.00011567328
157	0x389758ea	7.2168026e-05
158	0x37d28f5d	2.510071e-05
159	0x38a0268a	7.636573e-05
160	0x36d056b4	6.2089766e-06
161	0x378c1982	1.6701179e-05
162	0x36c6ad9b	5.92107e-06
163	0x38ad97a3	8.2775274e-05
164	0x36667d28	3.4345521e-06
165	0x37e18cf9	2.6887736e-05
166	0x37a9791e	2.020277e-05
167	0x379fc11f	1.9044206e-05
168	0x3852c2b2	5.0249226e-05
169	0x37bd2896	2.2549455e-05
170	0x37b7ff96	2.1934316e-05
171	0x385ee7ab	5.3144682e-05
172	0x38b8c082	8.809661e-05
173	0x384cd0ca	4.883184e-05
174	0x397756f5	0.0002358815
175	0x37f00e2f	2.8616834e-05
176	0x37f56097	2.9251254e-05
177	0x370d8767	8.435781e-06
178	0x381ece7e	3.7862446e-05
179	0x3782605f	1.5542084e-05
180	0x391e4abe	0.00015095898
181	0x392b042a	0.00016309382
182	0x37f9b19b	2.9765817e-05
183	0x37959456	1.7831258e-05
184	0x37c1f5e6	2.3121898e-05
185	0x371a7be3	9.20796e-06
186	0x37bda71b	2.260837e-05
187	0x378f74bc	1.7101287e-05
188	0x379654c6	1.792087e-05
189	0x37ae5fe6	2.0787073e-05
190	0x37ac146c	2.0513507e-05
191	0x384e3bb9	4.916985e-05
192	0x38515f9f	4.9918537e-05
193	0x380adfa2	3.311004e-05
194	0x383d84a1	4.518463e-05
195	0x37d9dde3	2.597174e-05
196	0x37bb7dd7	2.2350736e-05
197	0x37ced604	2.4656772e-05
198	0x37d36cc7	2.5203813e-05
199	0x3987eecd	0.00025927127
200	0x386469ef	5.4458094e-05
201	0x394da4b5	0.00019611682
202	0x39a337d4	0.00031131378
203	0x384a8101	4.8280697e-05
204	0x38a8d6bf	8.050864e-05
205	0x38912837	6.9216294e-05
206	0x3959b5c8	0.00020762451
207	0x39692b0e	0.0002223665
208	0x39216239	0.00015390747
209	0x3874e1f3	5.8384565e-05
210	0x38b61f7e	8.684302e-05
211	0x38bd9b2e	9.041127e-05
212	0x373a0a64	1.1088883e-05
213	0x3927ca14	0.00016001641
214	0x38d6e2eb	0.00010246582
215	0x389996f2	7.323724e-05
216	0x395d0e3a	0.00021081502
217	0x3a4bde2b	0.0007776941
218	0x3a5bd616	0.00083860883
219	0x3906a1c2	0.00012839495
220	0x3888df7b	6.526612e-05
221	0x38da6664	0.00010414122
222	0x382e0956	4.1493528e-05
223	0x3918823e	0.00014544369
224	0x38861975	6.39436e-05
225	0x399a8e7d	0.0002947933
226	0x388b8aaf	6.653868e-05
227	0x38d98051	0.00010371267
228	0x38ac6f6c	8.222353e-05
229	0x399cc933	0.00029904544
230	0x38aae45e	8.1487684e-05
231	0x37eaaa6f	2.7974338e-05
232	0x388ec6df	6.80813e-05
233	0x38001e1d	3.0545623e-05
234	0x388fdaa4	6.859496e-05
235	0x391dac78	0.00015036936
236	0x389532be	7.114325e-05
237	0x3786e126	1.6078888e-05
238	0x38f7849b	0.000118025775
239	0x3932a4c9	0.0001703679
240	0x3847cd7e	4.7636677e-05
241	0x38d944a2	0.0001036015
242	0x3952e66f	0.00020113004
243	0x39d692dd	0.00040926682
244	0x391eef04	0.00015157094
245	0x38fa6449	0.000119396085
246	0x38a4d34d	7.859487e-05
247	0x39767238	0.00023502938
248	0x382aabfa	4.0691324e-05
249	0x39212249	0.00015366929
250	0x38d64356	0.000102168575
251	0x38d7f50e	0.00010297644
252	0x39a2e8e6	0.0003107257
253	0x38cfbebc	9.906056e-05
254	0x38c3f4c8	9.343919e-05
255	0x37109af7	8.619149e-06

exp_avg f4 [6]
0	0x3c09e728	0.008416928
1	0xbb22d535	-0.002484632
2	0x394192f9	0.00018460666
3	0xac16963e	-2.1399683e-12
4	0x3ad492ed	0.0016218104
5	0xbb436781	-0.0029816332

exp_avg_sq f4 [6]
0	0x3930dee7	0.00016867706
1	0x386a192e	5.5813398e-05
2	0x39493f1c	0.00019192364
3	0x2eb44360	8.1974205e-11
4	0x38c3e83e	9.341583e-05
5	0x3892161d	6.9659414e-05

exp_avg f4 [2, 6]
0	0xb950a7b6	-0.00019898903
1	0x3a40ee20	0.0007359702
2	0xb992fb71	-0.00028034628
3	0xa588f50c	-2.375829e-16
4	0xb99f20b1	-0.000303512
5	0xba84166c	-0.0010077483
6	0x397f0a1f	0.00024322465
7	0xba4b0ece	-0.00077460415
8	0x3983e7e5	0.00025159042
9	0x2519f5d6	1.3353927e-16
10	0x39aca636	0.00032930233
11	0x3a810a9e	0.0009845083

exp_avg_sq f4 [2, 6]
0	0x37ab0901	2.0388981e-05
1	0x37f5bd98	2.9294562e-05
2	0x378e0311	1.6929147e-05
3	0x2dc240f4	2.2084091e-11
4	0x37a7ad87	1.9988756e-05
5	0x377e800a	1.5169391e-05
6	0x37ab12d4	2.0393556e-05
7	0x37f5b0c0	2.9288582e-05
8	0x378e04c7	1.6929944e-05
9	0x2db8c196	2.1004348e-11
10	0x37a7ab37	1.998768e-05
11	0x377e8c8c	1.5172303e-05

exp_avg f4 [2]
0	0xbb4bfaa9	-0.0031124747
1	0x3b4ced90	0.0031269528

exp_avg_sq f4 [2]
0	0x38a987e6	8.083861e-05
1	0x38a98bc0	8.0845784e-05

exp_avg f4 [2, 6]
0	0xb9b21fcb	-0.00033974493
1	0xba4bb4c0	-0.00077707693
2	0xba3e09e7	-0.00072494004
3	0xa2838c34	-3.5656067e-18
4	0xba8f0133	-0.0010910392
5	0xba244652	-0.0006266582
6	0x39a9ca9f	0.00032385156
7	0x3a43cc2b	0.0007469083
8	0x3a349051	0.000688796
9	0x232f9919	9.519189e-18
10	0x3a8e8b0c	0.001087518
11	0x3a20eaa6	0.0006138481

exp_avg_sq f4 [2, 6]
0	0x37569d34	1.2791996e-05
1	0x37963289	1.7904926e-05
2	0x3726ab1a	9.934209e-06
3	0x2da27b0a	1.8471908e-11
4	0x375882ad	1.2905029e-05
5	0x3718facf	9.118302e-06
6	0x37569f74	1.279252e-05
7	0x37962ba2	1.7901712e-05
8	0x3726a760	9.933341e-06
9	0x2daf4e75	1.9930039e-11
10	0x375882fd	1.2905101e-05
11	0x3718ff60	9.119365e-06

exp_avg f4 [2]
0	0xbb04bc12	-0.00202537
1	0x3b016709	0.0019745252

exp_avg_sq f4 [2]
0	0x3855459b	5.0847982e-05
1	0x385534f6	5.083248e-05

exp_avg f4 [2, 6]
0	0x3b13ab06	0.0022532358
1	0x3b2a2f11	0.0025967995
2	0x3a1745c9	0.00057705917
3	0x9acc9b51	-8.462335e-23
4	0x3afa8890	0.0019114185
5	0x3a8103da	0.0009843067
6	0xbb13eb54	-0.0022570686
7	0xbb2b338f	-0.002612326
8	0xba243dc3	-0.0006265307
9	0x1abc3eb5	7.7856286e-23
10	0xbafbc41e	-0.0019208228
11	0xba734dbf	-0.00092812994

exp_avg_sq f4 [2, 6]
0	0x37bf657f	2.2816237e-05
1	0x38112c00	3.4611672e-05
2	0x3797d5ed	1.810022e-05
3	0x2d460788	1.1256669e-11
4	0x37cb7c29	2.4257302e-05
5	0x378ef9cc	1.704404e-05
6	0x37bf6472	2.2815748e-05
7	0x38112b7a	3.4611185e-05
8	0x3797da31	1.8102206e-05
9	0x2d482817	1.13775855e-11
10	0x37cb7f46	2.4258752e-05
11	0x378ef815	1.7043241e-05

exp_avg f4 [2]
0	0x3b6bc89a	0.0035977722
1	0xbb69dbfe	-0.0035684104

exp_avg_sq f4 [2]
0	0x38c3b066	9.331181e-05
1	0x38c3ae7f	9.330827e-05

exp_avg f4 [2, 6]
0	0xbaf13ef4	-0.0018405602
1	0xbb1c7ba0	-0.0023877397
2	0xba7e8f95	-0.00097107264
3	0x96ad67a3	-2.8015061e-25
4	0xbabb275d	-0.0014278699
5	0xbacd532a	-0.0015665044
6	0x3af2360e	0.0018479244
7	0x3b19f690	0.002349291
8	0x3a773cd9	0.0009431369
9	0x15a21d28	6.547728e-26
10	0x3abe4859	0.0014517411
11	0x3acb03b1	0.0015488771

exp_avg_sq f4 [2, 6]
0	0x36c081b0	5.7371435e-06
1	0x37137d96	8.791123e-06
2	0x369efaee	4.737979e-06
3	0x2d16afeb	8.5655745e-12
4	0x36ce24a2	6.143543e-06
5	0x3699ee83	4.5875217e-06
6	0x36c0848a	5.7374755e-06
7	0x371378bb	8.7899925e-06
8	0x369ef966	4.7378007e-06
9	0x2d0dd526	8.0622505e-12
10	0x36ce2d67	6.144564e-06
11	0x3699e357	4.586221e-06

exp_avg f4 [2]
0	0xbb4ed53b	-0.00315602
1	0x3b4f7c54	0.0031659799

exp_avg_sq f4 [2]
0	0x37c54488	2.3516142e-05
1	0x37c5452f	2.3516446e-05

exp_avg f4 [2, 6]
0	0x3ae7d16c	0.0017686314
1	0x3a8a8fe1	0.0010571444
2	0x3a0df01c	0.0005414502
3	0x265ae26a	7.594079e-16
4	0x3b0fc5d3	0.002193798
5	0x398be2d9	0.0002668116
6	0xbaef7d98	-0.0018271683
7	0xba8b8098	-0.0010643182
8	0xba1b714b	-0.0005929663
9	0xa6165190	-5.215224e-16
10	0xbb0fb986	-0.002193065
11	0xb97691de	-0.00023514728

exp_avg_sq f4 [2, 6]
0	0x37d33c1a	2.5181147e-05
1	0x3815c00f	3.5703237e-05
2	0x379f19a1	1.8966211e-05
3	0x2df513e0	2.7862102e-11
4	0x37d49615	2.5342257e-05
5	0x379a64e4	1.8405211e-05
6	0x37d353d0	2.5192188e-05
7	0x3815c0ff	3.570411e-05
8	0x379f26e6	1.897239e-05
9	0x2deb1fa3	2.6730456e-11
10	0x37d4967a	2.534244e-05
11	0x379a6641	1.8405846e-05

exp_avg f4 [2]
0	0x3b544880	0.0032391846
1	0xbb56bf5f	-0.0032767875

exp_avg_sq f4 [2]
0	0x38d63a2f	0.00010215153
1	0x38d63d99	0.00010215789

exp_avg f4 [2, 6]
0	0x397bfc48	0.00024031207
1	0x388b31f7	6.637343e-05
2	0x37d6713e	2.556352e-05
3	0x96027dcd	-1.0541012e-25
4	0x3ab7f1a2	0.0014033804
5	0x39cccfec	0.00039064826
6	0xb9894d94	-0.00026188476
7	0xb7b54c0f	-2.1612299e-05
8	0xb76a2fc2	-1.3958606e-05
9	0x1531a001	3.5871086e-26
10	0xbab6b022	-0.001393799
11	0xb9b64028	-0.00034761545

exp_avg_sq f4 [2, 6]
0	0x37502910	1.2407327e-05
1	0x37a0b345	1.9156965e-05
2	0x37277335	9.980799e-06
3	0x2ced062d	6.736631e-12
4	0x375986b2	1.2965569e-05
5	0x37210781	9.598095e-06
6	0x37502ef8	1.2408702e-05
7	0x37a0b7c9	1.9159068e-05
8	0x372774e1	9.981189e-06
9	0x2cfa23b0	7.1093895e-12
10	0x37598063	1.29641e-05
11	0x3720fc63	9.5955065e-06

exp_avg f4 [2]
0	0x3ab9c529	0.0014173138
1	0xbab8ebdf	-0.0014108381

exp_avg_sq f4 [2]
0	0x38512cbe	4.9871152e-05
1	0x38512d17	4.9871476e-05

dnn.0.weight f4 [2, 6]
0	0x3e636597	0.22206722
1	0xbe128ad6	-0.14310774
2	0xbf1ff4d0	-0.6248293
3	0xabeecb44	-1.6967335e-12
4	0xbe1e3803	-0.15451054
5	0xbe92807b	-0.28613648
6	0x3e6179f2	0.22019175
7	0xbe78feff	-0.24316023
8	0x3eacb7b1	0.33733895
9	0x2b840c71	9.382617e-13
10	0x3ed32076	0.41235703
11	0x3d5c5936	0.053796016

dnn.0.bias f4 [2]
0	0x3ec6b962	0.3881331
1	0xbe7934ae	-0.24336502

dnn.0.weight f4 [2, 6]
0	0xbf1531c8	-0.58279085
1	0xbea2be68	-0.31785893
2	0x3dc64ad3	0.0968224
3	0xa8d6b4c9	-2.3837176e-14
4	0xbd707475	-0.058704812
5	0xbebc7c02	-0.3681336
6	0x3ed9099d	0.42390147
7	0x3c850fee	0.016242947
8	0xbeea924e	-0.45814747
9	0x2993ceb4	6.5639687e-14
10	0x3cc08b0d	0.023503805
11	0x3e75d5cd	0.2400734

dnn.0.bias f4 [2]
0	0xbc05a657	-0.008157334
1	0xbf000e1f	-0.5002155

dnn.0.weight f4 [2, 6]
0	0x3ef4d07d	0.47815314
1	0xbe6c70e0	-0.23089933
2	0xbea434d4	-0.32071555
3	0xa135f0c9	-6.164386e-19
4	0xbe89f4f8	-0.2694471
5	0x3eade006	0.3395998
6	0xbf0437b2	-0.51647484
7	0x3d9af61f	0.07566475
8	0xbe320f98	-0.17388761
9	0x214837be	6.783641e-19
10	0x3e33a1c7	0.17542182
11	0x3e635cbe	0.22203347

dnn.0.bias f4 [2]
0	0x3dd99a79	0.106251664
1	0x3e3fd63b	0.18734066

dnn.0.weight f4 [2, 6]
0	0xbe8971ef	-0.26844737
1	0xbe8a2773	-0.26983222
2	0xbeb950a5	-0.3619434
3	0x9d15ad57	-1.98096e-21
4	0x3df0e1c8	0.11761814
5	0x3f194632	0.59872735
6	0x3eaf2208	0.3420565
7	0xbdea8c5d	-0.114525534
8	0x3da965c8	0.08271366
9	0x9a26934f	-3.444699e-23
10	0x3df7cc69	0.12099535
11	0xbf46610f	-0.7749185

dnn.0.bias f4 [2]
0	0xbdf89db4	-0.121394545
1	0x3e624734	0.22097474

dnn.0.weight f4 [2, 6]
0	0xbe2c1c26	-0.16807613
1	0xbeb5f27d	-0.35536566
2	0xbf011873	-0.5042793
3	0x2ccacdaa	5.7640186e-12
4	0x3ec518d5	0.38495508
5	0x3d27a276	0.04092642
6	0xbed59883	-0.4171792
7	0x3e9138be	0.28363603
8	0xbc30623f	-0.010765611
9	0xac89f71b	-3.9212084e-12
10	0xbec158d2	-0.37763077
11	0x3e8d20ec	0.2756418

dnn.0.bias f4 [2]
0	0xbe0239bc	-0.12717336
1	0xbe7ecc3d	-0.24882598

dnn.0.weight f4 [2, 6]
0	0x3d17b59d	0.037038434
1	0x3ca0122c	0.019539915
2	0x3f19eaa4	0.6012366
3	0x9bf00e48	-3.9713898e-22
4	0xbe629c13	-0.2212985
5	0x3e85be4a	0.26121742
6	0xbe816286	-0.2527048
7	0x3edb1ef0	0.4279704
8	0xbef86f62	-0.48522478
9	0x1c42ef9b	6.44989e-22
10	0x3ea258f8	0.31708503
11	0x3e2d070f	0.16897224

dnn.0.bias f4 [2]
0	0xbd0851fc	-0.03328131
1	0x3dc8c2d0	0.098027825
