FinalModels/Sener/Data1Models/sener_dnn3-5000-91-128-0.01-0.6468.pt (torch, 126915 bytes, 54 tensors)

dnn.0.weight f4 [64, 100]
0	0x341113bc	1.3511357e-07
1	0xb337fdce	-4.2838842e-08
2	0xb8ad1710	-8.2535786e-05
3	0x35d0c6c4	1.5555056e-06
4	0xb4e2f551	-4.2274272e-07
5	0x3496d36a	2.80935e-07
6	0xb6567dfa	-3.1961813e-06
7	0xb5e9bd95	-1.7415028e-06
8	0x331b70a6	3.6191203e-08
9	0x34a574eb	3.0818714e-07
10	0x352fc679	6.5481396e-07
11	0xb5345336	-6.7176313e-07
12	0xb2e7cf84	-2.6986307e-08
13	0xb514c47d	-5.5420224e-07
14	0x3615dd74	2.2331633e-06
15	0xb538f5af	-6.890286e-07
16	0xb668872b	-3.4649372e-06
17	0x3af4b3a6	0.0018669262
18	0x3b09361b	0.002093679
19	0x35034481	4.890099e-07
20	0xb51edfbc	-5.9185163e-07
21	0xb3456585	-4.595997e-08
22	0x3599ae1f	1.1450064e-06
23	0xb5600832	-8.345843e-07
24	0xb4d2f68c	-3.9294935e-07
25	0x3957878a	0.0002055449
26	0xb4623561	-2.106731e-07
27	0x355382fa	7.879422e-07
28	0xb4f0a434	-4.4822957e-07
29	0xb6cc6af7	-6.092126e-06
30	0xb6108fe4	-2.1541427e-06
31	0xb49ade81	-2.8846628e-07
32	0xb4bb319f	-3.4867568e-07
33	0xb52e000e	-6.482013e-07
34	0x346c4204	2.2003229e-07
35	0xb6d967fd	-6.47921e-06
36	0x33ecbced	1.1023972e-07
37	0xb386405b	-6.2515674e-08
38	0x356e6792	8.8812624e-07
39	0x338b9346	6.499481e-08
40	0xb56e613f	-8.880342e-07
41	0x35bbf9e1	1.400531e-06
42	0xb4baab4d	-3.4769837e-07
43	0xb9331e01	-0.00017081948
44	0xb4235179	-1.5210198e-07
45	0x358f7bd4	1.0690369e-06
46	0xb51ecfb8	-5.916186e-07
47	0xb82782ed	-3.9937837e-05
48	0x356c9767	8.813717e-07
49	0xb55da439	-8.256789e-07
50	0x3571dbfa	9.0099604e-07
51	0xb36aff74	-5.4714704e-08
52	0x379aae99	1.8439534e-05
53	0xb5145b33	-5.526701e-07
54	0x34d7eb61	4.021813e-07
55	0xb555708b	-7.9512455e-07
56	0xb856a489	-5.117481e-05
57	0xb66dd0c9	-3.543728e-06
58	0x3542b823	7.2538586e-07
59	0xb5a7bfa7	-1.2498248e-06
60	0xb4708346	-2.2399499e-07
61	0x35c6d543	1.4814217e-06
62	0xb58229cf	-9.697923e-07
63	0x366a4f96	3.4915042e-06
64	0x3574a5c2	9.113829e-07
65	0x3590f5d4	1.0800381e-06
66	0xb57be90e	-9.3843926e-07
67	0x34ae59ba	3.247531e-07
68	0x34bdb534	3.5335836e-07
69	0xb4d1b830	-3.9063298e-07
70	0x35e2286a	1.6850074e-06
71	0xb6804a82	-3.823371e-06
72	0x36fe4662	7.5779835e-06
73	0xb565b7d4	-8.5576653e-07
74	0xbb1a8ed1	-0.002358366
75	0xb5a8f126	-1.2587159e-06
76	0xb5882fff	-1.0146758e-06
77	0x35727c4d	9.0332907e-07
78	0x348c2158	2.6101293e-07
79	0xb45372ec	-1.9692715e-07
80	0xba1403fa	-0.00056463445
81	0x3a1c9209	0.00059726887
82	0x344044d8	1.7906439e-07
83	0xb57b7a4d	-9.368276e-07
84	0x348382d8	2.4495853e-07
85	0x355d8eda	8.253679e-07
86	0xb4a29cc6	-3.028892e-07
87	0xb47f1b48	-2.375865e-07
88	0x34aa2441	3.1691346e-07
89	0x358501a0	9.909745e-07
90	0xb5adf252	-1.2960029e-06
91	0x32ade357	2.0243233e-08
92	0xb5b3aebe	-1.3387396e-06
93	0xb5425a43	-7.240198e-07
94	0x34d9606a	4.048955e-07
95	0xb54571c4	-7.355377e-07
96	0xb4bd6efd	-3.5284748e-07
97	0x34cbb5f4	3.7944085e-07
98	0x3612bf48	2.1867036e-06
99	0x3b7d9e09	0.0038698933
100	0xb8c75cca	-9.506343e-05
101	0xb88d832e	-6.747838e-05
102	0xb8cc156c	-9.731468e-05
103	0xb6a7c4ec	-4.9999126e-06
104	0xb916e330	-0.00014389749
105	0xb839ef65	-4.433039e-05
106	0xb87eeff2	-6.0781786e-05
107	0x385c2cc0	5.2493764e-05
108	0xb82a0166	-4.053246e-05
109	0xb795b900	-1.7848331e-05
110	0x38d8bf50	0.00010335317
111	0xb6a58b4a	-4.9335986e-06
112	0xb759a366	-1.2972252e-05
113	0xb7736c08	-1.4509082e-05
114	0xb86452d9	-5.4436594e-05
115	0xb7eb96b7	-2.8084365e-05
116	0x38a6cc9e	7.95361e-05
117	0x391626c7	0.0001431956
118	0x39a92963	0.00032265027
119	0x381cb024	3.7357342e-05
120	0x38bbaccf	8.949043e-05
121	0x38d6c405	0.00010240827
122	0xb90840b6	-0.00012994077
123	0x38b900aa	8.821611e-05
124	0x38437972	4.6604728e-05
125	0x3945e235	0.00018871653
126	0x36cf23ba	6.17324e-06
127	0x37f0e30a	2.8715953e-05
128	0xb8857843	-6.364335e-05
129	0xb8430111	-4.6492616e-05
130	0x38ca5d4f	9.649491e-05
131	0x3919c3d5	0.0001466417
132	0x38988a3e	7.2736744e-05
133	0xb8820cd4	-6.2012725e-05
134	0xb7bcf3a6	-2.2524804e-05
135	0x3769a212	1.3925617e-05
136	0x38aef252	8.342102e-05
137	0x36c7829b	5.9458666e-06
138	0xb92edfe3	-0.00016677337
139	0xb816a869	-3.591963e-05
140	0x377de133	1.5132408e-05
141	0xb76b8b80	-1.4039571e-05
142	0xb7c600e2	-2.360385e-05
143	0xb8ec7672	-0.00011275419
144	0xb7bca889	-2.2489827e-05
145	0x3856bd91	5.1198123e-05
146	0xb90a5913	-0.00013193888
147	0xb860cb03	-5.359483e-05
148	0x3848c524	4.7867317e-05
149	0x38322238	4.2470376e-05
150	0x371ed2c5	9.4666075e-06
151	0xb8b31a02	-8.5402295e-05
152	0x3891a782	6.9453396e-05
153	0xb901ba23	-0.0001237174
154	0x38230240	3.8864324e-05
155	0xb8650bc1	-5.46088e-05
156	0xb7a67eb0	-1.9847736e-05
157	0x3838b07a	4.4033375e-05
158	0x38392b73	4.4147902e-05
159	0x388bd1fe	6.6671506e-05
160	0xb7e49597	-2.7249376e-05
161	0x35433948	7.2726516e-07
162	0x38184491	3.630348e-05
163	0x3880ed8f	6.147764e-05
164	0x391eddf6	0.00015150741
165	0xb8192c2a	-3.6519174e-05
166	0xb94915b6	-0.00019176942
167	0x3970b7ae	0.0002295661
168	0xb64080ae	-2.868513e-06
169	0x37b5fd0e	2.169472e-05
170	0xb7bec0b4	-2.27395e-05
171	0xb8845f00	-6.3119456e-05
172	0x381d17c8	3.7453865e-05
173	0x3746a1e3	1.1839412e-05
174	0xb92b038c	-0.00016309152
175	0xb8f476f4	-0.000116569834
176	0xb8869df8	-6.419042e-05
177	0x36f5d859	7.326755e-06
178	0x3897858e	7.2251176e-05
179	0xb7a06806	-1.9121926e-05
180	0xb94666e4	-0.00018921081
181	0x39075733	0.00012907088
182	0xb8a1c42a	-7.713617e-05
183	0xb8f97ba8	-0.00011896278
184	0x38a74890	7.976696e-05
185	0xb5f4e2e6	-1.8245453e-06
186	0xb8b00d3f	-8.394801e-05
187	0xb79ae698	-1.846561e-05
188	0x38bd130b	9.015769e-05
189	0x37f0b5aa	2.8694823e-05
190	0xb9008e59	-0.0001226006
191	0xb7ff9991	-3.0469879e-05
192	0x378d4370	1.6839913e-05
193	0xb9841b69	-0.00025197424
194	0xb86cc692	-5.6451718e-05
195	0xb7cd05de	-2.4440636e-05
196	0xb85f7a7c	-5.3281416e-05
197	0x385e1fea	5.2958647e-05
198	0x37ca575e	2.412096e-05
199	0x3972f6e8	0.00023170898
200	0x0002b2e8	2.4785e-40
201	0x0529ddd0	7.987082e-36
202	0x9b1affa3	-1.2821182e-22
203	0x8002183b	-1.92363e-40
204	0x80036fc2	-3.15598e-40
205	0x000374da	3.17425e-40
206	0x0b9e7d26	6.104769e-32
207	0x0cd73dec	3.3163263e-31
208	0x00029e69	2.40498e-40
209	0x8000d6d5	-7.7067e-41
210	0x8004f0ac	-4.53679e-40
211	0x0000c473	7.0473e-41
212	0x00043145	3.85017e-40
213	0x0005eb1a	5.43516e-40
214	0x0006fed8	6.42434e-40
215	0x800165e5	-1.28388e-40
216	0x065d0609	4.1569914e-35
217	0x2458d30c	4.7016298e-17
218	0x29c76598	8.854999e-14
219	0x00019334	1.44642e-40
220	0x00021c90	1.93917e-40
221	0x0003e16c	3.56373e-40
222	0x8002bb33	-2.50825e-40
223	0x8105047a	-2.4431454e-38
224	0x8001dfd2	-1.72127e-40
225	0x91d907df	-3.4241414e-28
226	0x8000ddbd	-7.9545e-41
227	0x800582fd	-5.06167e-40
228	0x8001f35c	-1.79136e-40
229	0x9806ae74	-1.740717e-24
230	0x0003877c	3.24109e-40
231	0x0000544a	3.0237e-41
232	0x00002350	1.2668e-41
233	0x80008040	-4.6007e-41
234	0x0002b56f	2.48757e-40
235	0x0080d7c9	1.1832353e-38
236	0x000026fd	1.3986e-41
237	0x000237f0	2.03738e-40
238	0x8001af29	-1.54671e-40
239	0x800181e9	-1.38438e-40
240	0x00002184	1.2023e-41
241	0x800468a9	-4.04887e-40
242	0x04035b97	1.5441032e-36
243	0x9df55f1d	-6.4949305e-21
244	0x8002679d	-2.2084e-40
245	0x8004a62d	-4.26955e-40
246	0x80016cd0	-1.3087e-40
247	0x083cede6	5.685384e-34
248	0x0007a60a	7.02412e-40
249	0x8117066a	-2.7738922e-38
250	0x8002f7bb	-2.7254e-40
251	0x8000252f	-1.3339e-41
252	0x9846b05b	-2.5679937e-24
253	0x0000675b	3.7077e-41
254	0x80016105	-1.2664e-40
255	0x0002d9f2	2.61855e-40

dnn.0.bias f4 [64]
0	0x3604ccf2	1.9788827e-06
1	0x3657c1c8	3.2150292e-06
2	0x8c53ba42	-1.6310899e-31
3	0x39fe57dc	0.00048512116
4	0xad50285d	-1.1832394e-11
5	0x21f08604	1.6298506e-18
6	0x9b96399c	-2.4852648e-22
7	0x9a606c51	-4.6409612e-23
8	0x3b180a47	0.0023199485
9	0xb6aaeb5a	-5.0937933e-06
10	0xbc96e1fa	-0.0184183
11	0xbcf57640	-0.029963613
12	0xad3c8639	-1.0716366e-11
13	0x80017a1d	-1.35641e-40
14	0x91b2da9a	-2.8218172e-28
15	0xb9a359a5	-0.00031156573
16	0x92aa49c9	-1.0746698e-27
17	0xb7416124	-1.1526314e-05
18	0x288614c6	1.4885998e-14
19	0xbbf2cdde	-0.007409795
20	0x39569a17	0.00020466033
21	0xbcee821a	-0.029114772
22	0xa332ac72	-9.685916e-18
23	0xb9b07727	-0.0003365811
24	0xb9dc7419	-0.0004204817
25	0xb8426e72	-4.6356065e-05
26	0xb7f4c520	-2.917886e-05
27	0xbcfb62ce	-0.030686762
28	0xb6bec7a8	-5.6856843e-06
29	0xb6eca76c	-7.0528386e-06
30	0x308326ce	9.542533e-10
31	0x0f77c9f6	1.22169365e-29
32	0xa8612c65	-1.24996356e-14
33	0xbad93413	-0.0016571305
34	0x8554de5a	-1.00090316e-35
35	0xa7d25b82	-5.838592e-15
36	0x144a8672	1.02249084e-26
37	0xb850852e	-4.9715098e-05
38	0xb8753ce4	-5.846926e-05
39	0xb7a85760	-2.0067848e-05
40	0xb766f830	-1.3766854e-05
41	0xbc37cf9c	-0.0112189315
42	0xa8d94a0b	-2.412395e-14
43	0xb2906d62	-1.6813548e-08
44	0xb8229fb4	-3.8772545e-05
45	0xbc5270c6	-0.01284427
46	0xaf4b6a19	-1.8500436e-10
47	0xb8adb702	-8.283371e-05
48	0xaab851a4	-3.2741615e-13
49	0x9fa568a6	-7.0053344e-20
50	0x1c353c64	5.996593e-22
51	0x3b9f9c04	0.0048708934
52	0x0e63c493	2.8074557e-30
53	0xbb0b859c	-0.0021289354
54	0xbd5a320c	-0.053270385
55	0x8004aab1	-4.28575e-40
56	0x352152b9	6.009755e-07
57	0xbba17aa3	-0.0049279495
58	0xbe26d3e0	-0.16291761
59	0xbd33a96a	-0.043862738
60	0xb0eca986	-1.7219441e-09
61	0xad3c69b1	-1.0710031e-11
62	0x307f9d10	9.299166e-10
63	0xb989327e	-0.00026168296

dnn.2.weight f4 [32, 64]
0	0xa129cf80	-5.753405e-19
1	0x8000596d	-3.208e-41
2	0xaf28c2d7	-1.5348732e-10
3	0x8002d909	-2.61529e-40
4	0x8000d4c3	-7.6325e-41
5	0x2402459c	2.8248218e-17
6	0xb0e2edb3	-1.6511222e-09
7	0x0001050c	9.3646e-41
8	0x2361a3a8	1.223193e-17
9	0x0002cc8e	2.57051e-40
10	0x21e04db9	1.5199403e-18
11	0x0000d178	7.5143e-41
12	0xa26246de	-3.0666228e-18
13	0xade7b04f	-2.6339956e-11
14	0x0000df9a	8.0213e-41
15	0x0006ba10	6.1776e-40
16	0x80043fc3	-3.90215e-40
17	0xaf68e1ab	-2.118045e-10
18	0xa9688332	-5.1628142e-14
19	0x8006a2c7	-6.09406e-40
20	0x150b3d58	2.8119218e-26
21	0x80049c27	-4.23359e-40
22	0xb63a996c	-2.7805463e-06
23	0x8000b895	-6.6216e-41
24	0x0002f054	2.69884e-40
25	0x0002e090	2.64229e-40
26	0xa5d708d9	-3.730255e-16
27	0x2b0bdc89	4.9688774e-13
28	0x80080afa	-7.38622e-40
29	0x80052f31	-4.76107e-40
30	0x00047a3d	4.11193e-40
31	0x343626d3	1.6964195e-07
32	0x2c182e53	2.1626214e-12
33	0x80050a55	-4.62884e-40
34	0x80007727	-4.2744e-41
35	0x15d5048a	8.6037176e-26
36	0x80046809	-4.04663e-40
37	0x0004891b	4.16526e-40
38	0x80007ae9	-4.4092e-41
39	0x23874614	1.4666409e-17
40	0x80005ac3	-3.2559e-41
41	0xb60fee57	-2.1447393e-06
42	0x00051d02	4.69584e-40
43	0x0003a519	3.34732e-40
44	0x90847bfd	-5.2255854e-29
45	0x8001796b	-1.35392e-40
46	0x80032308	-2.88073e-40
47	0x0000094b	3.334e-42
48	0x8bc63c36	-7.635742e-32
49	0x80038e16	-3.26477e-40
50	0x0700b402	9.682549e-35
51	0xacfc2e34	-7.1674004e-12
52	0x0008228d	7.47078e-40
53	0x28d1b972	2.3284085e-14
54	0x984d86c9	-2.6563678e-24
55	0xa5561690	-1.8569186e-16
56	0x80060514	-5.52835e-40
57	0x8001c16c	-1.61222e-40
58	0x15ee8438	9.633604e-26
59	0x0007b44a	7.07524e-40
60	0x245978f6	4.7156832e-17
61	0x8002a87a	-2.44109e-40
62	0x800151d9	-1.21197e-40
63	0x0004092e	3.70635e-40
64	0x352bc15c	6.398384e-07
65	0x802c847f	-4.088292e-39
66	0x8002d4c9	-2.60004e-40
67	0x39c17091	0.00036895697
68	0xbb680ec7	-0.0035409199
69	0x18cf9397	5.3657274e-24
70	0x00030ca6	2.80044e-40
71	0xa5c9f3e6	-3.5033214e-16
72	0x390c44dc	0.00013377093
73	0x09027e3d	1.5707538e-33
74	0x3ab00478	0.0013429066
75	0xa1219a62	-5.4753246e-19
76	0x20f714f3	4.185729e-19
77	0x800540a6	-4.82369e-40
78	0x0e2e0c27	2.1453007e-30
79	0x81d65bd0	-7.874293e-38
80	0xad07853c	-7.7034455e-12
81	0xada7276c	-1.9003209e-11
82	0x000293c1	2.36675e-40
83	0xbb2d1af5	-0.0026413773
84	0xb68bf75c	-4.1713192e-06
85	0x269bb3cd	1.0804021e-15
86	0x0001c46d	1.623e-40
87	0xb5ac205b	-1.2824415e-06
88	0x311c08d0	2.2705997e-09
89	0xb416e599	-1.4053366e-07
90	0x3564d638	8.524835e-07
91	0x8e2bb5e8	-2.1164962e-30
92	0xa3c68cc0	-2.1526813e-17
93	0xb5aaa273	-1.2713266e-06
94	0xae96da81	-6.8600244e-11
95	0x80030fff	-2.81245e-40
96	0x80015623	-1.22736e-40
97	0x29712e0a	5.3552682e-14
98	0x80602ad2	-8.831569e-39
99	0xa2343970	-2.4424956e-18
100	0x01080c3f	2.498804e-38
101	0xad5ddbca	-1.26111985e-11
102	0xb71ebfef	-9.462222e-06
103	0x322d913f	1.01029505e-08
104	0x396e4f3e	0.00022726969
105	0xbaa07ac7	-0.0012243622
106	0x276ce58a	3.2876013e-15
107	0x2cdb8c73	6.2399474e-12
108	0xb7073ed7	-8.061258e-06
109	0xadc16149	-2.1984763e-11
110	0xabf09438	-1.7094165e-12
111	0x2beeb69a	1.6961599e-12
112	0xa649d813	-7.002872e-16
113	0x8cfc880d	-3.890863e-31
114	0x8db2e9e6	-1.1026406e-30
115	0xbcd1495d	-0.025547678
116	0x8b8af27e	-5.352053e-32
117	0x370f50bc	8.542262e-06
118	0x33fc52e3	1.17497414e-07
119	0x80330f01	-4.688993e-39
120	0xb181036d	-3.7547836e-09
121	0x39b0599a	0.00033636094
122	0x3b4e68c2	0.0031495546
123	0x33fbe22c	1.1729239e-07
124	0x2c92557e	4.159061e-12
125	0x06fe31ac	9.5617167e-35
126	0x2d26c660	9.480056e-12
127	0x338b2c44	6.480744e-08
128	0x337ad91c	5.840512e-08
129	0xb0e57a60	-1.6696724e-09
130	0x0002dc1a	2.62629e-40
131	0x3087fff8	9.895293e-10
132	0x800407e0	-3.70167e-40
133	0xa18fa514	-9.733753e-19
134	0x9ba42092	-2.7152572e-22
135	0x002be507	4.031086e-39
136	0x32e696a8	2.6844035e-08
137	0x00365304	4.988897e-39
138	0xa283af25	-3.5693063e-18
139	0xbe143cbc	-0.14476293
140	0xadb87580	-2.0970559e-11
141	0x8000ec77	-8.4828e-41
142	0x80082da6	-7.5106e-40
143	0xb58d607a	-1.0533397e-06
144	0x00173935	2.132738e-39
145	0x35620aaa	8.420708e-07
146	0x800378e7	-3.18878e-40
147	0xb6e1fcba	-6.734944e-06
148	0x268dafab	9.831455e-16
149	0x9db23d35	-4.7179494e-21
150	0xa4282fa8	-3.646956e-17
151	0x29040f41	2.932312e-14
152	0xb87f0add	-6.0806855e-05
153	0xa6930972	-1.0202734e-15
154	0x00030c80	2.7999e-40
155	0xbe6a909a	-0.22906724
156	0x1659e5ab	1.7601591e-25
157	0x364dcb0b	3.0665567e-06
158	0xa607f74e	-4.7172694e-16
159	0x032b0a59	5.026426e-37
160	0x280a1662	7.665392e-15
161	0x00023cc8	2.05475e-40
162	0x8004d53c	-4.43836e-40
163	0xa58946ea	-2.3813765e-16
164	0x80044e2d	-3.95386e-40
165	0xa607a8e5	-4.706643e-16
166	0x93063054	-1.6937005e-27
167	0x00072e0f	6.59371e-40
168	0x0002b3b8	2.48142e-40
169	0xbde3b53a	-0.111185506
170	0x8005ddb3	-5.38708e-40
171	0x20985ad8	2.5809917e-19
172	0xa902c31c	-2.903503e-14
173	0x3ac3a349	0.0014925982
174	0xa61a93e9	-5.362994e-16
175	0xb4995958	-2.8563477e-07
176	0x0002d547	2.6018e-40
177	0x80022d68	-1.9996e-40
178	0x80071b51	-6.52648e-40
179	0x9ff56502	-1.0392864e-19
180	0x8006283b	-5.65445e-40
181	0x00004df2	2.7962e-41
182	0xa74d576f	-2.8496863e-15
183	0x00023843	2.03854e-40
184	0x301f31df	5.7914734e-10
185	0x39fba736	0.00047999033
186	0xba86b7e6	-0.0010278195
187	0xbe3789c9	-0.17923655
188	0x001ae3fc	2.469508e-39
189	0x000532e0	4.77428e-40
190	0x25c38c96	3.3922373e-16
191	0xb444941e	-1.8307807e-07
192	0x041dc433	1.8545352e-36
193	0x0776bd3d	1.8562595e-34
194	0x0001b2a9	1.55927e-40
195	0x0000f7a8	8.8842e-41
196	0x800069b0	-3.7914e-41
197	0x800e8bec	-1.335891e-39
198	0x000192b7	1.44467e-40
199	0x0a78183d	1.19453244e-32
200	0x8b15b212	-2.883032e-32
201	0x84da9a78	-5.139341e-36
202	0x8e00c26c	-1.5870829e-30
203	0x8c4e7ac8	-1.5906611e-31
204	0x8191831c	-5.345272e-38
205	0x0000828c	4.6831e-41
206	0x0f511afc	1.03096926e-29
207	0x800a9a9b	-9.73817e-40
208	0x049462c6	3.4885342e-36
209	0x8a03f230	-6.352971e-33
210	0x80021fc1	-1.95062e-40
211	0x8fb1796e	-1.750032e-29
212	0x0f6fc416	1.18213745e-29
213	0x810d373c	-2.593724e-38
214	0x0000d732	7.7198e-41
215	0x00014775	1.1747e-40
216	0x00000e55	5.141e-42
217	0x00038bb8	3.25628e-40
218	0x063a0c8d	3.4991933e-35
219	0x8c8bc075	-2.1532172e-31
220	0x0fc0855a	1.8984027e-29
221	0x8017b1e0	-2.176026e-39
222	0x801ca780	-2.631482e-39
223	0x8000c78f	-7.1588e-41
224	0x8032bb7c	-4.659032e-39
225	0x0004e982	4.51109e-40
226	0x800005f0	-2.13e-42
227	0x01763dfc	4.5227536e-38
228	0x8fd460fd	-2.0942173e-29
229	0x000651d3	5.80366e-40
230	0x80012e71	-1.08496e-40
231	0x8ae62ba5	-2.2164612e-32
232	0x0748ca64	1.5105805e-34
233	0xb3cc169d	-9.5036036e-08
234	0x881282f7	-4.4089225e-34
235	0x91c7f26c	-3.1546068e-28
236	0x0009f8fc	9.15838e-40
237	0x911a8a0d	-1.2190998e-28
238	0xb6c19a51	-5.769813e-06
239	0x8eb3b882	-4.430458e-30
240	0x8ec88ce0	-4.9439464e-30
241	0x86b21a83	-6.6995114e-35
242	0x1030bd1b	3.485556e-29
243	0x089faab3	9.609596e-34
244	0x8a92b764	-1.4128272e-32
245	0x84e47f52	-5.3719468e-36
246	0x0a10eeaa	6.9782355e-33
247	0x8002147a	-1.91017e-40
248	0x80003e41	-2.2332e-41
249	0x80054e84	-4.87344e-40
250	0x8002fcb7	-2.74328e-40
251	0x8bbc44b4	-7.251834e-32
252	0x8b086c1e	-2.6273986e-32
253	0x10769596	4.8630182e-29
254	0x0000e3d4	8.173e-41
255	0x805fc369	-8.794472e-39

dnn.2.bias f4 [32]
0	0xb043708d	-7.110053e-10
1	0xba52dde2	-0.00080439274
2	0xbe6a6c3d	-0.22892852
3	0xb195d5a3	-4.3607584e-09
4	0xaab6d518	-3.2477558e-13
5	0xac5b8877	-3.1197525e-12
6	0xb6e6871a	-6.870262e-06
7	0xb6b4fb9a	-5.3937083e-06
8	0xbb96818a	-0.004593079
9	0xbadbea2f	-0.0016778166
10	0xab11cd7f	-5.179953e-13
11	0xad8d0117	-1.6030328e-11
12	0xbb18cae2	-0.0023314287
13	0xa11171da	-4.927859e-19
14	0xbe1c4c00	-0.15263367
15	0xb3a3f89e	-7.635502e-08
16	0xafa6960a	-3.0301833e-10
17	0x9c17ccbc	-5.022632e-22
18	0xb224596d	-9.5663895e-09
19	0x990a5bee	-7.152998e-24
20	0xb6f3bd70	-7.2640178e-06
21	0xb66e2f9a	-3.5492471e-06
22	0xbd2f24e1	-0.04275978
23	0xb6f8ef40	-7.4188283e-06
24	0xb0c3bcbc	-1.4241759e-09
25	0xac99542b	-4.357866e-12
26	0xa6a4800f	-1.1414496e-15
27	0xaec43956	-8.923233e-11
28	0xadbcccee	-2.1464133e-11
29	0xbd2e9b65	-0.042628665
30	0xbcc62d1c	-0.024191432
31	0xbc21e783	-0.009881857

dnn.4.weight f4 [16, 32]
0	0x0004b1ca	4.3112e-40
1	0x8005b58d	-5.24306e-40
2	0x0005d129	5.3421e-40
3	0x0002e165	2.64527e-40
4	0x80063f70	-5.7377e-40
5	0x800322a0	-2.87928e-40
6	0x80022b8d	-1.99294e-40
7	0x0006214e	5.6296e-40
8	0x800322c7	-2.87982e-40
9	0x00000cdc	4.613e-42
10	0x000279b2	2.27327e-40
11	0x80014ae6	-1.18704e-40
12	0x80221005	-3.128154e-39
13	0x80045677	-3.9836e-40
14	0x000286a1	2.31967e-40
15	0x80055adc	-4.91772e-40
16	0x00031161	2.81741e-40
17	0x000153da	1.21916e-40
18	0x00012e38	1.08416e-40
19	0x80045c78	-4.00514e-40
20	0xa829ba20	-9.421744e-15
21	0x98778b31	-3.1994275e-24
22	0x00074052	6.65922e-40
23	0x8000cdbe	-7.3806e-41
24	0x0006428c	5.74885e-40
25	0x80044ee2	-3.9564e-40
26	0x95158011	-3.0191337e-26
27	0x0000805c	4.6047e-41
28	0x80001798	-8.464e-42
29	0xacbb9543	-5.331431e-12
30	0x80062008	-5.62504e-40
31	0x000437a0	3.87296e-40
32	0x000484cc	4.1498e-40
33	0x001c7679	2.613894e-39
34	0x0007952f	6.96365e-40
35	0x902c2b41	-3.395434e-29
36	0x800601e1	-5.51687e-40
37	0x80021b49	-1.93459e-40
38	0x80130f62	-1.750393e-39
39	0x800369f4	-3.13515e-40
40	0x802233a2	-3.140929e-39
41	0x010acd2c	2.54938e-38
42	0x0ffc644d	2.4887753e-29
43	0x8002e0d7	-2.64328e-40
44	0x801ff3e4	-2.934392e-39
45	0x801c41b1	-2.59496e-39
46	0x80075053	-6.71663e-40
47	0x843abbb2	-2.195038e-36
48	0x8004d897	-4.4504e-40
49	0x06db51b2	8.2498685e-35
50	0x8005b042	-5.22407e-40
51	0x8001beca	-1.60278e-40
52	0x0006327d	5.69125e-40
53	0x00012bad	1.07503e-40
54	0x808a8503	-1.2721014e-38
55	0x003e6aa1	5.732052e-39
56	0x007a1570	1.1211621e-38
57	0x00054327	4.83267e-40
58	0x0000e67d	8.2684e-41
59	0x004971f7	6.744874e-39
60	0x00082a01	7.49752e-40
61	0x15a8e996	6.8223193e-26
62	0x8effd91b	-6.307142e-30
63	0x030a5f54	4.0663986e-37
64	0x35eeab73	1.778228e-06
65	0x926c6b01	-7.460036e-28
66	0x963617c6	-1.4709344e-25
67	0x9693818a	-2.3830882e-25
68	0x34999223	2.86048e-07
69	0xb3a9c3dd	-7.905303e-08
70	0x8be82e5a	-8.943289e-32
71	0xb2103ce9	-8.3957525e-09
72	0x24154a82	3.2372335e-17
73	0x0b14ad43	2.863411e-32
74	0x1406b478	6.800862e-27
75	0x31bfa10b	5.57714e-09
76	0x80008cdc	-5.0531e-41
77	0xa951c210	-4.6575645e-14
78	0x11ab880a	2.7062884e-28
79	0x1ce565ad	1.5180231e-21
80	0x11a1f6ff	2.5553544e-28
81	0x85f34842	-2.2878154e-35
82	0x1f9a4867	6.5341317e-20
83	0x0000fab2	8.9933e-41
84	0xb1e6a1fa	-6.7122956e-09
85	0xb49ab0d1	-2.8813386e-07
86	0x80014511	-1.16612e-40
87	0x00e35b02	2.0879305e-38
88	0x023f3aac	1.4049302e-37
89	0xb157ee7e	-3.1422185e-09
90	0xaeb2ace1	-8.125212e-11
91	0x8003a8cd	-3.36061e-40
92	0xacdc5472	-6.2621514e-12
93	0xbbd970b6	-0.0066357506
94	0xba0258b4	-0.0004972324
95	0x8b67e7df	-4.4663422e-32
96	0x00000b06	3.954e-42
97	0x00040b1f	3.71331e-40
98	0x00034a8e	3.02252e-40
99	0x00027376	2.2509e-40
100	0x0780a6c8	1.9357325e-34
101	0x000661c8	5.8609e-40
102	0x0048ce0e	6.686074e-39
103	0x800216e5	-1.91884e-40
104	0x80019295	-1.44419e-40
105	0x80075b9f	-6.75716e-40
106	0x0002230f	1.96248e-40
107	0x8478b54c	-2.9235507e-36
108	0x8002a448	-2.42604e-40
109	0x802e959b	-4.278101e-39
110	0x01f13b72	8.861472e-38
111	0x80056050	-4.93728e-40
112	0x0002b453	2.48359e-40
113	0x800077b0	-4.2936e-41
114	0x8001cb68	-1.64804e-40
115	0x8007769e	-6.854e-40
116	0x08b7c3d2	1.1059949e-33
117	0xa177daac	-8.3976265e-19
118	0x0b046741	2.5499955e-32
119	0x00004545	2.4849e-41
120	0x80047045	-4.07617e-40
121	0x803bc0e2	-5.487488e-39
122	0x80024142	-2.07081e-40
123	0x8001af3d	-1.54699e-40
124	0x95d1cef8	-8.4740967e-26
125	0x8074b68c	-1.0718403e-38
126	0xabda570f	-1.5513995e-12
127	0x80015f22	-1.25963e-40
128	0x336aaf8d	5.4642033e-08
129	0x80003f1b	-2.2638e-41
130	0x00027474	2.25447e-40
131	0x80023931	-2.04187e-40
132	0x2f6757de	2.1040544e-10
133	0x0001f94c	1.81266e-40
134	0x000432a9	3.85515e-40
135	0x1ec6ffa1	2.1069791e-20
136	0x80057379	-5.00601e-40
137	0x00020b78	1.87785e-40
138	0x0000a386	5.8661e-41
139	0x00020826	1.86594e-40
140	0x8061cd33	-8.981655e-39
141	0x00049ec8	4.24302e-40
142	0x80041556	-3.74996e-40
143	0x8007572d	-6.74121e-40
144	0x00053539	4.7827e-40
145	0x292aa868	3.7893652e-14
146	0xa2c2723a	-5.2704747e-18
147	0x80057372	-5.00591e-40
148	0x34932020	2.7404258e-07
149	0xaf8b140b	-2.5298194e-10
150	0x8014d475	-1.912925e-39
151	0x80031aa8	-2.85069e-40
152	0x00066c6f	5.89912e-40
153	0x2dafe895	1.9998484e-11
154	0xb235d4ed	-1.0584e-08
155	0x80019fed	-1.49206e-40
156	0x07348c38	1.3582902e-34
157	0xb22b4716	-9.969673e-09
158	0xa6e52d84	-1.5902404e-15
159	0x800542ea	-4.83182e-40
160	0xb326f4d8	-3.887257e-08
161	0x80002ab5	-1.532e-41
162	0x0af27a5a	2.3349776e-32
163	0x80024790	-2.09343e-40
164	0x31094a1d	1.9978252e-09
165	0x8003d5ae	-3.5216e-40
166	0x800115b9	-9.9628e-41
167	0x81017cd6	-2.3783123e-38
168	0x00014324	1.15921e-40
169	0x000585c3	5.07162e-40
170	0x8001a600	-1.51385e-40
171	0xb3f7617a	-1.1519565e-07
172	0x80009832	-5.4597e-41
173	0x8001c9b9	-1.642e-40
174	0x10f17b3b	9.5247606e-29
175	0x8004e680	-4.5003e-40
176	0x00062543	5.6438e-40
177	0x0000763f	4.2419e-41
178	0x97e8d228	-1.50456995e-24
179	0x0005b6e4	5.24786e-40
180	0xb454d963	-1.9823123e-07
181	0xb5ee1c5a	-1.7740633e-06
182	0x8001ca92	-1.64504e-40
183	0x000073b3	4.1505e-41
184	0x399581a8	0.00028516096
185	0xafec0d29	-4.29375e-10
186	0xaf9d9ab0	-2.8668046e-10
187	0x000629dd	5.6603e-40
188	0x2f5d3847	2.0119827e-10
189	0xb981cf63	-0.00024759313
190	0xb327954b	-3.90185e-08
191	0x0000df3d	8.0083e-41
192	0x0003011b	2.75903e-40
193	0x80036fdb	-3.15633e-40
194	0x806c5410	-9.94839e-39
195	0x8ed4e7c0	-5.2485202e-30
196	0x0000923c	5.2459e-41
197	0x0001f2b6	1.78904e-40
198	0x8132e61b	-3.285853e-38
199	0x2019fc22	1.3043028e-19
200	0x8028adbd	-3.735745e-39
201	0x848300ce	-3.079869e-36
202	0x8b6449dc	-4.3966768e-32
203	0x000024a0	1.3139e-41
204	0x80472c8d	-6.536302e-39
205	0x800370c2	-3.15956e-40
206	0x805cdf06	-8.528871e-39
207	0x80f977be	-2.2909994e-38
208	0x8002b4c0	-2.48512e-40
209	0x80005244	-2.9511e-41
210	0x00036a20	3.13577e-40
211	0x8005ed90	-5.44399e-40
212	0x8006185b	-5.5975e-40
213	0x80069628	-6.04879e-40
214	0x000058a3	3.1797e-41
215	0x09aa6130	4.1017406e-33
216	0x800107f0	-9.4683e-41
217	0x00015d8d	1.25395e-40
218	0x8002f7c1	-2.72548e-40
219	0x80032bbf	-2.912e-40
220	0x0032dbf3	4.670678e-39
221	0xb93e1ae9	-0.00018129837
222	0x98a917b2	-4.3709402e-24
223	0x00c2bb89	1.7883361e-38
224	0xb6a7b5a7	-4.998135e-06
225	0x3aabca5b	0.0013106571
226	0xbe6056cc	-0.2190811
227	0xb6c5a087	-5.8897454e-06
228	0xaedb716f	-9.979117e-11
229	0xb85d49f3	-5.2759377e-05
230	0x3cb4e6eb	0.022082767
231	0xbc061c50	-0.008185461
232	0x3df9644f	0.121773355
233	0x3b0515f9	0.0020307286
234	0x3209d19b	8.022108e-09
235	0xb61da60f	-2.3491482e-06
236	0xbc68b5a7	-0.014203466
237	0xb40779ec	-1.261721e-07
238	0xbdbb4c3b	-0.09145399
239	0xbb394543	-0.0028270043
240	0xb8968d21	-7.178845e-05
241	0x041a4927	1.8136203e-36
242	0xb70d97ea	-8.439625e-06
243	0x191d9667	8.147083e-24
244	0x3a637269	0.0008676411
245	0xb9a5fc1f	-0.00031659097
246	0x3d6775b3	0.05650873
247	0x3a966c0c	0.0011476292
248	0xb965ce4d	-0.00021915995
249	0xb40c81ed	-1.3085783e-07
250	0xb6c3323b	-5.8173005e-06
251	0xb818e905	-3.645664e-05
252	0xb0660580	-8.368133e-10
253	0x3e860a4b	0.26179728
254	0x3a965c86	0.0011471666
255	0xbaa2fbb0	-0.0012434628

dnn.4.bias f4 [16]
0	0xa7edf0c7	-6.6041766e-15
1	0xad5ad8b2	-1.2439981e-11
2	0xbacc7257	-0.0015598041
3	0xb33eded8	-4.4440498e-08
4	0xb733bca9	-1.0713157e-05
5	0xba1961f8	-0.00058510853
6	0xbc3e9e7a	-0.011634463
7	0xbc1515d5	-0.009099443
8	0xb227637f	-9.743302e-09
9	0xb7c4cfe3	-2.3461826e-05
10	0x24a5971e	7.1813346e-17
11	0xb44b5775	-1.8937665e-07
12	0xb928d213	-0.00016099987
13	0xa0db1d5e	-3.7119477e-19
14	0xbbbaac22	-0.0056967894
15	0xb83dc156	-4.524117e-05

exp_avg f4 [64, 100]
0	0x2ee79652	1.0531366e-10
1	0xac1699dc	-2.1401691e-12
2	0xb2718b47	-1.4059714e-08
3	0x2ef774b9	1.1252994e-10
4	0x2eb60ecf	8.279032e-11
5	0xaed07f08	-9.48131e-11
6	0xaf0af63c	-1.2638507e-10
7	0xb00c0ee4	-5.0952864e-10
8	0x2f4fe910	1.8909341e-10
9	0xadd943b6	-2.4700113e-11
10	0xae906865	-6.566906e-11
11	0xae007e77	-2.9216154e-11
12	0xae868325	-6.1169105e-11
13	0xaee70fb6	-1.05074546e-10
14	0x2fc32e89	3.5503359e-10
15	0xabe88e80	-1.6524143e-12
16	0xb02c0ad1	-6.2588607e-10
17	0x3479a550	2.3250072e-07
18	0x348abc8f	2.5841697e-07
19	0x2eaaf2b7	7.77382e-11
20	0xae86eada	-6.1353325e-11
21	0x2e0f2b52	3.2552912e-11
22	0x2f7ebfbb	2.3169282e-10
23	0xad93f116	-1.6819029e-11
24	0x2e637d17	5.1724926e-11
25	0x33098b1e	3.2024325e-08
26	0xad97c204	-1.7252873e-11
27	0x2eca2b40	9.193579e-11
28	0xac09d2e4	-1.9585939e-12
29	0xb0c5ab3e	-1.4382306e-09
30	0xaf872f4d	-2.4589966e-10
31	0xaeaa0c2f	-7.732869e-11
32	0xad44a9d1	-1.1179017e-11
33	0xad85d9fa	-1.521715e-11
34	0xadee9d8d	-2.7127434e-11
35	0xb0820ed1	-9.462956e-10
36	0xae5de161	-5.044976e-11
37	0x2ec74ba6	9.06291e-11
38	0x2f97679d	2.7540362e-10
39	0x2efcc7d3	1.1495129e-10
40	0xaf31b2ff	-1.6161648e-10
41	0xac850204	-3.780311e-12
42	0xaf7a3ca3	-2.275891e-10
43	0xb2d76636	-2.5075774e-08
44	0xaf01eb45	-1.1816066e-10
45	0x2ef56f33	1.1161063e-10
46	0x2cf7c4a5	7.041994e-12
47	0xb1f51b31	-7.1335298e-09
48	0x2f8bd77c	2.5437064e-10
49	0xaeef970c	-1.0895293e-10
50	0xacd78422	-6.125337e-12
51	0x2f4eaddc	1.8797358e-10
52	0x317116c4	3.5083056e-09
53	0x2db1ba5a	2.0205327e-11
54	0x2cd80c94	6.1404857e-12
55	0x2dd3da08	2.4084748e-11
56	0xb20754d4	-7.877322e-09
57	0xb0329321	-6.4965106e-10
58	0xaf233fba	-1.4847404e-10
59	0xac3efdc0	-2.7141484e-12
60	0xaf0eb113	-1.2977734e-10
61	0x2efa3c08	1.13793475e-10
62	0x2ea0832a	7.299257e-11
63	0x30a4dba7	1.1994999e-09
64	0x2ea4e16b	7.497899e-11
65	0xaef4b693	-1.1128267e-10
66	0xaede7a63	-1.01171314e-10
67	0x2eeb6012	1.0703628e-10
68	0x2ede21da	1.01014044e-10
69	0xaf022897	-1.1837852e-10
70	0x2eb8534e	8.382149e-11
71	0xb024a18c	-5.9892424e-10
72	0x30ea7227	1.7058185e-09
73	0x2f291ab8	1.5379953e-10
74	0xb49c6fa1	-2.9138485e-07
75	0xaf0dd19f	-1.2898348e-10
76	0x2e8590e7	6.0738796e-11
77	0xada225b0	-1.8434004e-11
78	0xad9d1124	-1.7856445e-11
79	0x2cbc49c8	5.3514727e-12
80	0xb3a763c7	-7.794693e-08
81	0x33a8771d	7.844776e-08
82	0x2f2a2e20	1.5477797e-10
83	0xaf0c88e1	-1.2781555e-10
84	0x2f163cb5	1.3663988e-10
85	0x2e9da36a	7.1685616e-11
86	0xae2e253d	-3.9596094e-11
87	0x2e2ad3db	3.884169e-11
88	0x2f169437	1.3695077e-10
89	0x2f567c2c	1.9507301e-10
90	0xaf54966e	-1.9334731e-10
91	0xae45fe0d	-4.5018256e-11
92	0x2e6c4745	5.3723487e-11
93	0x2e306402	4.010659e-11
94	0x2faeac5a	3.177288e-10
95	0xafa0bde3	-2.9238753e-10
96	0xaedf1602	-1.0144775e-10
97	0x2b0f4128	5.089423e-13
98	0x2f8f513c	2.606927e-10
99	0x35012611	4.811164e-07
100	0xb18f70dd	-4.174679e-09
101	0xb28fc2a0	-1.6735896e-08
102	0xb30e449b	-3.3124348e-08
103	0x31e9ede4	6.8082375e-09
104	0xb22fad11	-1.0225691e-08
105	0xb1b4c695	-5.2612656e-09
106	0x32bdfd38	2.2117646e-08
107	0x320286fd	7.597689e-09
108	0x3188031d	3.958475e-09
109	0x31439362	2.8460012e-09
110	0xb1a0215c	-4.6604054e-09
111	0x30b000f6	1.2805959e-09
112	0x30486d72	7.291511e-10
113	0xb288bace	-1.5917433e-08
114	0xb0af6525	-1.2761673e-09
115	0x309fb416	1.1619956e-09
116	0x32bb196e	2.178123e-08
117	0x3298163f	1.7705245e-08
118	0x33411a88	4.4960444e-08
119	0x31f012cb	6.987056e-09
120	0xb1388515	-2.6851172e-09
121	0x32051cb0	7.748142e-09
122	0xb1919b64	-4.2377213e-09
123	0xaf0a2714	-1.256491e-10
124	0xafe580c3	-4.1746348e-10
125	0x33033f4d	3.0558386e-08
126	0xb18f5e0a	-4.1725388e-09
127	0xb19167d6	-4.23186e-09
128	0xb2099881	-8.009125e-09
129	0xb1fc2b41	-7.3390827e-09
130	0x31c7f89c	5.819926e-09
131	0x3238a5f5	1.0747944e-08
132	0x30457ddb	7.1847034e-10
133	0xb2805eac	-1.4944213e-08
134	0x3188cc51	3.981349e-09
135	0x3237567d	1.0671667e-08
136	0x32369091	1.0626665e-08
137	0xb0ebc0ac	-1.7153261e-09
138	0x318be4c8	4.071442e-09
139	0xb1e8d16d	-6.7758976e-09
140	0x310a697d	2.0141606e-09
141	0xb19a0959	-4.4830526e-09
142	0xb1903018	-4.196419e-09
143	0xb2c3e80a	-2.2806507e-08
144	0xb06b0826	-8.550408e-10
145	0x31f194eb	7.030953e-09
146	0x31707428	3.4990624e-09
147	0xb17c35f3	-3.6701493e-09
148	0xb168ad5d	-3.385899e-09
149	0xb1eab162	-6.8304624e-09
150	0xb18cb390	-4.09495e-09
151	0xaf7a1378	-2.2744284e-10
152	0x3202ee3c	7.621164e-09
153	0x31fcef0f	7.361343e-09
154	0xb1687793	-3.3828413e-09
155	0x31cb957b	5.9250715e-09
156	0xb09cc7ee	-1.1407317e-09
157	0x325f710f	1.3006015e-08
158	0xb21de144	-9.189822e-09
159	0x32560ee4	1.2459825e-08
160	0x324f0ccc	1.20518955e-08
161	0x3183cf9d	3.8362047e-09
162	0x31cd812e	5.9809713e-09
163	0x32751394	1.42653285e-08
164	0x3186a281	3.918388e-09
165	0xb0d9469f	-1.58089e-09
166	0xb20c3b0f	-8.162501e-09
167	0x3235ad83	1.0575039e-08
168	0xb1c7b1ee	-5.8118905e-09
169	0x31bdc7d6	5.5233427e-09
170	0xb23754b3	-1.067126e-08
171	0x2f8c0996	2.5472663e-10
172	0x3270e1db	1.4021192e-08
173	0xb21742e2	-8.804564e-09
174	0xb2a84ccc	-1.9592697e-08
175	0xb1a69aac	-4.84882e-09
176	0x31d12a7f	6.087532e-09
177	0x317f4a58	3.7149643e-09
178	0xb127f89a	-2.4443012e-09
179	0x3087c6f6	9.879091e-10
180	0xb2ee3d01	-2.7734588e-08
181	0x32956fe2	1.7396761e-08
182	0x315f32e2	3.2479694e-09
183	0xb2581266	-1.2577038e-08
184	0xb2501f44	-1.21143025e-08
185	0x30c58bc5	1.4373361e-09
186	0xb03f619a	-6.9624095e-10
187	0xb1fe7799	-7.4059696e-09
188	0x3224ba72	9.588449e-09
189	0x2fe4263a	4.150012e-10
190	0xaf1fa528	-1.4519641e-10
191	0xb2d69e0e	-2.4984754e-08
192	0xb267a702	-1.3483943e-08
193	0xaf145f40	-1.3494361e-10
194	0xb22db89a	-1.0111899e-08
195	0xb20fa193	-8.360433e-09
196	0x30b2cbef	1.3009166e-09
197	0x30c72422	1.4489425e-09
198	0x328af538	1.6176827e-08
199	0x330686e9	3.1322006e-08
200	0x0000000f	2.1e-44
201	0x001755b3	2.14296e-39
202	0x94d60b65	-2.1612972e-26
203	0x8000000e	-2e-44
204	0x80000018	-3.4e-44
205	0x0000000f	2.1e-44
206	0x87de26df	-3.3425694e-34
207	0x06964858	5.653003e-35
208	0x00000018	3.4e-44
209	0x80000005	-7e-45
210	0x80000022	-4.8e-44
211	0x00000005	7e-45
212	0x00000019	3.5e-44
213	0x0000002c	6.2e-44
214	0x0000002d	6.3e-44
215	0x8000000e	-2e-44
216	0x0060593b	8.848217e-39
217	0x1de5d810	6.08392e-21
218	0x234b40bd	1.1018361e-17
219	0x00000005	7e-45
220	0x00000005	7e-45
221	0x00000019	3.5e-44
222	0x80000018	-3.4e-44
223	0x800006ea	-2.48e-42
224	0x80000005	-7e-45
225	0x0bb3f204	6.9312437e-32
226	0x80000005	-7e-45
227	0x80000023	-4.9e-44
228	0x80000005	-7e-45
229	0x91d9e9e7	-3.4380717e-28
230	0x00000018	3.4e-44
231	0x80000004	-6e-45
232	0x80000004	-6e-45
233	0x80000004	-6e-45
234	0x0000000f	2.1e-44
235	0x00000468	1.58e-42
236	0x00000004	6e-45
237	0x0000000f	2.1e-44
238	0x8000000e	-2e-44
239	0x8000000e	-2e-44
240	0x00000004	6e-45
241	0x80000022	-4.8e-44
242	0x0000fa19	8.9718e-41
243	0x979c60ca	-1.0105697e-24
244	0x80000018	-3.4e-44
245	0x80000022	-4.8e-44
246	0x80000005	-7e-45
247	0x01d1b418	7.7032897e-38
248	0x0000002d	6.3e-44
249	0x000008ec	3.2e-42
250	0x80000018	-3.4e-44
251	0x00000004	6e-45
252	0x920ee57f	-4.5090175e-28
253	0x80000004	-6e-45
254	0x8000000e	-2e-44
255	0x0000000f	2.1e-44

exp_avg_sq f4 [64, 100]
0	0x2f89e039	2.5079475e-10
1	0x30946a3a	1.0798609e-09
2	0x30c8a797	1.4599547e-09
3	0x2f9a25b9	2.803924e-10
4	0x2fd7aac4	3.9229608e-10
5	0x2fc0903a	3.5027076e-10
6	0x309463f3	1.0796825e-09
7	0x306a43ec	8.5225227e-10
8	0x306cc1a5	8.6131485e-10
9	0x2fbbceca	3.4162034e-10
10	0x3000fc04	4.6924264e-10
11	0x2ffce5f3	4.6001922e-10
12	0x2eb5f848	8.275031e-11
13	0x302e48d9	6.3404354e-10
14	0x302e4eeb	6.341298e-10
15	0x2f846a06	2.4085994e-10
16	0x3081e38b	9.450657e-10
17	0x317d05bb	3.6819603e-09
18	0x318623f2	3.904e-09
19	0x3028775e	6.1287675e-10
20	0x2f921f29	2.6579386e-10
21	0x301c776b	5.692217e-10
22	0x2f33f61e	1.6367394e-10
23	0x30411ad9	7.0251144e-10
24	0x2f895570	2.4980862e-10
25	0x30e4861a	1.6627297e-09
26	0x2fa6ad9c	3.031858e-10
27	0x2fad4568	3.1517833e-10
28	0x2ff2bf08	4.415528e-10
29	0x30a77ee4	1.2186914e-09
30	0x2ff43d69	4.4426976e-10
31	0x2f5d9f0c	2.0156338e-10
32	0x2fcb4257	3.6972622e-10
33	0x2f2dbf73	1.5802275e-10
34	0x2f993537	2.786835e-10
35	0x308c4234	1.0205157e-09
36	0x2fc5eea7	3.6003664e-10
37	0x2ec4b454	8.945081e-11
38	0x3010cdd4	5.2679394e-10
39	0x3053c4f3	7.7041235e-10
40	0x2f8a21eb	2.5126154e-10
41	0x2ff6d9cd	4.4901896e-10
42	0x307b0a58	9.132797e-10
43	0x3101c8c0	1.8886084e-09
44	0x30505d5e	7.580264e-10
45	0x30568064	7.80352e-10
46	0x2fe474a4	4.1555837e-10
47	0x30bf6acd	1.3927434e-09
48	0x2f824b88	2.370053e-10
49	0x304c1a69	7.42523e-10
50	0x3004b1cc	4.8273985e-10
51	0x300ca03f	5.1159427e-10
52	0x30b6513f	1.3265334e-09
53	0x2ff047d0	4.3706772e-10
54	0x30024859	4.7396537e-10
55	0x2e6a7c97	5.3316098e-11
56	0x30e9ccc6	1.7011181e-09
57	0x30817124	9.418142e-10
58	0x300f29f7	5.208273e-10
59	0x30948b1e	1.0807957e-09
60	0x2f2d8d51	1.5784464e-10
61	0x2f8e6547	2.5901611e-10
62	0x2f088989	1.241799e-10
63	0x30a01307	1.164694e-09
64	0x2e9d7a48	7.161255e-11
65	0x300ac621	5.0485666e-10
66	0x2fbcada1	3.4320372e-10
67	0x2fbcbe38	3.433216e-10
68	0x3080818c	9.350045e-10
69	0x2fa3ae1c	2.977324e-10
70	0x30061489	4.87781e-10
71	0x3087f174	9.891168e-10
72	0x30a916d7	1.230286e-09
73	0x3056fcb8	7.821188e-10
74	0x31853888	3.8772363e-09
75	0x30009eae	4.6791626e-10
76	0x3004ba1b	4.828579e-10
77	0x2f07120d	1.2284591e-10
78	0x30688a45	8.45976e-10
79	0x2f8cd1ad	2.5614835e-10
80	0x311b91e2	2.2638393e-09
81	0x313dc756	2.761643e-09
82	0x2fe21a2b	4.1127754e-10
83	0x2fc3abcf	3.559237e-10
84	0x2fc8faa7	3.6557887e-10
85	0x2f2bff40	1.5643042e-10
86	0x2fce3247	3.7506906e-10
87	0x2fb92959	3.3680683e-10
88	0x2fa9787e	3.0826536e-10
89	0x2f9a44b9	2.8061267e-10
90	0x2f8e9a02	2.593908e-10
91	0x307a613a	9.108764e-10
92	0x305006f9	7.567987e-10
93	0x2fcb978f	3.7033174e-10
94	0x306e77c0	8.675407e-10
95	0x301b0bcb	5.640543e-10
96	0x2feb4f95	4.2802797e-10
97	0x2fe8fab4	4.237869e-10
98	0x30467c5b	7.22087e-10
99	0x317fd07d	3.7225896e-09
100	0x2eb8ee60	8.409695e-11
101	0x2f920b53	2.6565292e-10
102	0x2f955a43	2.7167077e-10
103	0x2ea15fe8	7.338469e-11
104	0x2e6f909d	5.447075e-11
105	0x2ee9d306	1.06330986e-10
106	0x2f1b9d6e	1.4153098e-10
107	0x2f42eb6b	1.7727834e-10
108	0x2f8510e8	2.4204572e-10
109	0x2edfaf44	1.01719994e-10
110	0x2ee952ed	1.0610344e-10
111	0x2f14a295	1.3518282e-10
112	0x2d557a7c	1.2134845e-11
113	0x2f5c37c0	2.002869e-10
114	0x2e9b4398	7.060591e-11
115	0x2e8143b2	5.878266e-11
116	0x2f58dc5f	1.9723377e-10
117	0x3082969d	9.501552e-10
118	0x305e6e62	8.0919993e-10
119	0x2f37739a	1.6684823e-10
120	0x2ec1aae2	8.806979e-11
121	0x2f089b29	1.2424252e-10
122	0x2e67c454	5.2697693e-11
123	0x2ec88827	9.1191325e-11
124	0x2e211179	3.662268e-11
125	0x3002990b	4.751121e-10
126	0x2ed186c2	9.5281574e-11
127	0x2e9ef18c	7.2279155e-11
128	0x2ec068f5	8.749793e-11
129	0x2f9050b2	2.6250785e-10
130	0x2ed3a096	9.623695e-11
131	0x2e650ab3	5.2078074e-11
132	0x2e8c9206	6.392402e-11
133	0x2deba0a6	2.6787749e-11
134	0x2e8092fb	5.846875e-11
135	0x2f5d3244	2.0117691e-10
136	0x2eac6442	7.839464e-11
137	0x2dbfa389	2.178681e-11
138	0x2e9f3ec8	7.241635e-11
139	0x2f79182d	2.2655007e-10
140	0x2e7bd818	5.7262722e-11
141	0x2eb0202b	8.0092676e-11
142	0x2f80ef62	2.3453156e-10
143	0x2fd42d4e	3.8594766e-10
144	0x2f67de13	2.1088224e-10
145	0x2f48e6e9	1.827193e-10
146	0x2e875b23	6.1552784e-11
147	0x2fbeb9c6	3.46928e-10
148	0x2ea12dac	7.329545e-11
149	0x2f5cf7ff	2.009699e-10
150	0x2f0c646b	1.2768601e-10
151	0x2ed811e5	9.8257215e-11
152	0x2f9c9002	2.8478558e-10
153	0x2f039868	1.1968526e-10
154	0x2f3585f4	1.6509444e-10
155	0x2d632db1	1.2913602e-11
156	0x2fe0933d	4.0849982e-10
157	0x2f203d98	1.4573798e-10
158	0x2f09291c	1.2474682e-10
159	0x2f98624e	2.771849e-10
160	0x2e044968	3.0078523e-11
161	0x2e9223da	6.64568e-11
162	0x2df07878	2.733834e-11
163	0x2f9d3e02	2.8602193e-10
164	0x2d7f0fe6	1.4498602e-11
165	0x2f17b12c	1.3796314e-10
166	0x2e9698e5	6.84837e-11
167	0x2e424216	4.416919e-11
168	0x2f344d08	1.6398272e-10
169	0x2ebf49dc	8.6987945e-11
170	0x2f1cb5b7	1.4252675e-10
171	0x2f322e45	1.6205444e-10
172	0x2f81e9c4	2.3631064e-10
173	0x2f226778	1.4770574e-10
174	0x3076bca8	8.9762375e-10
175	0x2f0adc0e	1.2629206e-10
176	0x2eb31554	8.143766e-11
177	0x2e1cb818	3.56338e-11
178	0x2f2614f2	1.5105053e-10
179	0x2e7e3c67	5.780656e-11
180	0x3002d33a	4.7593895e-10
181	0x305a8728	7.9500007e-10
182	0x2ec308ee	8.8691596e-11
183	0x2e8e6614	6.475545e-11
184	0x2e223897	3.6884797e-11
185	0x2e01a425	2.9476994e-11
186	0x2ea53529	7.5127744e-11
187	0x2ea17550	7.342271e-11
188	0x2e58f319	4.9328628e-11
189	0x2e89308f	6.2386644e-11
190	0x2e4c76f9	4.64899e-11
191	0x2f84baaa	2.4143293e-10
192	0x2f1ff0a8	1.4546464e-10
193	0x2e9a3c9f	7.013878e-11
194	0x2f86704c	2.445425e-10
195	0x2efbcc3d	1.14504385e-10
196	0x2e961d4e	6.826416e-11
197	0x2f07f917	1.2366673e-10
198	0x2f51737d	1.9049469e-10
199	0x30256c6d	6.018073e-10
200	0x2f1833d1	1.3842728e-10
201	0x30466970	7.2181816e-10
202	0x30cb48ea	1.4790917e-09
203	0x2f4c87f4	1.8601992e-10
204	0x2fa172be	2.936726e-10
205	0x2f8bff39	2.54653e-10
206	0x3088131e	9.900736e-10
207	0x307e96ce	9.261897e-10
208	0x300c88bf	5.112603e-10
209	0x2f511a8f	1.9017875e-10
210	0x2fc2f526	3.5462583e-10
211	0x2fb5c82f	3.3065947e-10
212	0x2e34d00f	4.1112055e-11
213	0x301436a5	5.391974e-10
214	0x2fef22e5	4.349864e-10
215	0x2f772327	2.2477008e-10
216	0x305e57ea	8.0888063e-10
217	0x314bd4a9	2.9661271e-09
218	0x317e650c	3.7019303e-09
219	0x2ffea0ff	4.6316725e-10
220	0x2f81f4c3	2.3638877e-10
221	0x2fdd7023	4.0279344e-10
222	0x2f1dce87	1.435244e-10
223	0x302b10a8	6.223311e-10
224	0x2f954918	2.7154878e-10
225	0x309dac03	1.1472142e-09
226	0x2f8b9fce	2.53975e-10
227	0x2fcd1520	3.7304293e-10
228	0x2fb2b5da	3.2507225e-10
229	0x30b31d13	1.3032228e-09
230	0x2f8d35e5	2.5686045e-10
231	0x2ed5b052	9.7174394e-11
232	0x2f53d242	1.9265037e-10
233	0x2f03d934	1.1991547e-10
234	0x2f8d5109	2.570533e-10
235	0x3029965b	6.169551e-10
236	0x2fb49871	3.2850125e-10
237	0x2e8b9ab3	6.348468e-11
238	0x300f5d85	5.2155996e-10
239	0x300cae04	5.1178994e-10
240	0x2f257a19	1.505004e-10
241	0x2fd47828	3.8647952e-10
242	0x303d64a2	6.890081e-10
243	0x30e51eee	1.6670734e-09
244	0x300f7b6c	5.219849e-10
245	0x2fdb2b10	3.9866466e-10
246	0x2fb5e2ac	3.3084768e-10
247	0x3064a90c	8.3186147e-10
248	0x2f127174	1.3318929e-10
249	0x302f4a93	6.3770605e-10
250	0x2fdfc21c	4.0701387e-10
251	0x2fc0a3de	3.504103e-10
252	0x30c29670	1.4158115e-09
253	0x2ff9768e	4.5377074e-10
254	0x2fba9cf5	3.3944728e-10
255	0x2e1097eb	3.287674e-11

exp_avg f4 [64]
0	0x2ff7eaa3	4.5095758e-10
1	0xb25c630a	-1.2828204e-08
2	0x8627841d	-3.150627e-35
3	0x36777d03	3.6878635e-06
4	0xa6954f5f	-1.0360465e-15
5	0x9cc8d24b	-1.3289249e-21
6	0x9551b679	-4.235116e-26
7	0x9431d278	-8.977724e-27
8	0x34443f0d	1.827686e-07
9	0xb0f99160	-1.8158453e-09
10	0xb308ab74	-3.1820903e-08
11	0xb6ca4ced	-6.0290245e-06
12	0xa84bee45	-1.132043e-14
13	0x8000000e	-2e-44
14	0x0c0ef176	1.1011944e-31
15	0xb33dd90e	-4.42024e-08
16	0x8ca10486	-2.48087e-31
17	0xb0ab6c62	-1.2472692e-09
18	0xa32c6009	-9.344475e-18
19	0xb66279b0	-3.3747456e-06
20	0x32906364	1.6809004e-08
21	0xb6c4b858	-5.8627156e-06
22	0x9cd234af	-1.3910253e-21
23	0x32d8d845	2.5244058e-08
24	0xb3bd2c71	-8.809082e-08
25	0xb28333d0	-1.5273969e-08
26	0x32f30c29	2.8294453e-08
27	0xb69765af	-4.511988e-06
28	0xb089aca6	-1.0017132e-09
29	0xb06f7f3e	-8.7128516e-10
30	0x298ba59c	6.201569e-14
31	0x09557511	2.5693987e-33
32	0xa2217486	-2.1881256e-18
33	0xb4378e1d	-1.7094904e-07
34	0x8001eb15	-1.76167e-40
35	0x9ebad560	-1.9781766e-20
36	0x0dbc5d9e	1.1608932e-30
37	0x336b4ae4	5.4783314e-08
38	0xb1fd7114	-7.3761246e-09
39	0xb3a0b278	-7.483044e-08
40	0xb4ff3353	-4.7534795e-07
41	0x3914d896	0.00014195064
42	0xa2f35928	-6.595968e-18
43	0xac7c2f3b	-3.5837572e-12
44	0xb21307d0	-8.5583025e-09
45	0xb661fe11	-3.3675499e-06
46	0xa8dce536	-2.4524311e-14
47	0x2ffa9ccc	4.5586146e-10
48	0xa3f91204	-2.7004264e-17
49	0x9a272ef1	-3.457271e-23
50	0x93e1cc0b	-5.6999187e-27
51	0x3709e832	8.2198985e-06
52	0x07e7c695	3.4873733e-34
53	0xb4d7a3b8	-4.0165992e-07
54	0xb6974d28	-4.509133e-06
55	0x80000022	-4.8e-44
56	0xb00f1579	-5.205361e-10
57	0x35eed742	1.779503e-06
58	0x37b9b748	2.2139066e-05
59	0xb6b7235e	-5.4579423e-06
60	0xac8c62b7	-3.989999e-12
61	0x25d54542	3.699654e-16
62	0x29f454d6	1.08504934e-13
63	0xb317e537	-3.5365897e-08

exp_avg_sq f4 [64]
0	0x30730676	8.8412067e-10
1	0x2f371cb3	1.6653949e-10
2	0x307be385	9.163659e-10
3	0x2fd5cf08	3.889158e-10
4	0x2fda57dd	3.97164e-10
5	0x2f1f00ac	1.4461204e-10
6	0x30c8be01	1.4605918e-09
7	0x307bdb80	9.1625196e-10
8	0x300d21cb	5.1343524e-10
9	0x2fa8e1aa	3.0719366e-10
10	0x2fb567a1	3.299734e-10
11	0x304a4100	7.357954e-10
12	0x2e8c3b12	6.376956e-11
13	0x2fbaa925	3.3953387e-10
14	0x3014eb18	5.4176175e-10
15	0x2f5ca29f	2.0066658e-10
16	0x302602d3	6.039446e-10
17	0x2e9ff13d	7.2733354e-11
18	0x2f8947c7	2.4971156e-10
19	0x30054227	4.8479126e-10
20	0x2fbce5cd	3.4360284e-10
21	0x2fa05c4e	2.9169417e-10
22	0x310989a6	2.0014368e-09
23	0x2f3e662d	1.73167e-10
24	0x2ed54063	9.697556e-11
25	0x2f1ce2da	1.4268711e-10
26	0x2f9afa9e	2.819051e-10
27	0x30a31579	1.1865914e-09
28	0x30c1f16c	1.4111214e-09
29	0x300c995b	5.1149635e-10
30	0x2fe13fbf	4.0972556e-10
31	0x308f9d88	1.0449392e-09
32	0x2f8d96b6	2.5754837e-10
33	0x2f6a7db1	2.132683e-10
34	0x2f95058f	2.7106892e-10
35	0x2f28444a	1.5303772e-10
36	0x2fb7b27b	3.3414324e-10
37	0x30116429	5.289303e-10
38	0x2f0aa51b	1.2609684e-10
39	0x2f85d413	2.4343247e-10
40	0x305a6552	7.9451923e-10
41	0x35def8a3	1.6612652e-06
42	0x303a7dcb	6.784517e-10
43	0x30ad9e76	1.2632444e-09
44	0x2fdc9121	4.0120887e-10
45	0x305ce687	8.0363133e-10
46	0x3078f4d4	9.0569796e-10
47	0x2f83ae59	2.3952643e-10
48	0x30440afd	7.132e-10
49	0x3043f029	7.1281875e-10
50	0x303f0c67	6.950302e-10
51	0x305bfa0a	8.002706e-10
52	0x2faa367d	3.0961536e-10
53	0x2fa39c43	2.9760558e-10
54	0x2f3c7ce0	1.7142865e-10
55	0x2fe20645	4.1113615e-10
56	0x2fbfa9d2	3.4863362e-10
57	0x2eba24d0	8.46484e-11
58	0x30b17ad5	1.2913356e-09
59	0x30d86ccc	1.574699e-09
60	0x2fbc1598	3.4212344e-10
61	0x3085b1b8	9.727534e-10
62	0x2fd74830	3.9159564e-10
63	0x2f2da5a4	1.5793106e-10

exp_avg f4 [32, 64]
0	0x9ac5243e	-8.153584e-23
1	0x00000004	6e-45
2	0xa89f9bcd	-1.7720114e-14
3	0x80000018	-3.4e-44
4	0x8000000e	-2e-44
5	0x1d900f85	3.813253e-21
6	0xaa532b28	-1.8755537e-13
7	0x00000005	7e-45
8	0x1cf71c9a	1.6352482e-21
9	0x00000018	3.4e-44
10	0x1b7bb445	2.0820482e-22
11	0x00000005	7e-45
12	0x9c00cdbb	-4.261755e-22
13	0xa75fd837	-3.1064677e-15
14	0x0000000e	2e-44
15	0x0000002c	6.2e-44
16	0x80000022	-4.8e-44
17	0xa8d9f2e5	-2.4197178e-14
18	0xa2eee316	-6.4750466e-18
19	0x80000023	-4.9e-44
20	0x0ef02a78	5.9205464e-30
21	0x80000022	-4.8e-44
22	0xafa54f8c	-3.0069847e-10
23	0x8000000e	-2e-44
24	0x0000000f	2.1e-44
25	0x0000000f	2.1e-44
26	0x9f638ad0	-4.8183943e-20
27	0x248a46ce	5.996791e-17
28	0x8000002d	-6.3e-44
29	0x80000022	-4.8e-44
30	0x00000022	4.8e-44
31	0x2da26dfc	1.846611e-11
32	0x2596a9bf	2.6135877e-16
33	0x80000019	-3.5e-44
34	0x80000004	-6e-45
35	0x0fad4b12	1.7088033e-29
36	0x80000022	-4.8e-44
37	0x00000019	3.5e-44
38	0x80000004	-6e-45
39	0x1d179b3e	2.0064942e-21
40	0x80000004	-6e-45
41	0xaf7c2b72	-2.2934701e-10
42	0x00000019	3.5e-44
43	0x0000000f	2.1e-44
44	0x8a2a24e5	-8.192141e-33
45	0x8000000e	-2e-44
46	0x8000000f	-2.1e-44
47	0x80000004	-6e-45
48	0x061fdb82	3.0065845e-35
49	0x80000018	-3.4e-44
50	0x00e0dc67	2.0650217e-38
51	0xa677641e	-8.5831024e-16
52	0x0000002d	6.3e-44
53	0x225810a1	2.9282262e-18
54	0x92151109	-4.7037107e-28
55	0x9ee5cc7a	-2.4330888e-20
56	0x8000002c	-6.2e-44
57	0x8000000e	-2e-44
58	0x0fce6b88	2.0354588e-29
59	0x0000002d	6.3e-44
60	0x1decc4bd	6.2672102e-21
61	0x80000018	-3.4e-44
62	0x80000005	-7e-45
63	0x00000022	4.8e-44
64	0x2e5b4876	4.9859193e-11
65	0x0000007b	1.72e-43
66	0x80000018	-3.4e-44
67	0xb12c95fb	-2.5114548e-09
68	0xb4d5acfe	-3.980021e-07
69	0x12179b9b	4.7838997e-28
70	0x00000018	3.4e-44
71	0x9f908f2a	-6.122322e-20
72	0xb2890a7d	-1.5953669e-08
73	0x03896a21	8.076502e-37
74	0x31229658	2.3659563e-09
75	0x99fb7488	-2.5999858e-23
76	0x18bb078b	4.8345983e-24
77	0x80000019	-3.5e-44
78	0x07498c0a	1.5162713e-34
79	0x00000124	4.09e-43
80	0xa698ccf6	-1.0602674e-15
81	0x25bbe874	3.2596845e-16
82	0x00000018	3.4e-44
83	0x33837b94	6.1226416e-08
84	0x2f1a66ba	1.4042714e-10
85	0x1e46e490	1.0529298e-20
86	0x0000000e	2e-44
87	0xad3c9918	-1.0720556e-11
88	0x27adfa10	4.8288264e-15
89	0x2c5ffae4	3.1829478e-12
90	0x2df064be	2.732958e-11
91	0x87d3e574	-3.1882612e-34
92	0x1a2cfce8	3.5773062e-23
93	0xaedb93b0	-9.9852016e-11
94	0x276dd4c4	3.3005698e-15
95	0x8000000f	-2.1e-44
96	0x8000000e	-2e-44
97	0x22838237	3.564549e-18
98	0x80000024	-5e-44
99	0x1d559682	2.8268126e-21
100	0x800000dd	-3.1e-43
101	0xa43fd05c	-4.159301e-17
102	0xac0d9720	-2.0121196e-12
103	0x2be1f1d4	1.6054332e-12
104	0x32cac2c5	2.3604466e-08
105	0x351b426f	5.7838673e-07
106	0x1e817a51	1.3708995e-20
107	0xa4231931	-3.536633e-17
108	0x2f5d4698	2.0124913e-10
109	0xa7123e3c	-2.0295308e-15
110	0xa3a4dd20	-1.7874566e-17
111	0x24c26b27	8.431561e-17
112	0x9f5af2c0	-4.6364094e-20
113	0x0658e9d1	4.0796866e-35
114	0x87189991	-1.1480338e-34
115	0x3502dd8c	4.8751167e-07
116	0x055c67db	1.03634255e-35
117	0x3086ed6c	9.817263e-10
118	0x2c87d12c	3.8601535e-12
119	0x00000035	7.4e-44
120	0xa9f3776c	-1.0812084e-13
121	0xaff00268	-4.3657455e-10
122	0xb2c972ad	-2.3451628e-08
123	0xad46b733	-1.1295675e-11
124	0xa4d31a57	-9.1551285e-17
125	0x80134f1b	-1.773252e-39
126	0xa5d01319	-3.609519e-16
127	0xab5fdcd8	-7.9532e-13
128	0xab87084a	-9.594628e-13
129	0xaa5bb322	-1.9513257e-13
130	0x0000000f	2.1e-44
131	0x2aa18fc4	2.8699103e-13
132	0x80000019	-3.5e-44
133	0x98ac84fc	-4.4595238e-24
134	0x955862fb	-4.3698934e-26
135	0x00000011	2.4e-44
136	0x2c32c247	2.5403167e-12
137	0x80000032	-7e-44
138	0x9c03a8aa	-4.3562257e-22
139	0xb77e250a	-1.5148204e-05
140	0x2739a3d5	2.576272e-15
141	0x80000005	-7e-45
142	0x8000002d	-6.3e-44
143	0x2dd46ca8	2.4149863e-11
144	0x0000002b	6e-44
145	0xad0cdc78	-8.0070325e-12
146	0x8000000f	-2.1e-44
147	0x2fbc1b44	3.4216374e-10
148	0x1df4595f	6.467867e-21
149	0x16170962	1.2200644e-25
150	0x9dbaf92e	-4.9491436e-21
151	0xa2554b74	-2.8906827e-18
152	0xb046411e	-7.212452e-10
153	0x1d9cbf30	4.149054e-21
154	0x0000000f	2.1e-44
155	0xb7b1e6b9	-2.1207483e-05
156	0x8dd0218e	-1.2827068e-30
157	0xae997c9f	-6.9797716e-11
158	0x1f6ef240	5.0598845e-20
159	0x800037eb	-2.006e-41
160	0x21a636a6	1.1263063e-18
161	0x0000000f	2.1e-44
162	0x80000019	-3.5e-44
163	0x9da5c5a0	-4.3879476e-21
164	0x80000022	-4.8e-44
165	0x1d8ad9c4	3.675346e-21
166	0x8af00b00	-2.3115297e-32
167	0x0000002d	6.3e-44
168	0x0000000f	2.1e-44
169	0xb73ba4f6	-1.11844765e-05
170	0x80000023	-4.9e-44
171	0x9913ceb6	-7.641467e-24
172	0x2137c42c	6.2262443e-19
173	0xb47edcc7	-2.3735912e-07
174	0x9c1eb2a0	-5.250868e-22
175	0xae66724e	-5.239747e-11
176	0x00000018	3.4e-44
177	0x8000000e	-2e-44
178	0x8000002d	-6.3e-44
179	0x991de7d2	-8.1635255e-24
180	0x8000002c	-6.2e-44
181	0x80000004	-6e-45
182	0xa19540e2	-1.0113807e-18
183	0x0000000f	2.1e-44
184	0xa8868eee	-1.4938974e-14
185	0xb2b338f8	-2.0864249e-08
186	0x332ca1f5	4.019417e-08
187	0xb75d780f	-1.320058e-05
188	0x8000001a	-3.6e-44
189	0x00000022	4.8e-44
190	0x1dc708f3	5.2684115e-21
191	0xac78fe7c	-3.5384187e-12
192	0x0000bf35	6.8592e-41
193	0x00623a3c	9.020769e-39
194	0x0000000e	2e-44
195	0x0000000e	2e-44
196	0x00000004	6e-45
197	0x0000001c	3.9e-44
198	0x00000005	7e-45
199	0x01d89e27	7.9572806e-38
200	0x045e26ef	2.6113852e-36
201	0x800f6775	-1.414646e-39
202	0x8652fe0f	-3.9683263e-35
203	0x85fe3a04	-2.3907357e-35
204	0x000012b4	6.71e-42
205	0x80000004	-6e-45
206	0x0808702c	4.105787e-34
207	0x0000000b	1.5e-44
208	0x8000468b	-2.5306e-41
209	0x8294ff53	-2.1893194e-37
210	0x8000000e	-2e-44
211	0x05c18da0	1.8201658e-35
212	0x0699ec16	5.78991e-35
213	0x80000013	-2.7e-44
214	0x00000005	7e-45
215	0x00000005	7e-45
216	0x00000004	6e-45
217	0x0000000f	2.1e-44
218	0x8010a2b0	-1.527729e-39
219	0x04c7bcc0	4.6958015e-36
220	0x87f13495	-3.6292555e-34
221	0x80000014	-2.8e-44
222	0x00000022	4.8e-44
223	0x80000005	-7e-45
224	0x8000007e	-1.77e-43
225	0x00000019	3.5e-44
226	0x80000004	-6e-45
227	0x8000013c	-4.43e-43
228	0x87e39a86	-3.4245985e-34
229	0x0000002c	6.2e-44
230	0x80000005	-7e-45
231	0x02cda223	3.0215105e-37
232	0x00c0cf23	1.7706722e-38
233	0xad4b9d63	-1.1574161e-11
234	0x008b5f4c	1.279932e-38
235	0x8a9194ee	-1.4019013e-32
236	0x80000012	-2.5e-44
237	0x093a38e3	2.2415684e-33
238	0xb0358a4f	-6.6043965e-10
239	0x054621b4	9.3161055e-36
240	0x869da61c	-5.930091e-35
241	0x80270dba	-3.586509e-39
242	0x881474ac	-4.4674277e-34
243	0x80595bfc	-8.206357e-39
244	0x83fa85dc	-1.4724412e-36
245	0x000382fe	3.22498e-40
246	0x8338dcbe	-5.432614e-37
247	0x80000005	-7e-45
248	0x80000004	-6e-45
249	0x80000023	-4.9e-44
250	0x80000018	-3.4e-44
251	0x86659d62	-4.318574e-35
252	0x02a81e77	2.4702867e-37
253	0x079ce4d2	2.360676e-34
254	0x00000005	7e-45
255	0x0000003f	8.8e-44
