FinalModels/Sener/Data1Models/sener_dnn2-5000-82-128-0.01-0.6403.pt (torch, 57045 bytes, 48 tensors)

dnn.0.weight f4 [32, 100]
000000 32 2b 4c 8e 30 c5 e1 0e 23 f2 22 92 9c 08 97 8e
       -2.516574e-30 5.5656667e-30 -5.1416643e-28 -3.7232664e-30
000010 64 a3 9d 8b 26 7d 01 0f e5 b3 5e 8e 90 fb 7d 8d
       -6.0720043e-32 6.384294e-30 -2.7450229e-30 -7.826445e-31
000020 f9 ab eb 8f 12 7f 50 8e df 3b 05 8e 07 6a 32 0d
       -2.323903e-29 -2.5699162e-30 -1.6422343e-30 5.497811e-31
000030 7c 16 85 0d 80 bb a8 89 7b 72 b9 0e 6c 30 20 8d
       8.202171e-31 -4.0620853e-33 4.571626e-30 -4.936209e-31
000040 a5 02 42 8f 68 bb 4e 26 e5 57 69 23 c0 b0 2e 8e
       -9.565448e-30 7.172459e-16 1.2649568e-17 -2.1532258e-30
000050 4d 35 63 0d 77 ed 34 8f 3c 25 8f 8e 37 64 35 8f
       7.0013934e-31 -8.920419e-30 -3.5288077e-30 -8.94329e-30
000060 61 bf 86 8e e7 2e 66 13 6c 62 1a 0f 5a 54 fa 0e
       -3.321784e-30 2.9053206e-27 7.6117416e-30 6.1710986e-30
000070 9b 1d 12 8f ac a8 dc 90 22 1b 9a 0e eb 1d cf 8e
       -7.2040576e-30 -8.703458e-29 3.799006e-30 -5.105825e-30
000080 61 3f 50 8e b7 05 6c 8d 84 b8 03 0d 3b 5e 87 8f
       -2.5668495e-30 -7.2729994e-31 4.0589594e-31 -1.3348324e-29
000090 5c 86 0a 8c c6 33 0b 8e 2a ef c6 8d 14 a6 51 8e
       -1.0671566e-31 -1.7158e-30 -1.2260269e-30 -2.5841203e-30
0000a0 ab 42 d4 0b f1 2b a2 8e 16 33 87 0f 06 55 ca 94
       8.175974e-32 -3.9978397e-30 1.3331705e-29 -2.0430323e-26
0000b0 66 43 46 0c 88 8d 10 8e 50 92 11 0e 98 2e 96 13
       1.5273647e-31 -1.7817515e-30 1.7943077e-30 3.791127e-27
0000c0 72 41 e5 8d 49 ac fc 8e f8 ab c1 0e b2 34 2a 0e
       -1.412897e-30 -6.22887e-30 4.7743773e-30 2.097949e-30
0000d0 90 fe 98 96 66 b3 10 8f 89 2d e6 0d 35 57 b8 8e
       -2.4717576e-25 -7.134299e-30 1.4185807e-30 -4.544348e-30
0000e0 7d 2f e5 93 ba 52 be 8f 98 e2 94 0b c5 5c 17 90
       -5.7854554e-27 -1.8767312e-29 5.7348467e-32 -2.9850966e-29
0000f0 66 a5 9b 0d 98 37 e4 8d df e1 47 0d 9a 8f 78 10
       9.592431e-31 -1.4064969e-30 6.159349e-31 4.9020003e-29
000100 44 39 25 8d 08 7a 02 0e e2 85 fa 8e a2 e5 b6 0d
       -5.091348e-31 1.6082493e-30 -6.1758683e-30 1.1271898e-30
000110 02 4f 77 8e 87 93 41 8d 16 71 84 0d 80 c3 43 0b
       -3.0483141e-30 -5.9650296e-31 8.162353e-31 3.7702712e-32
000120 81 10 aa 12 fe 6e 33 8f 73 7a 7c a6 51 ec c8 8d
       1.0732577e-27 -8.846758e-30 -8.7596013e-16 -1.2382843e-30
000130 9e de 63 8f f3 15 9b 0e b4 20 66 8e e4 16 c3 8e
       -1.12348386e-29 3.8231586e-30 -2.8365435e-30 -4.8093254e-30
000140 c4 50 a1 1f a3 4e 65 1d 4b 81 1b 8d f9 6c 8f 0e
       6.831977e-20 3.0348552e-21 -4.7918693e-31 3.535716e-30
000150 38 f9 3a 8c b8 44 78 0e 33 c5 3e 0c 1f 4d c5 8d
       -1.4403915e-31 3.0601447e-30 1.469641e-31 -1.2159629e-30
000160 97 56 09 8e 76 b6 ab 8e 91 3e 10 8e 41 c4 9d 8e
       -1.6928245e-30 -4.2330458e-30 -1.7779495e-30 -3.8892474e-30
000170 97 41 77 8f c8 71 20 0e 54 b0 68 8f 48 01 be 0d
       -1.2190672e-29 1.9776306e-30 -1.1472443e-29 1.17099625e-30
000180 43 7e b6 8d 57 36 15 8e 40 9e 91 08 46 71 24 27
       -1.1247012e-30 -1.8391832e-30 8.764074e-34 2.2820978e-15
000190 cf 1a 9a 9d 50 d3 2b 1d 3c 48 43 27 dc 15 e9 9e
       -4.079118e-21 2.2740908e-21 2.7100845e-15 -2.4678875e-20
0001a0 48 84 a1 9d a0 64 93 1d 64 f2 87 27 bb c8 bd 29
       -4.275312e-21 3.901462e-21 3.7732828e-15 8.428107e-14
0001b0 a9 9a 26 a4 9d 7a 4b 1d 7e 30 f6 1e ae cd df 20
       -3.6126514e-17 2.6930216e-21 2.6066319e-20 3.7913777e-19
0001c0 56 fe 61 1d ba e0 bd 9d bf 4c 60 23 9a 28 5b 1d
       2.990999e-21 -5.0260245e-21 1.2159316e-17 2.90054e-21
0001d0 43 f5 45 24 d1 2d 1b 35 04 38 50 35 7e 73 c2 9d
       4.292531e-17 5.780867e-07 7.756755e-07 -5.147079e-21
0001e0 00 ab 9f 1d b8 45 4c 9f e8 7e 36 1b aa 14 a6 22
       4.226376e-21 -4.325635e-20 1.5095693e-22 4.501627e-18
0001f0 27 bb d4 1e 52 4f 0c 20 b7 18 90 9e 9b 63 a9 1c
       2.2523777e-20 1.1884706e-19 -1.5256815e-20 1.1209229e-21
000200 e3 12 3e 9e b7 02 a6 a8 08 a7 2d 9c 89 28 39 1e
       -1.0062422e-20 -1.843088e-14 -5.745678e-22 9.802201e-21
000210 f9 1b 93 1e 97 35 d5 1c b3 cc 8f 1d 9f 67 58 22
       1.55758e-20 1.410901e-21 3.806344e-21 2.9328315e-18
000220 69 1a 69 1d 8a 01 e9 1c 55 46 06 9f 52 b0 32 1d
       3.0850947e-21 1.5419044e-21 -2.843378e-20 2.364926e-21
000230 f2 f1 1d 9e f4 1e 25 20 d7 e8 4b 9e 35 05 13 ae
       -8.361544e-21 1.3986285e-19 -1.0794881e-20 -3.3428555e-11
000240 d4 cf 00 a0 f1 cb 0d 9e ea 8a 0e 1d 56 6d 6e ad
       -1.0910786e-19 -7.506652e-21 1.886536e-21 -1.3553011e-11
000250 18 cd ed 9c e7 96 f3 1e c9 ad 43 9e fc 30 dd 1e
       -1.573636e-21 2.5791038e-20 -1.0359152e-20 2.3419545e-20
000260 17 25 55 2f 21 e9 10 9f ce e7 82 9c 90 fd fa 1d
       1.9385414e-10 -3.0686026e-20 -8.662598e-22 6.6436626e-21
000270 fd f2 4b b1 d3 e2 8d 2d 42 6b 5d 9e 51 f2 87 21
       -2.967851e-09 1.6130574e-11 -1.1721823e-20 9.212096e-19
000280 4a a7 1c 1d 09 1f c7 9e fe 72 1b 9d d9 df 17 a7
       2.0732915e-21 -2.108278e-20 -2.0573529e-21 -2.1076808e-15
000290 7b a8 0e 1d 22 2e 0c 1e c5 f2 dd 1d 41 c9 93 9e
       1.8880646e-21 7.421078e-21 5.874923e-21 -1.5647467e-20
0002a0 e3 7e b4 1e 22 b6 e5 9d 26 69 54 1c 1f b4 0a a6
       1.911072e-20 -6.0804116e-21 7.0280817e-22 -4.812248e-16
0002b0 c6 49 7e 2d 9c bd be 1e 63 76 12 b6 32 22 ed 1b
       1.4454609e-11 2.0195453e-20 -2.1824605e-06 3.923046e-22
0002c0 10 68 b3 9e f3 69 f3 1c 61 d3 1b 9f e0 57 84 9e
       -1.8995401e-20 1.6107778e-21 -3.2997375e-20 -1.4012388e-20
0002d0 78 1a 95 b4 44 60 77 34 2d a1 3a 1e 5b 51 dd 9e
       -2.777267e-07 2.3038689e-07 9.880088e-21 -2.3432933e-20
0002e0 aa c3 a8 9d d2 a5 5f 1e 79 80 79 1c 03 dc 11 1e
       -4.467154e-21 1.18398125e-20 8.2553236e-22 7.7217334e-21
0002f0 1d 0c d3 9e b9 7c c4 1e b2 be 5b 9c c3 ec 7e 1e
       -2.2345504e-20 2.0803891e-20 -7.270749e-22 1.3495609e-20
000300 c4 97 61 20 c8 a9 84 1d 22 7a a1 a3 c6 f8 01 1e
       1.9108456e-19 3.511566e-21 -1.750738e-17 6.880648e-21
000310 58 32 22 9d a2 2f 90 1d 93 8e 66 9d 83 dc 20 36
       -2.1466549e-21 3.8165734e-21 -3.0513956e-21 2.3970213e-06
000320 0c 56 97 38 45 1e 22 bb 5e 5c a3 bc 0b e5 2b 3a
       7.2162686e-05 -0.002473728 -0.019941505 0.00065572624
000330 a5 16 59 3a e8 7a 06 b9 5c ee e5 3c 4c 03 d2 bc
       0.00082812674 -0.00012825022 0.02806776 -0.025636338
000340 cd 34 93 ba 21 88 4f 39 1e 2e 19 bc 22 06 bb 3a
       -0.0011230946 0.0001979177 -0.009349374 0.0014268795
000350 43 6e 28 b4 71 d2 9d bb f1 6f 22 3a 86 b6 6a 3a
       -1.5686332e-07 -0.0048163463 0.000619649 0.000895359
000360 11 ca 18 3d c8 2c 08 3d a0 02 39 3d f0 eb c3 b9
       0.03730208 0.03324583 0.04516852 -0.00037369085
000370 0a d6 8c bb 46 dc b7 3b 37 34 f5 39 54 85 51 bb
       -0.0042979764 0.0056109754 0.00046768945 -0.003197034
000380 06 14 98 3a 3c bf cb 3b 79 1c 2a ba 04 dd 27 bc
       0.0011602647 0.0062178653 -0.0006489228 -0.010245565
000390 d2 85 1c 39 3d ae 5a bb 15 a1 37 ba 4e 88 0c b8
       0.00014927171 -0.0033368014 -0.0007004899 -3.3505545e-05
0003a0 ab a1 30 ba 71 ef 03 3a e0 95 65 39 f4 7c 1d 3b
       -0.00067379576 0.0005032933 0.00021894975 0.0024030777
0003b0 f2 05 e2 bb 33 d0 8d b5 94 3b 4d 3c 6c 0e 0a bb
       -0.0068976814 -1.0565913e-06 0.012526412 -0.0021065725
0003c0 f6 29 10 bb 4e 6a a9 bb f0 a9 0f 3c 9e 80 7b bc
       -0.0021997667 -0.005170143 0.008768544 -0.015350489
0003d0 b0 9b 0d bc 6a d1 a6 3b aa e3 33 ba 1b 5e 90 bb
       -0.008643076 0.005090882 -0.00068622327 -0.0044057495
0003e0 6c fa 9d b9 98 7c 96 ba ff e5 35 ba 7e 54 c8 39
       -0.00030131952 -0.0011481224 -0.0006938874 0.00038209924
0003f0 b2 a2 77 3c bd 9e b3 3b 79 d6 0e 39 2b 6f b1 b4
       0.015114473 0.0054815696 0.00013622073 -3.3049704e-07

dnn.0.bias f4 [32]
000000 9e e4 df 90 df 10 f3 ab 4b 98 83 bb 48 25 c8 b0
       -8.831023e-29 -1.7270871e-12 -0.0040159575 -1.4562511e-09
000010 a7 2c 14 2d 1e 02 ff 28 41 9c bc 36 78 60 a8 87
       8.422741e-12 2.8311605e-14 5.621027e-06 -2.533453e-34
000020 e0 a5 aa 2a b9 d2 e0 ae a1 c5 2f a1 3a 4a 01 80
       3.0313165e-13 -1.02237725e-10 -5.9553866e-19 -1.18463e-40
000030 42 ef 08 34 a5 f7 f6 0c 20 d4 22 b6 bb 6b da 32
       1.2753028e-07 3.8051347e-31 -2.4263354e-06 2.542753e-08
000040 32 d3 80 a9 66 cc 1d 00 b3 ef 9f bc db 86 12 98
       -5.7209784e-14 2.736554e-39 -0.019523477 -1.8938142e-24
000050 74 50 92 a1 6c 0e a0 b5 7a f6 88 b5 a7 f3 7c 9e
       -9.914641e-19 -1.1925126e-06 -1.0204524e-06 -1.3391155e-20
000060 a5 dd 24 b7 aa 6e d0 b3 fa 4d 07 80 10 ca 44 a5
       -9.826767e-06 -9.7058845e-08 -6.70821e-40 -1.7068752e-16
000070 af 91 1f b6 db 54 a8 97 8a f9 c5 a1 2c 6b cc b9
       -2.3777645e-06 -1.0878166e-24 -1.3415292e-18 -0.0003898976

dnn.2.weight f4 [8, 32]
000000 33 1b 03 80 b0 a7 07 80 90 f5 07 b9 0d 95 03 00
       -2.85264e-40 -7.03003e-40 -0.00012966082 3.28976e-40
000010 af 4e 00 80 e7 47 01 00 98 6c 02 80 ed 27 05 80
       -2.8226e-41 1.17629e-40 -2.22627e-40 -4.735e-40
000020 bf 65 01 80 c9 0b 18 ba 1e 52 01 80 94 65 04 00
       -1.28335e-40 -0.0005800096 -1.21294e-40 4.03781e-40
000030 fe f5 e3 a4 e2 b1 00 00 da b5 01 80 64 be 04 80
       -9.8862284e-17 6.3812e-41 -1.57072e-40 -4.35641e-40
000040 bd 02 03 00 33 e3 02 00 22 5b a0 ad 83 e5 02 00
       2.76489e-40 2.65175e-40 -1.8230365e-11 2.66004e-40
000050 ed ce 01 00 9b ef f2 b5 24 f9 02 80 7a 09 00 80
       1.66066e-40 -1.8100139e-06 -2.73046e-40 -3.4e-42
000060 50 75 00 00 59 42 02 00 76 99 03 00 24 81 00 80
       4.2084e-41 2.07472e-40 3.30558e-40 -4.6327e-41
000070 92 83 00 80 9b 32 04 80 17 d2 06 00 b8 9c 01 00
       -4.7199e-41 -3.85496e-40 6.26379e-40 1.48056e-40
000080 d4 fc 02 00 50 bb 04 80 91 68 98 8d 3a 0d 49 9b
       2.74369e-40 -4.34537e-40 -9.392897e-31 -1.6630604e-22
000090 6d c1 05 00 98 ed 25 80 7e 83 06 80 62 59 8e 27
       5.28566e-40 -3.483146e-39 -5.98183e-40 3.9509826e-15
0000a0 cf 03 01 00 09 06 b9 80 bb e5 00 80 26 6a 02 80
       9.3202e-41 -1.6991732e-38 -8.2412e-41 -2.2175e-40
0000b0 ab d9 00 00 12 02 03 00 1b e7 e1 81 49 61 05 80
       7.8085e-41 2.76249e-40 -8.2983567e-38 -4.94077e-40
0000c0 6f 49 07 00 15 0b 04 80 46 b1 5a a8 c2 99 05 80
       6.69191e-40 -3.71317e-40 -1.2139871e-14 -5.14335e-40
0000d0 68 ad 05 80 a5 1f 0a b1 68 8b 14 9a 54 a3 07 80
       -5.21384e-40 -2.009963e-09 -3.0718294e-23 -7.0144e-40
0000e0 1c 55 00 07 73 63 01 00 99 54 05 80 7b 0f 02 80
       9.654661e-35 1.27511e-40 -4.89525e-40 -1.89224e-40
0000f0 5a 58 01 80 c2 68 17 9c bb 2b 01 00 66 4f 05 00
       -1.2353e-40 -5.0097105e-22 1.07523e-40 4.8766e-40
000100 05 c7 47 02 45 f5 1e 11 46 87 66 3c 55 c1 02 00
       1.4677327e-37 1.2539582e-28 0.014070338 2.53025e-40
000110 fd ec 01 00 12 1c 94 b1 1b 15 8b 15 a8 ca 07 80
       1.76851e-40 -4.310558e-09 5.617495e-26 -7.15548e-40
000120 80 3b f8 05 38 d8 03 00 b2 6e 07 80 34 33 02 00
       2.3343665e-35 3.53071e-40 -6.82558e-40 2.02039e-40
000130 24 8c 01 00 36 dc 06 80 3a ed 02 00 fc 28 83 89
       1.42108e-40 -6.3001e-40 2.68772e-40 -3.1575644e-33
000140 a1 58 00 80 da fa 54 98 99 80 90 b9 d7 45 05 80
       -3.1794e-41 -2.7527005e-24 -0.00027561633 -4.84231e-40
000150 c7 62 04 80 6e 85 02 00 53 f5 00 00 ec 2c 03 80
       -4.02777e-40 2.31537e-40 8.8006e-41 -2.91621e-40
000160 f3 bc ff b7 e8 21 07 00 ea 2e 00 00 04 dc 5a 0c
       -3.0486355e-05 6.55012e-40 1.683e-41 1.6860318e-31
000170 b7 11 0d 80 1b f0 05 80 f7 e5 04 00 95 dc 1a 80
       -1.200216e-39 -5.45311e-40 4.49838e-40 -2.466853e-39
000180 9d c3 f7 0a 59 91 be 08 d8 cd fc b7 2f 46 01 00
       2.3858816e-32 1.146938e-33 -3.0136594e-05 1.17013e-40
000190 69 b9 1d 00 fa f0 21 00 f0 7f aa 80 c4 3d 70 02
       2.729742e-39 3.117017e-39 -1.565793e-38 1.7650141e-37
0001a0 a4 e5 3b 8f 2b 81 06 80 82 2f 06 80 6d b5 00 00
       -9.264039e-30 -5.9735e-40 -5.68056e-40 6.5083e-41
0001b0 93 1b 14 00 b0 1e 02 00 e3 91 01 00 6e 19 13 00
       1.846602e-39 1.9468e-40 1.4417e-40 1.753997e-39
0001c0 5a 07 04 80 5e 0e 01 80 f9 29 90 b8 56 2f 00 80
       -3.69979e-40 -9.699e-41 -6.874273e-05 -1.6981e-41
0001d0 67 0f 24 80 a7 2b ab 11 96 38 04 00 fc 01 08 80
       -3.311603e-39 2.7005946e-28 3.87641e-40 -7.35396e-40
0001e0 55 32 9e ba a9 04 03 00 05 ff 33 00 95 65 f2 0f
       -0.0012069443 2.77178e-40 4.775094e-39 2.390217e-29
0001f0 af 4c 08 00 31 98 00 80 42 cb 25 00 f2 d1 c2 00
       7.62193e-40 -5.4596e-41 3.470829e-39 1.78914e-38
000200 de 1b 04 00 34 f1 01 80 5f 57 02 00 38 77 03 80
       3.77339e-40 -1.78363e-40 2.15014e-40 -3.18274e-40
000210 5d 16 61 21 01 8b 00 80 0c 5c 01 00 7f 4c 93 29
       7.6262563e-19 -4.9865e-41 1.24856e-40 6.5413813e-14
000220 b3 9a 23 80 60 fa 6e 87 e7 25 08 00 34 8b 21 1d
       -3.269738e-39 -1.7978709e-34 7.48281e-40 2.1380139e-21
000230 da 28 01 80 af 73 48 2f 4f e1 04 80 af bc 87 05
       -1.0649e-40 1.8230993e-10 -4.48167e-40 1.276465e-35
000240 bf 96 04 00 81 67 a3 9b 12 f5 05 80 e1 f7 02 00
       4.2142e-40 -2.7032976e-22 -5.47092e-40 2.72593e-40
000250 43 07 01 00 50 e4 61 b0 6f 86 04 00 f2 37 0b a9
       9.444e-41 -8.2178975e-10 4.15568e-40 -3.0912725e-14
000260 8f 39 03 00 32 6b 00 00 50 85 01 00 61 5b 05 80
       2.96155e-40 3.8454e-41 1.39659e-40 -4.91958e-40
000270 44 ec 04 80 63 51 f6 a6 c2 27 01 00 28 bb 02 00
       -4.52098e-40 -1.7091739e-15 1.06098e-40 2.5081e-40
000280 07 09 13 bc 5d ca ae 3c 22 7d 07 be 98 56 30 36
       -0.00897432 0.021336729 -0.13231328 2.6276448e-06
000290 a4 74 93 3d c4 2e 91 bb 62 16 92 3b 50 56 e1 85
       0.07199982 -0.0044306237 0.0044582346 -2.1190605e-35
0002a0 3d 84 c9 37 b8 a8 39 ba 3d 4e 0e b7 25 66 34 b3
       2.4022645e-05 -0.0007082331 -8.482076e-06 -4.2002416e-08
0002b0 15 b8 07 bc bf 51 32 ad 41 c3 17 3e 08 bf e9 bb
       -0.008283635 -1.013628e-11 0.14820577 -0.0071333684
0002c0 e4 e8 37 bc 64 7f f1 b5 cc 2b 7f 3e 43 a4 91 b9
       -0.011224959 -1.7992975e-06 0.24919051 -0.0002777894
0002d0 9d ba 4f a1 eb 3c 67 3d cd 02 6f 3c 0b 43 57 bc
       -7.038131e-19 0.05645458 0.01458807 -0.013138543
0002e0 6c ef 6f bd ed 72 1d bd f7 73 fe 3b 63 75 4d bc
       -0.05857794 -0.03843968 0.007765289 -0.012540194
0002f0 46 f5 07 bd e1 75 84 18 55 1e a3 2c 96 70 15 bd
       -0.033192895 3.4240228e-24 4.636106e-12 -0.036484323
000300 f4 be 07 00 96 a8 7c 80 87 77 04 00 d5 14 e8 99
       7.1135e-40 -1.1448079e-38 4.1022e-40 -2.3996652e-23
000310 2f c9 6c 0a 87 de 00 80 21 d0 05 00 3b 25 01 80
       1.1400825e-32 -7.9828e-41 5.3384e-40 -1.05191e-40
000320 f9 9e 05 80 5d 7c c1 0c cb e3 05 80 4d 1a 0e 0e
       -5.16206e-40 2.9811207e-31 -5.40894e-40 1.7515515e-30
000330 d1 f7 04 00 2c 6e 31 32 3c 85 89 83 30 b5 b7 03
       4.56242e-40 1.0327806e-08 -8.082725e-37 1.0797372e-36
000340 2c b5 01 00 ac eb 43 a5 cc 7d 3a 13 ef ad 1a 05
       1.56828e-40 -1.6993403e-16 2.3538523e-27 7.272992e-36
000350 ea b9 01 80 1d 11 64 ac 95 04 05 00 23 af 55 a6
       -1.58529e-40 -3.2410249e-12 4.60821e-40 -7.4136575e-16
000360 01 0b 02 80 2a 4e 04 80 27 c6 02 80 8c 0b 04 00
       -1.87618e-40 -3.95382e-40 -2.54755e-40 3.71484e-40
000370 b3 50 05 00 1a b1 67 9c b9 71 02 00 73 0d 00 00
       4.88127e-40 -7.6660387e-22 2.24467e-40 4.825e-42
000380 82 39 c0 a1 af cd b0 20 8a d4 8c b0 d0 54 85 32
       -1.3025648e-18 2.995167e-19 -1.0246748e-09 1.5521806e-08
000390 f0 14 03 00 e5 c8 ee b4 bc a9 03 00 ff b5 06 80
       2.83017e-40 -4.4477125e-07 3.36396e-40 -6.16301e-40
0003a0 07 07 05 80 09 7c 04 80 11 87 5d 2b 93 0e 03 00
       -4.61698e-40 -4.11837e-40 7.8702415e-13 2.80735e-40
0003b0 0a 27 06 00 4e ad 53 88 09 e9 be 27 e7 d6 01 00
       5.65018e-40 -6.369922e-34 5.298825e-15 1.68928e-40
0003c0 19 59 01 00 69 6d 1c 33 4f c5 3a b7 03 46 12 31
       1.23798e-40 3.642109e-08 -1.1132403e-05 2.1285593e-09
0003d0 96 a0 01 00 b5 c2 eb b6 90 e4 47 95 6b 77 51 34
       1.49443e-40 -7.0262126e-06 -4.0368034e-26 1.9508086e-07
0003e0 60 9d c4 86 da bc 04 80 1c ff 03 00 84 dd 04 9d
       -7.395825e-35 -4.35089e-40 3.67022e-40 -1.7584575e-21
0003f0 62 59 04 00 a1 00 03 00 bc 04 43 1e 33 99 03 00
       3.99406e-40 2.75732e-40 1.0324193e-20 3.30464e-40

dnn.2.bias f4 [8]
000000 e4 c1 08 b4 ee e6 9f a1 a0 ba a0 bb d0 d1 1e b8
       -1.2736524e-07 -1.0835386e-18 -0.00490506 -3.786554e-05
000010 d9 da 9d af 64 e8 92 bc 8c 2c 27 b0 56 4b 5b b6
       -2.8713634e-10 -0.017933078 -6.081755e-10 -3.2677394e-06

exp_avg f4 [32, 100]
000000 92 89 e6 87 64 2d 6e 88 51 c5 0a 8c a5 51 ec 86
       -3.468741e-34 -7.1673876e-34 -1.0690511e-31 -8.88933e-35
000010 ab 0f 9b 86 d5 f9 95 07 dd ef 6d 08 e7 72 f7 08
       -5.832754e-35 2.2565866e-34 7.160155e-34 1.4892785e-33
000020 84 f2 2a 89 9a 50 7e 87 3a ef b5 06 d0 15 ae 07
       -2.0577036e-33 -1.9132523e-34 6.8436145e-35 2.619343e-34
000030 3d 41 36 07 df 47 00 08 a1 05 8d 87 45 22 1f 87
       1.371133e-34 3.8603083e-34 -2.121863e-34 -1.1971901e-34
000040 c2 e8 19 89 2c 02 1a 20 d0 7e 6a 1d ad b1 44 88
       -1.8526147e-33 1.3045026e-19 3.1035203e-21 -5.919046e-34
000050 70 b3 57 07 38 f4 ff 87 86 28 a9 87 04 fa 87 88
       1.6227534e-34 -3.8511674e-34 -2.5452111e-34 -8.183795e-34
000060 3b f6 3a 87 bb 21 c8 0d 61 97 24 08 cc 92 7e 08
       -1.4065445e-34 1.2334072e-30 4.95299e-34 7.6607904e-34
000070 51 00 c4 87 da 48 25 8a 80 55 7a 07 57 c4 f4 87
       -2.9490988e-34 -7.958163e-33 1.8833036e-34 -3.6828438e-34
000080 88 b1 06 88 5a 4b 08 86 db 4c 67 86 c7 ba 90 88
       -4.0532845e-34 -2.5634117e-35 -4.3502736e-35 -8.710596e-34
000090 86 35 e9 87 8a cc 77 07 4c 9d dd 87 5f bd 65 88
       -3.5089402e-34 1.8642323e-34 -3.3344835e-34 -6.9134785e-34
0000a0 31 39 30 05 e2 73 f9 87 16 6a d0 07 01 bd a0 8e
       8.2859846e-36 -3.7533466e-34 3.1358713e-34 -3.962505e-30
0000b0 ff 37 23 88 21 47 01 07 df 73 5d 07 c9 dd 14 8b
       -4.911685e-34 9.725784e-35 1.6660244e-34 -2.8670616e-32
0000c0 7d c4 0c 85 b1 78 b2 88 4e 5e ac 08 6e c8 07 87
       -6.6188576e-36 -1.074136e-33 1.0374044e-33 -1.0215172e-34
0000d0 25 f1 4a 90 22 1a 33 87 ff d6 b3 87 6e c8 83 86
       -4.0023247e-29 -1.3474143e-34 -2.705929e-34 -4.957123e-35
0000e0 b2 09 e4 0e 06 26 4a 89 5c 5e f1 87 68 f5 ba 88
       5.6215676e-30 -2.4332744e-33 -3.631711e-34 -1.12521625e-33
0000f0 36 62 67 86 7e e7 98 87 ec fb e9 86 41 e3 68 0b
       -4.3518425e-35 -2.3006477e-34 -8.8015025e-35 4.4852542e-32
000100 6d ed b3 84 c6 77 ec 07 2b cf 06 88 4d eb f8 87
       -4.230074e-36 3.557973e-34 -4.0567683e-34 -3.745319e-34
000110 c6 91 3c 88 cd ad 3c 88 54 9c dd 86 fd a3 26 89
       -5.674555e-34 -5.6778494e-34 -8.3360664e-35 -2.005863e-33
000120 f4 3a f2 0a 04 25 8e 88 7a d4 39 a0 8a cf f4 87
       2.3325928e-32 -8.5550165e-34 -1.5740412e-19 -3.683502e-34
000130 27 85 81 88 d5 cb 39 07 29 be b3 88 c8 4e 4a 88
       -7.795209e-34 1.3977754e-34 -1.0817877e-33 -6.087977e-34
000140 c6 65 90 19 7b c3 de 16 4e 92 8d 87 e5 73 43 87
       1.4930357e-23 3.59894e-25 -2.1301312e-34 -1.4704228e-34
000150 70 8e f5 06 4e 0d 01 08 37 f1 7d 07 38 08 fa 06
       9.236805e-35 3.8835165e-34 1.9104491e-34 9.4051624e-35
000160 d6 48 99 07 8b 58 fb 87 47 46 ae 87 25 19 92 87
       2.306369e-34 -3.7818323e-34 -2.6221915e-34 -2.1982417e-34
000170 6b 79 51 89 64 c6 95 06 e2 4c cc 88 f8 c2 ef 07
       -2.521455e-33 5.633908e-35 -1.2295878e-33 3.6075316e-34
000180 97 13 51 87 49 0b e1 87 0e ba c0 06 08 70 e8 20
       -1.5729169e-34 -3.386087e-34 7.2495756e-35 3.9376465e-19
000190 fb 7d 1b 97 83 28 a9 18 9e 67 8b 20 bf c7 c0 98
       -5.024221e-25 4.3726382e-24 2.3616084e-19 -4.983253e-24
0001a0 2e 70 1e 17 c9 95 99 17 2f bd ca 21 f2 91 b2 23
       5.1194144e-25 9.925204e-25 1.3738129e-18 1.9360609e-17
0001b0 9b 14 cd 1c 58 38 b0 96 c2 1c 2b 97 54 fd 0d 1a
       1.3571088e-21 -2.8469891e-25 -5.5289377e-25 2.9362753e-23
0001c0 be 58 ef 95 f8 9e 17 18 2b e0 6a 1d 26 52 29 95
       -9.667134e-26 1.9596551e-24 3.1085534e-21 -3.4194082e-26
0001d0 6f 99 3f 1d b9 d1 9d 2e 9c 23 d3 2e 86 b2 db 97
       2.5357963e-21 7.1767876e-11 9.6014946e-11 -1.4197609e-24
0001e0 99 49 c4 17 88 6e c0 99 ae a7 11 17 24 e6 32 1c
       1.2684782e-24 -1.9896978e-23 4.706367e-25 5.919271e-22
0001f0 1e 05 3e 17 dd 0c 4e 1a f6 08 62 98 6c ec 0e 17
       6.139877e-25 4.2610192e-23 -2.921434e-24 4.618108e-25
000200 69 8d 89 98 6b e7 cc a2 1e 6a 7a 17 34 00 d8 14
       -3.5556458e-24 -5.5539334e-18 8.0913295e-25 2.1810506e-26
000210 3d a7 c7 17 a8 85 ac 97 14 d4 ec 95 95 d5 c6 1c
       1.290229e-24 -1.1148979e-24 -9.565424e-26 1.3157751e-21
000220 d9 4d b2 16 d4 09 28 97 67 c3 4b 99 36 cd 87 97
       2.880658e-25 -5.4296133e-25 -1.0534315e-23 -8.775973e-25
000230 ca 46 9b 95 9d 90 30 1b 9e cb b1 98 eb 6f c0 a7
       -6.2715687e-26 1.4605106e-22 -4.595903e-24 -5.3412047e-15
000240 2b f7 92 99 ea 77 e1 16 3c 4f a7 96 d7 c9 1f a7
       -1.5195877e-23 3.6426387e-25 -2.703031e-25 -2.21751e-15
000250 6a e4 3b 97 c6 3a 1a 18 c9 7f 7d 98 ef ae 62 18
       -6.071126e-25 1.9933706e-24 -3.2763999e-24 2.9298134e-24
000260 17 38 05 29 d9 ba 03 98 61 44 19 17 ad 47 d0 96
       2.9580583e-14 -1.7025687e-24 4.9523273e-25 -3.3649446e-25
000270 25 71 e5 aa a1 07 3e 27 4d 0f 10 16 1e e4 d5 1a
       -4.0757081e-13 2.6371932e-15 1.1637055e-25 8.846328e-23
000280 5b 1d 33 97 08 f5 8f 98 39 3c 63 17 db 7a b6 a0
       -5.787507e-25 -3.721205e-24 7.342367e-25 -3.0913298e-19
000290 1c 9a 38 14 0c e5 3e 16 b9 4d 5b 18 d5 16 5c 98
       9.320019e-27 1.5420352e-25 2.8344326e-24 -2.844586e-24
0002a0 a0 f1 b8 18 08 2b f1 14 51 ec 31 16 19 d2 0b a0
       4.7806864e-24 2.4351754e-26 1.4372514e-25 -1.1843273e-19
0002b0 cd b7 2d 27 15 db fc 99 fc e4 90 af b6 28 69 17
       2.4108212e-15 -2.6144676e-23 -2.635615e-10 7.5337745e-25
0002c0 7b 7f ab 1c c6 a0 b1 17 f3 61 54 98 bf c5 ff 97
       1.1348784e-21 1.1478942e-24 -2.744981e-24 -1.6528907e-24
0002d0 d2 68 1a ae a5 8c fe 2d 01 2a 85 97 68 04 d8 97
       -3.5108645e-11 2.8938916e-11 -8.605527e-25 -1.3959785e-24
0002e0 4b 63 05 98 26 34 b1 97 b8 a9 38 15 ae 96 8f 17
       -1.7239977e-24 -1.1451521e-24 3.729239e-26 9.279195e-25
0002f0 92 05 4d 97 91 33 50 97 75 d9 27 17 2b e5 25 16
       -6.6246103e-25 -6.727351e-25 5.423508e-25 1.3400907e-25
000300 ba a0 bc 19 40 51 1d 17 60 29 96 9d 7b af 01 16
       1.9503661e-23 5.083199e-25 -3.974745e-21 1.0475909e-25
000310 cf d4 c1 16 e8 70 a4 97 cc 8b 8f 17 f9 6b 9f 2f
       3.1315133e-25 -1.0626753e-24 9.276448e-25 2.899865e-10
000320 36 e6 05 32 75 78 8b b4 97 63 09 b6 b2 f8 96 33
       7.793963e-09 -2.5978412e-07 -2.047256e-06 7.030157e-08
000330 75 7b be 33 f0 4a 6e b2 27 55 41 36 c6 c3 2f b6
       8.870021e-08 -1.3870462e-08 2.8808806e-06 -2.6190987e-06
000340 53 79 fe b3 32 cb b8 32 8a d2 82 b5 d7 be 22 34
       -1.18498654e-07 2.1512822e-08 -9.74703e-07 1.5156853e-07
000350 2e bd a6 ad 18 62 07 b5 8a f0 8b 33 b5 51 c9 33
       -1.8956028e-11 -5.0434164e-07 6.516446e-08 9.374654e-08
000360 1b 58 80 36 63 ea 64 36 5a 6b 9a 36 eb f0 27 b3
       3.824954e-06 3.4111079e-06 4.602055e-06 -3.910183e-08
000370 fc 1d f3 b4 b7 a3 1c 35 cc de 56 33 a8 6e b2 b4
       -4.5284094e-07 5.8352765e-07 5.002839e-08 -3.3235597e-07
000380 34 11 02 34 38 14 2d 35 59 f5 95 b3 dc da 8d b5
       1.2113452e-07 6.4476944e-07 -6.982982e-08 -1.0569015e-06
000390 df c4 88 32 b0 1d b8 b4 cc fb a0 b3 73 5c 80 b1
       1.592201e-08 -3.429427e-07 -7.496382e-08 -3.7358006e-09
0003a0 44 b6 98 b3 3c 12 6a 33 31 6a c5 32 83 aa 87 34
       -7.1112055e-08 5.4498955e-08 2.2982109e-08 2.5269773e-07
0003b0 36 09 3f b5 cd d5 05 af 06 a9 ad 35 88 9b 6d b4
       -7.116645e-07 -1.2172237e-10 1.2938697e-06 -2.2128927e-07
0003c0 77 d4 79 b4 8e 1d 11 b5 05 57 72 35 38 1a d4 b5
       -2.3267226e-07 -5.4059717e-07 9.0278655e-07 -1.5802862e-06
0003d0 22 c3 6f b5 ff 62 0e 35 b5 d2 98 b3 7e 79 f4 b4
       -8.9318394e-07 5.304318e-07 -7.116379e-08 -4.553694e-07
0003e0 57 5e 0c b3 c7 94 01 b4 8c ef 9d b3 8b 71 31 33
       -3.268209e-08 -1.2068186e-07 -7.3544555e-08 4.131429e-08
0003f0 62 43 cf 35 e8 9d 1a 35 52 5c 77 32 83 3a 2e ae
       1.5442313e-06 5.7599254e-07 1.43982835e-08 -3.961499e-11

exp_avg_sq f4 [32, 100]
000000 83 40 97 2e e4 b7 9b 2f 22 36 0a 30 95 5d e1 2e
       6.8781446e-11 2.8324998e-10 5.0281035e-10 1.0248439e-10
000010 b2 e6 d4 2e 80 62 f3 2e 13 b3 aa 2f 13 50 c9 2f
       9.6816236e-11 1.1067858e-10 3.105006e-10 3.6618583e-10
000020 54 9b d1 2f 30 c9 00 2f bb 8a 38 2f e4 0a 50 2f
       3.8127246e-10 1.1713008e-10 1.678399e-10 1.8921359e-10
000030 2b 22 a4 2d 85 c7 9d 2f 6f 5d 34 2f 1f ab 05 2f
       1.8659815e-11 2.86999e-10 1.6404099e-10 1.2157074e-10
000040 b1 dc ed 2f ef 68 ba 30 95 d0 a5 30 24 89 85 2f
       4.326686e-10 1.3563105e-09 1.2064613e-09 2.4290003e-10
000050 42 3b 27 2f e5 b4 a6 2f a9 6b 8c 2e 19 63 52 2f
       1.5209614e-10 3.0323757e-10 6.385587e-11 1.9134595e-10
000060 28 bb ce 2e af 89 20 30 b5 58 40 2f a2 fa 7a 2f
       9.401041e-11 5.840332e-10 1.7493813e-10 2.282641e-10
000070 85 af 05 2f dc c5 f2 2f 5e 89 de 2e 99 64 9a 2e
       1.2158637e-10 4.416013e-10 1.01197925e-10 7.020979e-11
000080 c9 61 00 2f ac f4 6c 2e 53 18 10 2f ad d6 a5 2f
       1.1676272e-10 5.38775e-11 1.3105365e-10 3.0165861e-10
000090 cb c7 28 2f d1 8d 40 2e a7 d8 61 2f 20 e0 5e 2f
       1.5350492e-10 4.3781704e-11 2.0540601e-10 2.0270408e-10
0000a0 b7 e9 74 2e e4 d4 2e 2f ac fb d3 2f 7e a2 23 30
       5.5686757e-11 1.5900842e-10 3.85595e-10 5.952997e-10
0000b0 18 8f 9f 2f 0c 37 84 2f 85 ed 00 2f 88 5b 1c 30
       2.9023606e-10 2.4049773e-10 1.1725916e-10 5.6882543e-10
0000c0 c2 56 f5 2e 5d f1 4d 2f bf 12 61 2f 99 59 14 2f
       1.11567214e-10 1.8730391e-10 2.0470291e-10 1.3492353e-10
0000d0 14 ba 34 30 73 e6 42 2f 51 a1 6b 2f c6 44 c0 2d
       6.574805e-10 1.7726069e-10 2.1430437e-10 2.1858414e-11
0000e0 43 42 2d 30 5b b3 df 2f a2 2e 0a 2f ea c7 e3 2f
       6.3031197e-10 4.0690903e-10 1.2567594e-10 4.1433107e-10
0000f0 b0 6b 3f 2e ea 44 dc 2e ea 50 47 2e 58 ab 07 30
       4.3524018e-11 1.0016683e-10 4.5319228e-11 4.935621e-10
000100 60 f8 b8 2d 53 43 2e 2f 53 04 05 2f f9 6b e9 2e
       2.1028679e-11 1.5849126e-10 1.2097816e-10 1.0614793e-10
000110 3a 7f 3b 2f 66 35 0a 2f 5a 95 dd 2e f5 82 ba 2f
       1.7052751e-10 1.2569998e-10 1.00764466e-10 3.3926253e-10
000120 39 71 0f 30 f1 c1 96 2f 5f 42 bc 30 47 3f fe 2e
       5.2183996e-10 2.7422645e-10 1.3697664e-09 1.1561823e-10
000130 de 35 68 2f 82 88 5f 2e 54 25 29 2f a5 49 0f 2f
       2.1119415e-10 5.0825573e-11 1.5383722e-10 1.3031938e-10
000140 07 f6 8c 30 57 65 80 30 12 7d 3c 2f 42 dc fa 2e
       1.0256266e-09 9.342028e-10 1.7142934e-10 1.14078094e-10
000150 fd 66 d2 2e d4 a8 80 2e 43 f3 f1 2e 6c 30 5f 2e
       9.567989e-11 5.850756e-11 1.1002623e-10 5.0747337e-11
000160 74 c7 d1 2e 77 12 12 2f 21 9e 0c 2f cd c7 a4 2f
       9.5396496e-11 1.3285183e-10 1.2789104e-10 2.9973393e-10
000170 29 19 cd 2f 69 82 41 2f f1 55 b2 2f 9a b2 0a 2f
       3.730716e-10 1.7599579e-10 3.2439076e-10 1.2614479e-10
000180 ec 46 b9 2e 7f 14 1a 2f df ea 03 2f 02 a2 c3 30
       8.425424e-11 1.40135e-10 1.1997824e-10 1.4234163e-09
000190 3d 9c 08 2f f7 31 c1 2f db c7 97 30 c9 91 10 30
       1.2424635e-10 3.5141998e-10 1.1043498e-09 5.259407e-10
0001a0 42 f9 1f 2f 33 f5 00 2f 30 64 a0 30 28 f4 a7 30
       1.454952e-10 1.1728644e-10 1.1670007e-09 1.2220243e-09
0001b0 5e 04 84 30 37 26 57 2f 54 20 19 30 11 cb 4c 30
       9.605505e-10 1.9567713e-10 5.5707017e-10 7.450334e-10
0001c0 4e 30 7e 2d 2f fb 0a 30 cd 18 73 30 0c 6c db 2e
       1.4448954e-11 5.056106e-10 8.843813e-10 9.97816e-11
0001d0 33 88 82 30 68 1a 7f 31 bb 08 82 31 11 a1 82 2f
       9.497455e-10 3.7122394e-09 3.7844905e-09 2.3761307e-10
0001e0 7f dc a7 2f 9d bd 2e 30 1e a7 1b 2f f2 32 61 30
       3.0533795e-10 6.357029e-10 1.415654e-10 8.192692e-10
0001f0 5f 2f f0 2f 80 4a 41 30 b5 08 63 2f aa d2 69 2f
       4.3689405e-10 7.031886e-10 2.0648623e-10 2.126607e-10
000200 03 38 7f 2f 07 0f a2 30 a9 e0 0d 2f 78 ae a6 2e
       2.3212014e-10 1.1791322e-09 1.290369e-10 7.579798e-11
000210 d5 1b 2f 2f 0b 8e 0d 2f fe 53 3a 2f da d3 6e 30
       1.5926045e-10 1.2874339e-10 1.6946441e-10 8.6884955e-10
000220 bb 7f ad 2f 89 85 03 2e 82 2d 2f 30 27 14 da 2f
       3.1559275e-10 2.9904555e-11 6.37293e-10 3.9668288e-10
000230 8b fd 29 2f 41 e8 53 30 e4 de 2e 30 be 50 d8 30
       1.5460537e-10 7.7091405e-10 6.361758e-10 1.5739017e-09
000240 43 bc 35 30 30 42 d9 2f 3a 8f a7 2f 8d c2 d0 30
       6.611495e-10 3.95191e-10 3.0478892e-10 1.5189286e-09
000250 f8 2e 06 2f 9c 3a b5 2f c6 44 c3 2f 35 39 c9 2f
       1.2203916e-10 3.2965353e-10 3.551916e-10 3.6602335e-10
000260 a4 0d eb 30 75 23 89 2f 42 48 f6 2f 91 16 32 2e
       1.7102377e-09 2.4945349e-10 4.4798482e-10 4.0492557e-11
000270 b5 92 1c 31 1d fd d0 30 65 0c a1 2f e0 db 4b 30
       2.278438e-09 1.5205931e-09 2.9294536e-10 7.416343e-10
000280 72 a1 1d 2f f9 ee e3 2f e3 c0 d7 2e 6b da 93 30
       1.4336424e-10 4.146086e-10 9.8113316e-11 1.0757736e-09
000290 61 50 bc 2e 8d e2 0d 2f 84 25 5e 2f 68 07 c7 2f
       8.5635284e-11 1.2904362e-10 2.020411e-10 3.6203152e-10
0002a0 6a 1a ff 2f 70 d8 57 2f c8 75 34 2f 3b 5b 8b 30
       4.6402998e-10 1.963103e-10 1.6412749e-10 1.013951e-09
0002b0 2c 7b cb 30 0a 52 3e 30 6c 54 9b 31 2a bb 8b 2f
       1.4805202e-09 6.923818e-10 4.5206914e-09 2.541694e-10
0002c0 d5 24 6c 30 54 71 87 2e 25 b5 9c 2f eb d3 2f 2f
       8.590864e-10 6.1592204e-11 2.8504946e-10 1.5991446e-10
0002d0 34 5b 64 31 b8 1b 6d 31 69 61 77 2f 3d 5c 87 2f
       3.323021e-09 3.4503795e-09 2.2499126e-10 2.4621896e-10
0002e0 5e 3c c5 2f 3b 8f 8d 2f 41 8c 5a 2f 31 8e e5 2e
       3.5876985e-10 2.5749522e-10 1.9876813e-10 1.04389726e-10
0002f0 b6 0f 6e 2f ef 19 ba 2f c6 77 29 2f d2 f6 d5 2f
       2.1651556e-10 3.385163e-10 1.5413013e-10 3.891985e-10
000300 02 cb 37 30 85 e6 6b 2f 35 e2 74 30 62 29 8a 2f
       6.6863504e-10 2.1455022e-10 8.908814e-10 2.5131458e-10
000310 7c cb f5 2e c7 f3 7f 2f 9b 62 45 2f f2 32 99 31
       1.1177456e-10 2.3278722e-10 1.7952077e-10 4.458678e-09
000320 5e 0a ab 32 f0 c6 43 33 14 71 1f 34 94 f3 cc 32
       1.9911734e-08 4.5582908e-08 1.4849167e-07 2.3859492e-08
000330 7c 21 d2 32 77 cf a5 32 e5 13 22 34 4c 26 6d 34
       2.4462445e-08 1.9302872e-08 1.5094663e-07 2.2086277e-07
000340 f4 2e 25 33 b1 80 94 32 6d 7f 84 33 0d da 04 33
       3.845976e-08 1.728799e-08 6.1699076e-08 3.093196e-08
000350 2c 85 9a 31 da 4f 5b 33 cd d1 39 33 a7 52 5c 33
       4.49713e-09 5.1062536e-08 4.326448e-08 5.1297913e-08
000360 30 7a 2e 34 af 91 26 34 52 63 9a 34 a2 16 62 33
       1.6249464e-07 1.5512954e-07 2.8757e-07 5.264031e-08
000370 ab 95 2d 33 c2 9a 94 33 90 96 d9 32 8b 66 97 33
       4.0415824e-08 6.919937e-08 2.5330593e-08 7.050138e-08
000380 07 ae 78 33 f8 eb ab 33 2f b7 ba 32 37 12 e7 33
       5.7900277e-08 8.0057305e-08 2.1736552e-08 1.0760089e-07
000390 0f 61 eb 32 44 5b 13 34 16 0a d7 32 b8 15 3b 32
       2.7401738e-08 1.3723644e-07 2.503388e-08 1.0889771e-08
0003a0 f7 a5 23 33 48 46 a1 32 88 86 47 33 7f 51 3a 33
       3.810234e-08 1.8774827e-08 4.6455654e-08 4.338062e-08
0003b0 90 ad e4 33 a8 45 f2 31 e1 a3 d5 33 11 ad 41 33
       1.0648648e-07 7.051046e-09 9.948395e-08 4.5093717e-08
0003c0 4b 05 18 33 dd fe 68 33 07 b1 02 34 20 92 03 34
       3.539507e-08 5.4248506e-08 1.2171596e-07 1.2253486e-07
0003d0 67 b6 cf 33 c1 10 88 33 38 4a ab 33 05 be cd 33
       9.6723674e-08 6.336041e-08 7.976308e-08 9.580621e-08
0003e0 1a 82 9b 32 2c 35 3d 33 43 44 0e 33 59 c2 a6 32
       1.8103538e-08 4.405335e-08 3.3124035e-08 1.9413323e-08
0003f0 f3 fe 6b 34 6b 89 3f 33 b1 8a 1b 33 d3 f4 a4 31
       2.197883e-07 4.4595634e-08 3.621489e-08 4.8008615e-09

exp_avg f4 [32]
000000 c6 8f 82 8a 5f 41 b6 a5 e0 48 df b4 d6 1e d1 aa
       -1.2572626e-32 -3.1616264e-16 -4.159001e-07 -3.7147255e-13
000010 42 07 ec a5 f9 ff 8e 22 e9 c6 8a 30 8e 9b 09 01
       -4.0944392e-16 3.87602e-18 1.0097355e-09 2.527453e-38
000020 ae a4 81 a5 18 e6 5c a8 05 94 0c 9b 14 00 00 80
       -2.2489524e-16 -1.2262347e-14 -1.1628356e-22 -2.8e-44
000030 19 47 bc 2d a8 a8 a8 06 40 42 ce af 3e ae e7 2a
       2.14047e-11 6.3442394e-35 -3.7518255e-10 4.1154748e-13
000040 e1 76 71 23 30 01 00 00 22 49 80 b9 59 9d fc 91
       1.308981e-17 4.26e-43 -0.0002446855 -3.9855563e-28
000050 ae c7 df 19 e3 c6 11 af 5e 04 f8 ae 72 3b 37 98
       2.313831e-23 -1.3258332e-10 -1.127851e-10 -2.3682208e-24
000060 0c b4 99 b0 ae 74 c3 ad 29 00 00 80 22 6e 15 9f
       -1.1183388e-09 -2.222075e-11 -5.7e-44 -3.1643077e-20
000070 72 41 b3 af a8 e0 05 8f fa 79 a7 9b ab 16 3f b3
       -3.2606412e-10 -6.6006735e-30 -2.7706658e-22 -4.449127e-08

exp_avg_sq f4 [32]
000000 95 12 f0 2f f3 78 b9 30 0d 3b b8 33 52 c9 88 2f
       4.366895e-10 1.3494897e-09 8.578909e-08 2.4881303e-10
000010 26 9f 9a 30 44 a6 1e 30 ca 27 43 30 6c fc f7 2f
       1.1250207e-09 5.7716343e-10 7.099713e-10 4.5108395e-10
000020 59 69 fc 2f 4c 1c a4 31 e4 f1 e3 2f 22 e2 06 30
       4.5913387e-10 4.776245e-09 4.1462933e-10 4.907027e-10
000030 3b 4e c5 2f 32 1e 7b 30 14 8e 30 30 71 35 1d 30
       3.5889677e-10 9.135618e-10 6.423033e-10 5.719221e-10
000040 0f 5e 47 30 40 6a 17 30 79 d5 cc 35 35 35 ac 30
       7.2529444e-10 5.508447e-10 1.5261313e-06 1.2529769e-09
000050 21 f4 ce 2e d3 c0 43 32 7d fd 57 32 18 ee be 30
       9.4111614e-11 1.1394337e-08 1.2572284e-08 1.389199e-09
000060 b0 41 0c 32 93 a3 48 30 7c 4a b7 2f 96 c1 b7 30
       8.164008e-09 7.299203e-10 3.334043e-10 1.3370023e-09
000070 40 62 1d 31 88 dc 5f 2f ce b8 21 30 ba a1 07 32
       2.2902356e-09 2.036008e-10 5.883408e-10 7.894807e-09

exp_avg f4 [8, 32]
000000 18 00 00 80 2d 00 00 80 05 f6 63 b2 0f 00 00 00
       -3.4e-44 -6.3e-44 -1.3269077e-08 2.1e-44
000010 04 00 00 80 05 00 00 00 18 00 00 80 19 00 00 80
       -6e-45 7e-45 -3.4e-44 -3.5e-44
000020 0e 00 00 80 8a 58 80 b3 05 00 00 80 19 00 00 00
       -2e-44 -5.9765696e-08 -7e-45 3.5e-44
000030 72 22 81 9e 05 00 00 00 05 00 00 80 19 00 00 80
       -1.3672653e-20 7e-45 -7e-45 -3.5e-44
000040 0f 00 00 00 18 00 00 00 48 ff 1e a7 0f 00 00 00
       2.1e-44 3.4e-44 -2.2065293e-15 2.1e-44
000050 0e 00 00 00 17 6a 59 af 0f 00 00 80 04 00 00 80
       2e-44 -1.9773726e-10 -2.1e-44 -6e-45
000060 04 00 00 00 18 00 00 00 0f 00 00 00 04 00 00 00
       6e-45 3.4e-44 2.1e-44 6e-45
000070 04 00 00 80 22 00 00 80 2d 00 00 00 0e 00 00 00
       -6e-45 -4.8e-44 6.3e-44 2e-44
000080 0f 00 00 00 19 00 00 80 4a 4b 79 87 a7 7f 0f 95
       2.1e-44 -3.5e-44 -1.8754803e-34 -2.897932e-26
000090 23 00 00 00 02 00 00 80 23 00 00 80 61 55 14 21
       4.9e-44 -3e-45 -4.9e-44 5.025735e-19
0000a0 0e 00 00 00 ff 0a 00 80 05 00 00 80 0f 00 00 80
       2e-44 -3.945e-42 -7e-45 -2.1e-44
0000b0 05 00 00 00 0f 00 00 00 ee 93 00 80 2c 00 00 80
       7e-45 2.1e-44 -5.3067e-41 -6.2e-44
0000c0 2d 00 00 00 19 00 00 80 35 a6 e5 a1 23 00 00 80
       6.3e-44 -3.5e-44 -1.5561638e-18 -4.9e-44
0000d0 23 00 00 80 8d ef 80 aa c0 29 d7 93 2d 00 00 80
       -4.9e-44 -2.290359e-13 -5.43148e-27 -6.3e-44
0000e0 a5 34 9b 00 0e 00 00 00 23 00 00 80 05 00 00 80
       1.4253387e-38 2e-44 -4.9e-44 -7e-45
0000f0 0e 00 00 80 e5 47 c6 95 0e 00 00 00 23 00 00 00
       -2e-44 -8.008499e-26 2e-44 4.9e-44
000100 b2 2f 00 00 69 62 0e 0a 6c ed c0 35 18 00 00 00
       1.711e-41 6.85556e-33 1.4374214e-06 3.4e-44
000110 05 00 00 00 df 46 0a ab 23 da d7 0e 2d 00 00 80
       7e-45 -4.91258e-13 5.321165e-30 -6.3e-44
000120 87 c3 06 00 22 00 00 00 2d 00 00 80 05 00 00 00
       6.21155e-40 4.8e-44 -6.3e-44 7e-45
000130 05 00 00 00 2d 00 00 80 0f 00 00 00 d6 0b 20 83
       7e-45 -6.3e-44 2.1e-44 -4.703336e-37
000140 04 00 00 80 8b 45 28 92 4c ad 01 b3 23 00 00 80
       -6e-45 -5.309717e-28 -3.0192766e-08 -4.9e-44
000150 22 00 00 80 0f 00 00 00 05 00 00 00 0f 00 00 80
       -4.8e-44 2.1e-44 7e-45 -2.1e-44
000160 8c ff 68 b1 2d 00 00 00 04 00 00 80 75 33 7d 85
       -3.3905705e-09 6.3e-44 -6e-45 -1.1905454e-35
000170 31 00 00 80 23 00 00 80 22 00 00 00 1d 00 00 80
       -6.9e-44 -4.9e-44 4.8e-44 -4e-44
000180 a6 f5 de 01 c7 12 f7 00 97 88 63 b1 0e 00 00 00
       8.190241e-38 2.2690104e-38 -3.311049e-09 2e-44
000190 1e 00 00 80 e7 00 00 00 3a 00 00 80 24 05 00 80
       -4.2e-44 3.24e-43 -8.1e-44 -1.844e-42
0001a0 4a ea 7b 88 23 00 00 80 2c 00 00 80 05 00 00 00
       -7.580797e-34 -4.9e-44 -6.2e-44 7e-45
0001b0 05 00 00 80 05 00 00 00 0e 00 00 00 4f 00 00 00
       -7e-45 7e-45 2e-44 1.11e-43
0001c0 19 00 00 80 0e 00 00 80 3d 13 02 b2 04 00 00 00
       -3.5e-44 -2e-44 -7.57137e-09 6e-45
0001d0 0a 00 00 00 22 1a 87 0b 22 00 00 00 2d 00 00 80
       1.4e-44 5.203943e-32 4.8e-44 -6.3e-44
0001e0 d1 ab 0a b4 0f 00 00 00 14 00 00 80 21 0c be 88
       -1.2914758e-07 2.1e-44 -2.8e-44 -1.14380605e-33
0001f0 2d 00 00 00 04 00 00 80 35 00 00 80 11 00 00 00
       6.3e-44 -6e-45 -7.4e-44 2.4e-44
000200 22 00 00 00 05 00 00 80 0f 00 00 00 18 00 00 80
       4.8e-44 -7e-45 2.1e-44 -3.4e-44
000210 fa 84 06 1b 04 00 00 00 05 00 00 00 54 c7 17 23
       1.1127187e-22 6e-45 7e-45 8.227936e-18
000220 56 00 00 80 88 db 13 81 2d 00 00 00 48 d3 ce 16
       -1.2e-43 -2.7157142e-38 6.3e-44 3.3414432e-25
000230 0e 00 00 80 67 90 bd 28 22 00 00 80 0c 79 35 00
       -2e-44 2.104584e-14 -4.8e-44 4.910705e-39
000240 19 00 00 00 38 27 69 95 2c 00 00 80 18 00 00 00
       3.5e-44 -4.7084913e-26 -6.2e-44 3.4e-44
000250 05 00 00 00 7a 29 d6 a9 22 00 00 00 21 28 91 a2
       7e-45 -9.510704e-14 4.8e-44 -3.9344817e-18
000260 0f 00 00 00 04 00 00 00 05 00 00 00 23 00 00 80
       2.1e-44 6e-45 7e-45 -4.9e-44
000270 19 00 00 80 dd 77 83 a0 0e 00 00 00 18 00 00 00
       -3.5e-44 -2.2271582e-19 2e-44 3.4e-44
000280 d3 38 74 b5 b4 6b 10 36 42 53 5f b7 a6 c0 99 2f
       -9.0979773e-07 2.1520364e-06 -1.3311221e-05 2.7967423e-10
000290 b1 92 f4 36 67 ee f0 b4 03 17 f2 34 d4 96 3c 80
       7.288844e-06 -4.4876944e-07 4.5092756e-07 -5.564237e-39
0002a0 87 2f 39 31 6a 02 9f b3 54 8f 7e b0 04 36 a4 ac
       2.694806e-09 -7.4044536e-08 -9.2608343e-10 -4.6671573e-12
0002b0 ac 92 62 b5 d1 20 ad a6 08 25 7b 37 5c 0a 45 b5
       -8.4404996e-07 -1.2013181e-15 1.4969388e-05 -7.3403294e-07
0002c0 e1 f4 97 b5 c3 06 56 af e2 77 77 3b 2d b7 f6 b2
       -1.1321646e-06 -1.9465589e-10 0.0037760665 -2.8721468e-08
0002d0 f6 c8 29 9a e8 48 be 36 e3 25 c6 35 31 b2 b3 b5
       -3.5110716e-23 5.6709287e-06 1.4763176e-06 -1.33884e-06
0002e0 86 f5 c7 b6 a0 20 84 b6 5d af 55 35 61 36 ab b5
       -5.959245e-06 -3.9377046e-06 7.960387e-07 -1.2756319e-06
0002f0 25 af 65 b6 c6 71 ce 90 92 bc 18 26 11 c6 77 b6
       -3.4225607e-06 -8.142797e-29 5.2991154e-16 -3.6921158e-06
000300 2d 00 00 00 4e 10 00 80 19 00 00 00 8e 97 a3 93
       6.3e-44 -5.849e-42 3.5e-44 -4.129643e-27
000310 03 82 2c 04 0e 00 00 80 23 00 00 00 05 00 00 80
       2.0278201e-36 -2e-44 4.9e-44 -7e-45
000320 23 00 00 80 34 83 eb 86 23 00 00 80 ce 9e b9 07
       -4.9e-44 -8.858996e-35 -4.9e-44 2.7929043e-34
000330 19 00 00 00 dd 0c a4 2b bd ab 0a 80 31 2a 01 00
       3.5e-44 1.1656471e-12 -9.79963e-40 1.06971e-40
000340 05 00 00 00 91 66 d5 9e a1 00 d6 0c ff 35 0a 00
       7e-45 -2.2594673e-20 3.29723e-31 9.37725e-40
000350 0e 00 00 80 4b b4 e3 a5 19 00 00 00 74 8a e3 9f
       -2e-44 -3.9500394e-16 3.5e-44 -9.636729e-20
000360 0e 00 00 80 22 00 00 80 18 00 00 80 22 00 00 00
       -2e-44 -4.8e-44 -3.4e-44 4.8e-44
000370 23 00 00 00 fd a1 16 96 0f 00 00 00 04 00 00 00
       4.9e-44 -1.2168018e-25 2.1e-44 6e-45
000380 cd c1 60 9b 08 d1 54 1a f1 e7 07 aa 5e 2c f6 2b
       -1.8591466e-22 4.4009427e-23 -1.207088e-13 1.7491666e-12
000390 0f 00 00 00 42 fa 56 ae 18 00 00 00 23 00 00 80
       2.1e-44 -4.888024e-11 3.4e-44 -4.9e-44
0003a0 19 00 00 80 19 00 00 80 c7 d1 de 24 0f 00 00 00
       -3.5e-44 -3.5e-44 9.663253e-17 2.1e-44
0003b0 2c 00 00 00 f0 38 a2 81 e5 64 4b 21 0e 00 00 00
       6.2e-44 -5.9591103e-38 6.891261e-19 2e-44
0003c0 0e 00 00 00 01 a5 8f 2c 1c 61 a6 b0 43 17 88 2a
       2e-44 4.0826236e-12 -1.210569e-09 2.4174594e-13
0003d0 0e 00 00 00 37 b8 4f b0 3d e7 33 8f 28 5d be 2d
       2e-44 -7.5567946e-10 -8.869916e-30 2.1641869e-11
0003e0 1d 37 9e 80 19 00 00 80 22 00 00 00 05 d1 b2 96
       -1.452978e-38 -3.5e-44 4.8e-44 -2.888936e-25
0003f0 22 00 00 00 0f 00 00 00 fe 89 fd 17 0f 00 00 00
       4.8e-44 2.1e-44 1.6384576e-24 2.1e-44

exp_avg_sq f4 [8, 32]
000000 07 9a d7 2c fe f5 02 2d 6f 96 4c 34 2a 04 64 2e
       6.127768e-12 7.444266e-12 1.9053708e-07 5.1844896e-11
000010 e7 fd f9 2c 70 a7 37 2e a7 6f b9 2c e1 fd 9a 2e
       7.1051945e-12 4.1758097e-11 5.270412e-12 7.048207e-11
000020 52 ca 34 2c 33 ba f7 33 5a 96 28 2b a5 45 b8 2d
       2.5691849e-12 1.1535703e-07 5.9894245e-13 2.0949307e-11
000030 bb c2 18 31 d2 1a c0 2f 67 2f 88 2c f7 4f 3a 2e
       2.2229603e-09 3.4943654e-10 3.870615e-12 4.2362527e-11
000040 86 49 89 2e 15 03 5c 2e e2 a1 98 31 2a 6d 6f 2e
       6.243099e-11 5.0024946e-11 4.442186e-09 5.4439266e-11
000050 4e 27 cf 2b a1 e2 85 32 9b b2 9b 2f 05 30 2e 2f
       1.4719144e-12 1.5586297e-08 2.8321243e-10 1.5842268e-10
000060 af 82 61 2b 23 77 07 2d 2b 31 aa 2b 53 b5 b1 2f
       8.011742e-13 7.700315e-12 1.2092873e-12 3.232495e-10
000070 9a 14 21 2c 1c 51 34 2f a9 13 91 2c cd 2c 73 2c
       2.2890912e-12 1.639972e-10 4.1233306e-12 3.4557246e-12
000080 ff 87 c2 2f 7d ed 39 2f 16 4a 77 30 be a9 c1 30
       3.5385025e-10 1.6910025e-10 8.996336e-10 1.4090842e-09
000090 0a e3 96 2e b5 fb cd 28 5e 31 8b 2f 01 76 5c 31
       6.8615405e-11 2.2868733e-14 2.531903e-10 3.208129e-09
0000a0 28 b5 5c 2b 9f 98 22 30 55 58 0f 2e 61 78 66 2f
       7.8411106e-13 5.9152144e-10 3.259289e-11 2.0961145e-10
0000b0 3d 55 0e 2d ec ab 01 2f 10 b2 2e 30 9f 5e b9 2c
       8.090692e-12 1.179356e-10 6.3553873e-10 5.2685213e-12
0000c0 ba fe b5 2b 33 8f 14 30 d2 6e 53 31 5f 96 06 30
       1.2931524e-12 5.4045585e-10 3.0767535e-09 4.8962606e-10
0000d0 cf ce 65 2f 79 05 0a 32 bf f6 be 30 bf 78 f3 2f
       2.0900902e-10 8.0339015e-09 1.3894449e-09 4.4287238e-10
0000e0 98 87 48 30 c1 2c 55 2f 95 07 c0 2d df 3c 4c 2f
       7.2952266e-10 1.9388137e-10 2.183124e-11 1.8575318e-10
0000f0 2e ab 5b 2f c4 24 d8 30 0c a1 a1 2d db 9c 98 2d
       1.9978749e-10 1.5726518e-09 1.83751e-11 1.7350057e-11
000100 dd 05 46 2e 5a 40 7a 2e c0 f5 6d 34 ed 5e 6b 2f
       4.5025195e-11 5.6900575e-11 2.2161748e-07 2.140685e-10
000110 18 94 47 2e ab c7 09 32 e6 d1 19 30 19 1e 55 2f
       4.5378895e-11 8.019849e-09 5.595936e-10 1.938293e-10
000120 2d de b8 2b 71 36 27 2e cc 6c c3 2c 6f 91 14 2e
       1.3135653e-12 3.8019757e-11 5.5543122e-12 3.3780475e-11
000130 97 d5 0b 2b 25 b6 bc 2d 28 9a 3d 2e 7a 58 d0 2e
       4.9679136e-13 2.1454014e-11 4.3110543e-11 9.4744615e-11
000140 5d 9f 34 2c 63 28 b3 30 cb d3 7d 32 cd 14 66 2f
       2.5668003e-12 1.3035443e-09 1.4774694e-08 2.0925768e-10
000150 1b f2 3d 2d 35 a6 d6 2f 9b b8 00 2e 37 52 04 2f
       1.0797164e-11 3.904447e-10 2.9267793e-11 1.2034539e-10
000160 87 bb 42 32 4f 80 f0 2c 30 5c 6b 2a e3 f5 1c 2d
       1.1334925e-08 6.8354554e-12 2.0904177e-13 8.922171e-12
000170 91 70 8c 2d 01 b0 66 2e 13 22 f7 2e 21 b0 e4 29
       1.5966147e-11 5.2452268e-11 1.12383124e-10 1.01557875e-13
000180 5e 06 f6 2b 7e 1e ba 29 4e 33 70 32 52 af 89 2f
       1.7481119e-12 8.265349e-14 1.3981504e-08 2.5044727e-10
000190 0b 70 be 29 bb 68 19 30 f5 55 67 26 f2 e2 8a 29
       8.4571313e-14 5.5809907e-10 8.026072e-16 6.1678e-14
0001a0 62 15 98 2d 3b 48 35 2c ff 41 d2 2d 2c da 10 2a
       1.7289895e-11 2.5761743e-12 2.3903544e-11 1.2865463e-13
0001b0 97 0c ed 29 a6 69 09 2c 2c 8e ef 2c a1 7a 94 2a
       1.0527098e-13 1.9527518e-12 6.808573e-12 2.6375172e-13
0001c0 55 c4 fa 29 ac 68 7b 2f 45 9b 65 32 8d e5 66 2e
       1.11362884e-13 2.2865504e-10 1.33648586e-08 5.2499827e-11
0001d0 d9 f7 22 29 d3 20 8f 30 e4 ae f7 2d 40 19 39 2f
       3.61862e-14 1.0413949e-09 2.8158316e-11 1.6834623e-10
0001e0 52 b6 d7 32 92 e7 11 29 52 ba 92 28 22 00 1e 2f
       2.5112204e-08 3.2397323e-14 1.629006e-14 1.4370063e-10
0001f0 9f 29 42 2b db b8 05 2b 19 ea ae 29 b6 cd 94 25
       6.8980406e-13 4.750763e-13 7.767762e-14 2.5813303e-16
000200 4c a0 9e 2e 77 6d cc 2f 47 37 90 2d 85 72 83 2f
       7.2134826e-11 3.7185163e-10 1.6395453e-11 2.3910132e-10
000210 03 3d 02 31 fa 8c dd 2a a7 1b 34 2e 4f 2a 6b 31
       1.895217e-09 3.9355308e-13 4.0951822e-11 3.422105e-09
000220 43 5b df 27 bf 4a 48 30 5b 8c f5 2d c1 8d e0 30
       6.199388e-15 7.2865797e-10 2.7915606e-11 1.6338434e-09
000230 2f a2 dc 2c e6 ba ec 31 07 9e 02 30 c9 ea 55 30
       6.270782e-12 6.889752e-09 4.7518295e-10 7.78226e-10
000240 eb 34 bb 29 b2 bf c1 30 11 ca 05 30 0b ae 05 30
       8.313648e-14 1.4097081e-09 4.867227e-10 4.863245e-10
000250 bc 43 a5 2e 05 3a e6 31 3d 08 e2 2f eb bd 5b 31
       7.515363e-11 6.700477e-09 4.1115014e-10 3.197665e-09
000260 69 77 25 2c e6 10 af 2d 61 3b 3f 2e 4d 05 94 2d
       2.3514196e-12 1.9902701e-11 4.348111e-11 1.6828006e-11
000270 cb 40 59 2e b5 a3 42 31 fc 29 f8 2d 17 e4 96 2f
       4.9397635e-11 2.8323772e-09 2.821298e-11 2.744691e-10
000280 f4 f5 0d 35 1f 72 b2 35 a9 86 33 36 f1 44 fa 32
       5.28845e-07 1.3295247e-06 2.675146e-06 2.9135181e-08
000290 26 00 30 35 76 e7 21 35 69 d9 4b 35 0c f5 85 2f
       6.5565325e-07 6.0313994e-07 7.5939766e-07 2.4366675e-10
0002a0 93 ab 2a 32 30 3b 6a 33 9c 7b 87 32 74 90 45 32
       9.934314e-09 5.45362e-08 1.577228e-08 1.1499754e-08
0002b0 11 3d 99 34 66 df b5 31 0e d1 83 35 9c 83 07 34
       2.8542902e-07 5.2931908e-09 9.821104e-07 1.2620734e-07
0002c0 d1 28 b2 35 f1 ab a4 32 08 23 cf 38 0f c8 c9 33
       1.3273913e-06 1.9170303e-08 9.877054e-05 9.396182e-08
0002d0 80 41 9d 2d dd da 9f 36 b9 d4 39 35 df fd 97 34
       1.7877921e-11 4.7640483e-06 6.922742e-07 2.8310657e-07
0002e0 1b 1b b6 34 73 95 3c 34 d1 23 32 34 4a d5 b7 34
       3.3919864e-07 1.7563234e-07 1.6590572e-07 3.4241594e-07
0002f0 5e 83 ed 33 91 3b fc 2f 1f e0 04 32 07 c0 3a 35
       1.1060068e-07 4.5880857e-10 7.7343705e-09 6.9569836e-07
000300 36 6e 14 2f e4 38 20 30 28 4b 68 2d 05 2e c4 30
       1.3499676e-10 5.828851e-10 1.3204361e-11 1.4273956e-09
000310 21 1c 5d 30 e0 ba 2a 2f c1 2b 8e 2d 1f 5e cd 2f
       8.0439305e-10 1.5527801e-10 1.6162962e-11 3.735616e-10
000320 a0 98 98 2b 68 2b 85 30 2d aa bb 2f f9 09 7c 30
       1.0842612e-12 9.68936e-10 3.413602e-10 9.169124e-10
000330 cf 03 7e 2d b7 81 1c 32 a3 55 3f 30 7f 23 38 30
       1.4439074e-11 9.109889e-09 6.960709e-10 6.6989253e-10
000340 84 1b 75 2b 40 a3 31 31 ce 73 94 30 95 8e 36 30
       8.707967e-13 2.5849687e-09 1.0801331e-09 6.6413836e-10
000350 c6 3e 1b 2d 4a e3 90 31 d9 e9 6b 2f db f7 44 31
       8.824668e-12 4.2167914e-09 2.1456205e-10 2.8662643e-09
000360 06 e1 2e 2d e2 5d e6 2c 94 62 8a 2e e1 dd bf 2d
       9.94072e-12 6.5474163e-12 6.2930244e-11 2.181272e-11
000370 6d bd 43 2e 5a a6 da 30 c1 aa f9 2d 6d 90 94 2f
       4.450611e-11 1.5908868e-09 2.8383853e-11 2.7023664e-10
000380 24 4e 0a 31 ef e4 ff 30 57 4d c0 31 f5 e3 1f 32
       2.012606e-09 1.8618759e-09 5.596728e-09 9.3068495e-09
000390 a3 ec 0a 30 21 ed 6e 32 2b 6d 57 2c f8 11 98 2f
       5.054039e-10 1.390734e-08 3.0613938e-12 2.7661406e-10
0003a0 a6 b6 18 2c 33 08 44 2f 66 67 89 31 93 1e 09 2f
       2.170189e-12 1.7829009e-10 3.99898e-09 1.247094e-10
0003b0 45 c1 d0 2c 74 09 64 30 9c 7a 44 31 ef 4e 77 2d
       5.933173e-12 8.295935e-10 2.859145e-09 1.4057851e-11
0003c0 d1 27 6c 2e 8a 87 2c 32 3d 26 93 32 7d fc 0f 32
       5.369555e-11 1.0042536e-08 1.7130441e-08 8.381105e-09
0003d0 87 03 34 2d fc 2d bd 32 af e0 8c 30 08 d3 4a 32
       1.0232599e-11 2.2023407e-08 1.02502e-09 1.18059305e-08
0003e0 9e 75 45 30 81 00 16 2c cb 03 d9 2d 9d 93 cf 30
       7.1835327e-10 2.1316562e-12 2.4671728e-11 1.5103186e-09
0003f0 9d 0a 99 2e 5f 2e b8 2f 2d b5 da 30 a7 92 e9 2d
       6.95952e-11 3.3502354e-10 1.5913081e-09 2.655416e-11

exp_avg f4 [8]
000000 5a d2 78 ad 32 3d 40 9b 18 19 0a b5 63 61 91 b1
       -1.4143875e-11 -1.5901641e-22 -5.144552e-07 -4.231127e-09
000010 94 6c 17 a9 7a d2 87 ba 83 56 9f a9 bb f7 c1 af
       -3.3622912e-14 -0.001036241 -7.076026e-14 -3.5282519e-10

exp_avg_sq f4 [8]
000000 4b 80 47 32 88 55 00 31 40 b9 4d 33 71 e9 34 32
       1.1612495e-08 1.867507e-09 4.7898766e-08 1.0530457e-08
000010 77 c9 cb 31 92 23 fa 37 64 86 d9 31 29 44 ac 32
       5.9309815e-09 2.9818886e-05 6.3308097e-09 2.0054431e-08

exp_avg f4 [2, 8]
000000 32 b6 67 2d 04 00 00 80 bf 85 81 30 8f ee 11 32
       1.3171285e-11 -6e-45 9.423998e-10 8.494353e-09
000010 04 00 00 00 6f c0 77 ba 23 00 00 80 fa ab 45 25
       6e-45 -0.0009450977 -4.9e-44 1.7145294e-16
000020 b3 2a 03 ad 19 00 00 80 d0 74 81 b0 8b eb 11 b2
       -7.455969e-12 -3.5e-44 -9.419185e-10 -8.493667e-09
000030 0f 00 00 80 06 0a 78 3a 0e 00 00 00 d6 20 49 a5
       -2.1e-44 0.0009461943 2e-44 -1.7445096e-16

exp_avg_sq f4 [2, 8]
000000 f0 aa 91 32 6a ed 37 2e fb fb 0d 32 7d 0f 8d 32
       1.6957955e-08 4.182025e-11 8.264574e-09 1.6421604e-08
000010 de 85 24 2c e2 ca b9 36 ae eb 13 2f d1 f9 59 31
       2.3380113e-12 5.5370483e-06 1.3453302e-10 3.171966e-09
000020 e5 a7 91 32 31 63 33 2e dc fa 0d 32 b2 0f 8d 32
       1.6956571e-08 4.0787988e-11 8.264319e-09 1.6421698e-08
000030 57 5a 17 2c d8 ca b9 36 ab 35 16 2f f1 6d 5a 31
       2.150854e-12 5.5370438e-06 1.3661487e-10 3.178567e-09

exp_avg f4 [2]
000000 f2 ea 2b bb e0 b8 2c 3b
       -0.0026232568 0.0026355311

exp_avg_sq f4 [2]
000000 a2 e7 bc 38 22 e8 bc 38
       9.0076835e-05 9.007777e-05

exp_avg f4 [2, 8]
000000 73 1f 66 af 40 93 08 80 ed d4 6f 32 99 a8 19 91
       -2.0929551e-10 -7.87507e-40 1.3960045e-08 -1.2121525e-28
000010 22 00 00 00 cc af a4 3b 2f bb 91 00 97 cb a5 26
       4.8e-44 0.0050258394 1.3383296e-38 1.1504358e-15
000020 8a 92 5e 2e e8 4a 07 00 f6 29 70 b2 44 af 0d 11
       5.060711e-11 6.6972e-40 -1.3979379e-08 1.1176947e-28
000030 19 00 00 00 53 0d a5 bb 7b 10 00 00 84 ac 8c a6
       3.5e-44 -0.0050369888 5.912e-42 -9.761212e-16

exp_avg_sq f4 [2, 8]
000000 5c dd c1 32 7b cb 36 30 74 60 4b 32 0e e7 4f 30
       2.256882e-08 6.650038e-10 1.1838086e-08 7.563451e-10
000010 c6 20 8d 2e c7 e5 a0 37 d4 a0 41 30 e2 3f 8e 31
       6.4177594e-11 1.9180485e-05 7.044154e-10 4.1400066e-09
000020 fe e9 c1 32 cb 5c 36 30 4a 50 4b 32 1a db 4f 30
       2.2574564e-08 6.634308e-10 1.1834411e-08 7.5617523e-10
000030 ae ae 81 2e 08 e9 a0 37 21 54 3b 30 d6 9e 8d 31
       5.89727e-11 1.9182e-05 6.814976e-10 4.1216976e-09

exp_avg f4 [2]
000000 24 88 04 3c 72 e2 04 bc
       0.008089099 -0.008110629

exp_avg_sq f4 [2]
000000 72 d6 53 39 63 d7 53 39
       0.00020202415 0.00020202766
