FinalModels/BR/Data2Models/br-0-7000-100-128-0.01-0.5794.pt (torch, 1895 bytes, 1 tensors)

dnn.0.weight f4 [1, 200]
0.16453716 -0.105299465 -0.11252929 0.029398773 0.04720503 -0.14597812 -0.1766469 0.55379844
-0.06520182 -0.08549345 -0.03855706 0.22731976 -0.012491242 -0.05744748 -0.028320078 -0.13248597
-0.08352341 0.027378358 -0.01511374 -0.2068655 -0.08062797 0.11856796 -0.26947734 0.09128029
0.14160292 0.2369246 0.062947676 0.09572725 0.20941581 0.10741967 -0.0800464 -0.0708739
0.0070540723 0.2741589 -0.016412685 -0.017421653 0.1333403 0.23125537 -0.33694616 0.057965685
0.047621384 -0.63902783 -0.011737149 -0.20847641 0.29075035 0.1129811 -0.1504517 -0.053252276
0.30612925 -0.2122533 0.018285414 -0.13130866 -0.00850356 0.046811283 -0.47493646 0.04787079
-0.036150202 -0.16916099 -0.08138052 -0.0591257 -0.17397195 0.055928156 -0.32434553 -0.1009577
0.032690655 -0.07292121 -0.05935807 -0.14344712 0.021754242 -0.5468694 -0.018078532 0.1059386
-0.09288777 -0.051511716 -0.029968102 -0.019385973 0.28076157 0.10905892 0.07038513 -0.14753869
-0.31280386 -0.23572212 -0.16499284 -0.04501436 0.040629797 -0.11750877 -0.06197899 -0.0547464
-0.025704121 0.30963242 -0.005194359 0.4890886 0.13884333 0.20606078 -0.0742738 0.06633621
-0.21860151 -0.026475422 0.23177603 0.1260457 0.099571936 -0.06671521 -0.09925366 0.02204024
0.08111593 0.08638339 0.02119371 0.1210534 0.5673828 0.042562593 0.25271872 -0.16505632
0.27765766 -0.09848037 -0.054044057 0.08225942 0.37346542 0.19704537 0.21749137 0.2977204
0.18537867 -0.30532196 -0.24936059 -0.066882 0.10600211 0.0070870826 0.024106212 -0.045553796
-0.023159083 -0.06712756 0.05420141 0.023701537 -0.43839383 0.03529324 0.15928392 0.17180887
-0.029957209 0.020057062 -0.19555683 0.042294584 0.014416314 0.10143093 0.10085624 0.041434772
0.1272601 0.0703375 -0.0630724 -0.111202106 -0.0638303 0.027198883 -0.21600623 -0.044912297
0.11467529 0.001532888 0.10743511 -0.021493403 0.13354719 -0.35662022 -0.07939837 -0.22431184
0.22061516 -0.1766839 -0.1230278 -0.14248063 0.11015791 0.08649212 0.105447285 0.029766912
0.030412177 -0.10076063 0.094529666 0.041565344 0.2607001 0.006228074 0.13237825 0.18028349
-0.09121756 0.09851857 -0.15505481 -0.15543613 0.40218353 0.01046 -0.24474505 -0.11936266
0.5147996 -0.041259613 0.1717059 -0.040920947 0.10026071 0.03439684 0.041480538 0.20344457
0.35625592 -0.092192836 -0.015000008 -0.08923842 0.18668102 0.009620312 0.44311374 0.07409694
00000000: 6e7c 283e 3fa7 d7bd c275 e6bd b2d5 f03c
00000010: 105a 413d 4a7b 15be ede2 34be bcc5 0d3f
00000020: 8888 85bd 3117 afbd 02ee 1dbd 83c6 683e
00000030: 11a8 4cbc 0c4e 6bbd 82ff e7bc 67aa 07be
00000040: 520e abbd 9448 e03c 9f9f 77bc 8dd4 53be
00000050: 4720 a5bd c2d3 f23d eff8 89be 29f1 ba3d
00000060: 5b00 113e 5d9c 723e b6ea 803d a60c c43d
00000070: 1971 563e d8fe db3d 5eef a3bd 5626 91bd
00000080: d925 e73b 8e5e 8c3e e573 86bc dbb7 8ebc
00000090: 5c8a 083e 35ce 6c3e 3584 acbe 6d6d 6d3d
000000a0: a40e 433d 5497 23bf 2c4d 40bc d77a 55be
000000b0: 3bdd 943e a362 e73d 0310 1abe 0f1f 5abd
000000c0: f9bc 9c3e ee58 59be 4bcb 953c c775 06be
000000d0: 8452 0bbc 30bd 3f3d df2a f3be 2914 443d
000000e0: 3c12 14bd 8a38 2dbe d4aa a6bd ca2d 72bd
000000f0: b425 32be ec14 653d 9e10 a6be e9c2 cebd
00000100: a3e6 053d b757 95bd 7321 73bd cde3 12be
00000110: f435 b23c a2ff 0bbf 6e19 94bc 56f6 d83d
00000120: f13b bebd f3fd 52bd aa7f f5bc 55cf 9ebc
00000130: fbbf 8f3e 485a df3d 1426 903d 6214 17be
00000140: d427 a0be 2461 71be e2f3 28be fa60 38bd
00000150: 6e6b 263d 70a8 f0bd aedd 7dbd c33d 60bd
00000160: 7391 d2bc 2488 9e3e 7135 aabb d269 fa3e
00000170: f22c 0e3e 9901 533e dd1c 98bd 47db 873d
00000180: 13d9 5fbe fce2 d8bc b256 6d3e 2012 013e
00000190: 5fec cb3d fca1 88bd 8145 cbbd bc8d b43c
000001a0: 1c20 a63d c6e9 b03d 6e9e ad3c d8ea f73d
000001b0: 0040 113f 1d56 2e3d 5964 813e 8604 29be
000001c0: 2529 8e3e 14b0 c9bd 4d5d 5dbd a077 a83d
000001d0: dc36 bf3e 43c6 493e 0fb6 5e3e cf6e 983e
000001e0: e8d3 3d3e 2953 9cbe 6258 7fbe 6ef9 88bd
000001f0: a217 d93d c23a e83b 647a c53c 9e96 3abd
00000200: 1eb8 bdbc 2d7a 89bd 4c02 5e3d ba29 c23c
00000210: 2875 e0be a58f 103d 531b 233e aaee 2f3e
00000220: d268 f5bc b54e a43c 0d40 48be 163d 2d3d
00000230: 6732 6c3c 05bb cf3d b78d ce3d 82b7 293d
00000240: 7950 023e 1b0d 903d 1a2c 81bd eebd e3bd
00000250: 76b9 82bd 31d0 de3c bd30 5dbe f5f5 37bd
00000260: e1da ea3d 30eb c83a f006 dc3d ef12 b0bc
00000270: 98c0 083e ed96 b6be 9d9b a2bd 01b2 65be
00000280: f1e8 613e a0ec 34be 00f6 fbbd 71e6 11be
00000290: 789a e13d c822 b13d bff4 d73d bdd9 f33c
000002a0: f522 f93c 975b cebd c598 c13d 6c40 2a3d
000002b0: 7c7a 853e df14 cc3b 2a8e 073e 3c9c 383e
000002c0: 46d0 babd 1bc4 c93d b0c6 1ebe a62a 1fbe
000002d0: 00eb cd3e 6b60 2b3c 729e 7abe 6974 f4bd
000002e0: e8c9 033f d7ff 28bd acd3 2f3e b99c 27bd
000002f0: 7d55 cd3d b3e3 0c3d 7fe7 293d c653 503e
00000300: 2d67 b63e 99cf bcbd 98c2 75bc a2c2 b6bd
00000310: 4f29 3f3e 839e 1d3c cedf e23e 23c0 973d
