FinalModels/BR/Data2Models/br-1-7000-82-128-0.01-0.5504.pt (torch, 1895 bytes, 1 tensors)

dnn.0.weight f4 [1, 200]
000000 af 1f 82 bd 3c c6 8c bd a7 16 3b bc 04 c7 50 3d
       -0.063536994 -0.06873748 -0.011418975 0.050971046
000010 f6 3c 46 bd bb 3e c1 3a 43 58 a4 bd d3 aa 2b 3f
       -0.04839798 0.0014743427 -0.08024647 0.6705753
000020 71 10 92 3d dc ae 84 be 94 1a f4 3b 4c 8f 2c ba
       0.07132042 -0.25914657 0.0074494574 -0.0006582632
000030 89 26 8f 3d b0 9b 6f 3d a1 bd ff 3d c3 90 11 bd
       0.06989772 0.058498085 0.12487341 -0.035538446
000040 0a 6a 83 3d 8e e5 84 be 60 99 e0 3c c1 6e 06 3e
       0.0641671 -0.25956386 0.027416885 0.13128187
000050 74 10 7a 3d 62 c4 ed 3c d2 b3 4c 3e a8 ae 12 be
       0.061050847 0.029024307 0.19990471 -0.14324439
000060 92 a6 c8 bd 7d 10 79 bd fe 80 9e bd 98 4c 6f bd
       -0.09797396 -0.06080674 -0.07739447 -0.058422655
000070 a4 10 1b 3e f1 bc 3a 3e cd c9 e4 3b 31 98 7f bc
       0.15143067 0.18236138 0.0069820643 -0.01560025
000080 96 83 9f bd bf ee 08 3e 73 6c e2 bc a6 7b eb 3d
       -0.0778877 0.13372324 -0.027639603 0.114981934
000090 8e 1a 41 3e d3 30 8c 3e f3 77 e4 3d 47 d6 b0 bc
       0.18857786 0.27381 0.11155691 -0.02158655
0000a0 fc d1 94 bb 31 73 4e be 89 f3 1b bd 2a 5c 9b 3d
       -0.0045416337 -0.2016113 -0.03807405 0.07585938
0000b0 b3 48 b2 3d db d5 89 3e 93 75 76 bd 13 5c ee 3d
       0.087052725 0.2692097 -0.06017072 0.116386555
0000c0 72 a0 5d 3d d7 43 63 3d 36 4a 86 be 15 0d 82 3c
       0.05410809 0.05548462 -0.26228493 0.015875379
0000d0 8c 9d fe 3c 53 12 5a bd 73 67 c3 3d d6 77 b1 bc
       0.031080984 -0.05324013 0.09541216 -0.021663588
0000e0 6b 00 ab 3d 5b dd d1 3d 99 b9 dc bc 2b bb 58 3e
       0.08349689 0.10247298 -0.026943969 0.21165149
0000f0 6b 66 2a bc 61 ad 55 3b c7 26 68 be 01 38 f5 bd
       -0.010400395 0.0032604563 -0.22671042 -0.119735725
000100 76 17 78 3d 6b 68 87 be 44 3f 0e 3d 6a b5 d6 bd
       0.06056925 -0.26446852 0.034728304 -0.10483821
000110 c5 2a e2 3e 43 9a dc bd f7 05 78 3d 62 e2 fb bd
       0.44173256 -0.107716106 0.060552564 -0.122990385
000120 1f 67 0f 3d 51 5f 67 be 0f 5f 44 bc 5e 2d 02 3e
       0.035010453 -0.22594954 -0.011985554 0.12712619
000130 a7 0d b7 3d 99 89 8f bd 10 95 dd 3c 29 f4 b4 bc
       0.08938151 -0.070086665 0.027048618 -0.02208908
000140 5c fd 60 bd a5 b4 9c 3d 42 44 b2 3d bf 53 17 3e
       -0.054929122 0.07651643 0.087044254 0.1477804
000150 d3 ca 12 3b 65 f9 96 3d a7 2c 84 3d 5d e3 c4 bd
       0.0022398725 0.07371787 0.06453829 -0.096136786
000160 01 17 ba bd 4f 6e 88 3d 1a 4e 72 3e 80 ed d6 bd
       -0.09086419 0.06661665 0.23662606 -0.10494518
000170 76 f9 4b 3c b6 da b7 3e a8 3e df bd 92 5d a9 bd
       0.012449613 0.3590905 -0.109006226 -0.082698
000180 72 38 06 3e 63 9a 9f be 67 d3 57 3e b7 94 c0 bd
       0.1310747 -0.31172475 0.21076737 -0.09403365
000190 42 05 a6 3d dc de 10 bd 2c 1c e6 ba 9b c1 9a bc
       0.081064716 -0.035368785 -0.0017556003 -0.018891146
0001a0 a6 40 56 3e 02 6d 59 be 26 e1 f7 3c c5 3b 08 be
       0.20923099 -0.2123299 0.030258726 -0.1330405
0001b0 31 5d d7 bd cd 12 a2 3d b2 09 d7 3d 90 0b d9 3e
       -0.10515822 0.07913742 0.10499896 0.42391634
0001c0 ea 37 52 3d 4f ce 5b 3d 56 d4 2c 3e 08 a5 19 bc
       0.051322855 0.053663548 0.16877875 -0.009377725
0001d0 43 ee 23 3e fb 61 94 be 03 87 1e be 5e b6 f6 3d
       0.16008858 -0.28981003 -0.1548119 0.120465025
0001e0 1f f4 d5 bd b7 1e 0c be 32 a1 7d 3d e3 7b 50 3e
       -0.10446953 -0.13683592 0.061921306 0.20359759
0001f0 cb 4a 35 3e 6f 10 dd 3d 2f 8b ba bc a2 fb 05 3d
       0.17704313 0.1079415 -0.022771446 0.03271068
000200 22 26 6e 3d a5 40 f5 bd cb 2e be 3d 94 ed d5 bc
       0.058141835 -0.119752206 0.09286269 -0.026114263
000210 13 3b db bd e5 29 fb 3d e0 20 97 bd fe c2 df 3d
       -0.10704627 0.1226385 -0.07379317 0.10925864
000220 3c da 9a bd 84 5f 81 3d d6 2c 0a 3d a5 7a 88 be
       -0.07561156 0.06317046 0.033734165 -0.2665607
000230 69 b1 ca bc 51 5d 8e 3c d3 ea da 3d 58 9c 62 3e
       -0.024742799 0.017378481 0.106893204 0.22129953
000240 c7 e5 12 be da ba 61 3b 7e 05 92 bd 8a 7a 56 bd
       -0.14345466 0.0034443648 -0.07129954 -0.052362956
000250 32 a7 c1 3d ef 8a 8f bd 1a e9 46 be 54 b8 82 3e
       0.09455718 -0.07008921 -0.19424859 0.25531256
000260 f5 5d 42 3d 8b 7d a3 3d 94 bc df 3d b3 ba c6 3d
       0.047452886 0.0798293 0.1092464 0.09703579
000270 e7 bd df 3e c4 87 5b 3e f0 74 e2 3d 71 1e d2 be
       0.43699571 0.21438509 0.1105746 -0.4103885
000280 77 1b 17 3e cc 1d c8 bd eb 1d 95 3d 10 fe 90 3b
       0.14756571 -0.09771308 0.07281097 0.004424818
000290 a1 8b 3c bd 4b ff 85 bc b6 a8 3a 3d e5 9a 5d be
       -0.046031598 -0.016357085 0.04557105 -0.21641119
0002a0 b6 eb 4b be 3d 25 e2 bc 8c a7 6c bc eb df 5e be
       -0.19914135 -0.027605647 -0.014444243 -0.21765105
0002b0 e8 eb 37 bd ae 9b 4a bd 07 39 72 be dd 24 2d bd
       -0.044902712 -0.049464874 -0.23654567 -0.042271484
0002c0 01 5a 95 bd 83 54 93 bc 49 5a 29 3e cc e5 08 3d
       -0.072925575 -0.017984634 0.16538347 0.033422276
0002d0 38 0f cc be f1 6b 16 bd af ae 0e 3d c2 58 6a bc
       -0.3985536 -0.036724035 0.03483456 -0.014303388
0002e0 fb 78 9c bd db 8c 92 3d 24 e2 21 3d 35 d8 7a 3e
       -0.07640263 0.07155772 0.039522305 0.24496539
0002f0 ad 7d 5f be 9f 1c b7 bd 92 49 a5 bd 42 6c 47 3e
       -0.21825285 -0.08941006 -0.08070673 0.19474891
000300 e4 21 8b 3d 6a ab f9 bd 07 70 9e bd d7 5e 68 bd
       0.067935735 -0.12190898 -0.07736211 -0.05673107
000310 89 a8 1c be a2 33 6f be 93 99 12 3e 05 32 c4 bd
       -0.15298666 -0.2335954 0.14316396 -0.09579853
