FinalModels/BR/Data2Models/br-2-7000-91-128-0.01-0.6572.pt (torch, 1895 bytes, 1 tensors)

dnn.0.weight f4 [1, 200]
00000000: 2df0 76be 9f01 e03d 5552 9cba aa69 5cbb
00000010: 60c8 0237 e95e c03d 75fc 483e 76d4 a1be
00000020: b7df 413c 38e0 a33d 686a 9dbe 4e56 38be
00000030: a6a6 1e3c d2fe 54bd fd62 30bd 5b6a 02bd
00000040: b5e8 1b3c 78fd 88be ac57 edbd 1b7e 6cbe
00000050: 6955 833d 4c1c ccbd 8f31 a83c 1943 66be
00000060: 69cb 2ebe 1388 43be 8942 9cbd 9d6f 993b
00000070: cb4e 03be 2cd2 a23c 0873 213d b674 d63b
00000080: e74a 5cbc d09b 45be eaa0 8abb 78f0 f2bd
00000090: 9b12 92bd 64dc e13e 2fae e63d 3d12 a0be
000000a0: 9c25 50bd 77e8 bebe 2f9b a6bd 5e6a 93be
000000b0: 7a24 6bbe fb01 30be 2aae 383e 2eca 8abd
000000c0: 6a63 1b3d e411 7ebe e6fe fabd a095 43bb
000000d0: 42f1 19bd e734 e5bd bd6d f7bd b2bf 3b3e
000000e0: ed7a 603b e0cc a83c 42b7 7dbe 8323 fc3c
000000f0: 7527 823e 4cd8 62be 435d 4b3e f94d 30be
00000100: a9ae 2bbe 9e39 ae3e f46c 073e 3f28 a13c
00000110: dd78 c2bd 3052 5e3e d16b ed3d adf7 ef3d
00000120: 95fd 143e 7822 6e3e 9a3f 9ebd b605 20be
00000130: 1032 2abb 8c2d 4dbd 2858 37bb 740e 31be
00000140: 8f0c 22bc 199b c43d 8d8f 953d d06b d8bd
00000150: 8151 2f3d f727 29bd b64a 82bd ac56 d23c
00000160: 70a2 fd3d f2d4 88ba 0a6a 123d 3e7c 0bbe
00000170: e30f 50be c182 9cbd 28af e2b9 1372 483e
00000180: 00be 3c3e 3a40 9abd 97ff 0d3d 31d3 f9bd
00000190: 3c40 12be f9d9 70be 49b2 c9bd 50eb 323e
000001a0: 4ab0 20bd 06f4 54be 0533 95bd 6867 b73d
000001b0: c5cb 093e 6ab0 053d cde0 f2bd 3cc7 d93a
000001c0: c21e 983a 489e 803e 8693 783e 3e5c 9cbd
000001d0: 127a a6bd e47a 913e aeba a53d bc92 a03e
000001e0: 8a2c 173d fe57 a7bd 4bfb 2ebe e6b6 1b3e
000001f0: 1fc5 cbbc b1c6 0cbd a37e 483e 62a9 223d
00000200: 71fb ebbd afa8 ee3c 1e96 a33c e684 83bd
00000210: b10f c63c de99 cebc ecfe 3abd dd55 2ebd
00000220: b052 9bbe ad38 1abd f2d6 8abc eadc e33d
00000230: 37e4 1b3e e197 4bbc 6749 983c 6a5f 04be
00000240: 47ba 153e 0e98 80bc 235a 233e be3b 523e
00000250: 89c6 36bd e798 193d c57d 7bbe bfef c43e
00000260: 91c6 06be ce15 14be 85e9 e8bd a3ba 953c
00000270: d9b4 2d3e 69d9 ccbe 1d45 bb3d a393 7e3e
00000280: 1dc6 833e b131 1f3e 9597 c5bd 8f30 8dbe
00000290: 57d1 44be 9b52 d9bc 1c2c 11bd 6935 fbbc
000002a0: 8876 fabc 5f60 173c ea68 953d cffd 43bd
000002b0: ad5e d03e 95f4 e23d 2b9f 853e 256f b9bd
000002c0: e9d8 c2be 06a1 e73d 915e 1c3e fea0 013e
000002d0: 3e88 f1be 15e8 943d 1104 0cbe 74c5 013e
000002e0: ee12 c1be 2fe1 ecbd 1fa3 893d 9812 38be
000002f0: 8f2f 38be e1b0 78bd 18e0 1b3d a425 a73d
00000300: 4997 9f3d e42d 733e 7f89 8a3d cdcb b83e
00000310: c667 1d3c b68f f13d 1c63 b93d ac96 de3b
-0.24115057 0.10937809 -0.0011926392 -0.0033632317 7.795257e-06 0.09393103 0.19627555 -0.31607407
0.011833123 0.08001751 -0.30745244 -0.18001673 0.009683287 -0.052000828 -0.043063153 -0.03183971
0.009515931 -0.2675588 -0.11588988 -0.2309498 0.06412775 -0.09966335 0.020531444 -0.22486533
-0.17069782 -0.19094877 -0.07629878 0.004682495 -0.12823026 0.019875608 0.039416343 0.0065446747
-0.0134455925 -0.19297719 -0.004230608 -0.11862272 -0.07132455 0.44113457 0.11263692 -0.31263915
-0.050817117 -0.37286732 -0.08135068 -0.2879209 -0.22963133 -0.17188255 0.18035188 -0.06776844
0.037936606 -0.24811512 -0.12255649 -0.0029843822 -0.037583597 -0.11191731 -0.12081478 0.18334845
0.0034252957 0.020605505 -0.24776939 0.030778652 0.25420728 -0.22152823 0.19859795 -0.17217244
-0.16765846 0.34028333 0.13225156 0.019672511 -0.09495709 0.2171104 0.1159283 0.11717162
0.14549859 0.23255336 -0.07726975 -0.15627179 -0.002596978 -0.050092265 -0.002797613 -0.1729067
-0.0098906895 0.09599895 0.07302771 -0.105674386 0.042802338 -0.04129788 -0.06361906 0.025676094
0.12384498 -0.0010439439 0.035745658 -0.13621613 -0.2031856 -0.07642127 -0.0004323658 0.19574766
0.18431854 -0.075317815 0.034667578 -0.12198485 -0.14282316 -0.2352065 -0.09848458 0.17472577
-0.039230622 -0.20796213 -0.07285122 0.0895527 0.13456638 0.032638945 -0.118592836 0.0016615163
0.0011605846 0.2512076 0.24275026 -0.07634781 -0.08128752 0.2841407 0.08092247 0.3136195
0.03690771 -0.0817108 -0.17088048 0.15206489 -0.024874268 -0.034369174 0.19579558 0.039712317
-0.11522568 0.029133169 0.019969042 -0.06421833 0.024177404 -0.025219854 -0.04565327 -0.042562354
-0.30336523 -0.037651706 -0.016948197 0.111261204 0.15223776 -0.0124263475 0.018589688 -0.12927023
0.1462184 -0.015697505 0.15952353 0.20530602 -0.04462293 0.037499335 -0.24559696 0.38464162
-0.13161685 -0.14461443 -0.11372665 0.018277472 0.16963519 -0.4000962 0.09144042 0.24861006
0.25737086 0.155463 -0.096480526 -0.2757611 -0.19220482 -0.026528647 -0.035442457 -0.030665116
-0.030574098 0.009239285 0.072954014 -0.047849473 0.40697232 0.110818066 0.26097998 -0.09054402
-0.38056114 0.1131001 0.15270449 0.1265907 -0.47174257 0.07270829 -0.13673426 0.12672979
-0.37709755 -0.11566388 0.06720566 -0.17975843 -0.17986892 -0.06071556 0.03805551 0.08161476
0.07792527 0.23747975 0.067645065 0.36092988 0.009607261 0.11794989 0.09052107 0.006792864
