FinalModels/BR/Data2Models/br-5-7000-82-128-0.01-0.6341.pt (torch, 1895 bytes, 1 tensors)

dnn.0.weight f4 [1, 200]
0	0xbbcea0d6	-0.006305794
1	0xbd8936de	-0.06699918
2	0xbd0bf6ad	-0.034170795
3	0x3d769d53	0.06020863
4	0x3d88b05c	0.06674263
5	0x3ccc5c3a	0.02494632
6	0x3de15d72	0.110041514
7	0x3e873998	0.26411128
8	0x3e2d3c2f	0.1691749
9	0xbe2c480e	-0.16824362
10	0xbdd3a646	-0.103344485
11	0x3e0b3e10	0.13597894
12	0xbd1c3d78	-0.03814456
13	0x3d7540c7	0.05987623
14	0x3db16201	0.08661271
15	0xbe929823	-0.28631696
16	0x3bd8f7be	0.00662133
17	0xbee79c42	-0.45236403
18	0xbdfdc7f1	-0.123916514
19	0xbc78289d	-0.015146402
20	0x3d9a01af	0.07519852
21	0xbcb24cf2	-0.021765206
22	0xbe5ee296	-0.21766123
23	0xbe32d501	-0.17464067
24	0xbe5319bf	-0.2061529
25	0xbc57eff3	-0.013179767
26	0xbda59191	-0.08084405
27	0xbdb7a5ae	-0.08967148
28	0xbe1c7175	-0.15277655
29	0xbc8c9faf	-0.017165987
30	0xbeb96c73	-0.36215553
31	0xbd121e6a	-0.035673536
32	0x3e0eb5a5	0.1393648
33	0x3e7dce9d	0.24785848
34	0xbd6e2ebf	-0.05815005
35	0x3e174a71	0.14774491
36	0x3d40e87a	0.047096707
37	0xbe681c8e	-0.22667143
38	0x3e047e01	0.12938692
39	0x3d5f2321	0.05447686
40	0xbc201cae	-0.009772463
41	0xbb197606	-0.0023416295
42	0x3cd866c7	0.026416196
43	0xbe72bb0d	-0.23704167
44	0xbde676ca	-0.11253126
45	0x3dfb338c	0.12265691
46	0x3e4f275c	0.20229858
47	0xbe0699b2	-0.13144568
48	0xbdc44d7e	-0.09585093
49	0x3db69396	0.089148685
50	0x3dea98c8	0.11454922
51	0x3ce5cd7f	0.02805209
52	0xbcfa8f05	-0.030585775
53	0xbe6b44c7	-0.22975455
54	0x3e2a265d	0.16616197
55	0x3d67f8bf	0.056633707
56	0x3dc02c26	0.09383421
57	0x3c9dc414	0.019258536
58	0x3d5a43a2	0.053287156
59	0x3db1bb37	0.086782865
60	0x3e116aa4	0.14200836
61	0xbcc80d4b	-0.024420401
62	0x3e8a2c9c	0.2698716
63	0x3d9375b6	0.07200186
64	0x3ca60736	0.02026711
65	0x3cd91db5	0.026503423
66	0xbda0cd31	-0.07851637
67	0x3da8212b	0.08209451
68	0x3e9014a6	0.28140754
69	0x3d8eed26	0.06978826
70	0x3d954c17	0.072899036
71	0x3da122cb	0.07867964
72	0x3e838a78	0.2569158
73	0xbe7a721b	-0.2445759
74	0x3dbaf770	0.09129226
75	0x3e85abb9	0.26107576
76	0x3c2a32ad	0.010388059
77	0xbd25bf74	-0.040465787
78	0x3e757de1	0.239738
79	0xbd0cd48c	-0.034382388
80	0x3e1cfa8a	0.15329948
81	0x3e16d884	0.14731032
82	0x3df9bea1	0.12194563
83	0xbcdb46c0	-0.026767135
84	0x3da203f2	0.07910909
85	0xbec7c858	-0.39020038
86	0xbe820f3e	-0.25402254
87	0x3ac8cfd1	0.0015320723
88	0x3e1e5987	0.1546384
89	0x3e3ce3da	0.18446293
90	0x3e3811db	0.17975561
91	0x3b2dc4da	0.0026515038
92	0xbc1cef53	-0.009578544
93	0x3e858b69	0.26082924
94	0xbb952c48	-0.004552398
95	0x3d735430	0.05940646
96	0x3d9c9cae	0.07647072
97	0xbc5cfb16	-0.013487598
98	0xbb2dfc08	-0.0026547927
99	0x3e5825d1	0.21108176
100	0xbd32fcaf	-0.04369801
101	0x3d42d428	0.04756561
102	0xbe8fa64a	-0.28056556
103	0x3de46d2b	0.11153635
104	0xbd0d0385	-0.034427185
105	0xbe293cca	-0.16527095
106	0xbe19465d	-0.14968248
107	0xbe405029	-0.18780579
108	0x3dead82e	0.11467014
109	0x3e22e8ea	0.15909162
110	0x3db59634	0.088665396
111	0x3e8e4e87	0.27794287
112	0x3efae2fd	0.49001303
113	0x3c952fc0	0.018211246
114	0x3e3ef665	0.1864868
115	0xbdad7dff	-0.084712975
116	0xbe8a4e70	-0.27012968
117	0xbe84e2a7	-0.25954172
118	0xbe1962a4	-0.14979035
119	0xbe68d8c6	-0.22738943
120	0xbe4e274d	-0.2013218
121	0xbdf1968b	-0.11796292
122	0x3d31b5b6	0.043386184
123	0x3da7d3ff	0.08194732
124	0x3eadd9a6	0.33955115
125	0xbd688068	-0.056763083
126	0x3e08b267	0.13349305
127	0xbdbfe647	-0.09370094
128	0x3e3da484	0.18519789
129	0x3d245705	0.04012205
130	0xbd863feb	-0.0655516
131	0xbd046bf1	-0.032329503
132	0x3d26aac2	0.04069019
133	0xbe151517	-0.14558826
134	0x3d42dfda	0.047576763
135	0x3ebf807e	0.3740272
136	0xbeb704ed	-0.35745946
137	0xbc80450a	-0.01565792
138	0x3e39c29f	0.18140648
139	0xbd6f3bcb	-0.058406632
140	0x3df00b88	0.117209494
141	0xbc083c1e	-0.008315114
142	0x3da51de6	0.08062343
143	0x3e35cb39	0.17753305
144	0xbeae120c	-0.33998144
145	0xbdd32530	-0.10309827
146	0x3df841cb	0.12121924
147	0x3d28324a	0.041063584
148	0x3e11738e	0.14204237
149	0xbd896e5e	-0.06710504
150	0xbdb4c84e	-0.088272676
151	0xbc0103dd	-0.007874456
152	0xbdaec38f	-0.085333936
153	0xbd4cbca6	-0.049984597
154	0xbdbdcd20	-0.0926764
155	0x3d818fdb	0.063262664
156	0x3e151ec9	0.14562525
157	0x3eaa2a56	0.33235425
158	0x3c3472ba	0.011013681
159	0xbc07e55e	-0.0082944315
160	0x3e207af9	0.1567191
161	0xbc37646d	-0.011193377
162	0x3d199e64	0.03750457
163	0xbda02884	-0.07820228
164	0xbeb64f30	-0.3560729
165	0xbd39c3cb	-0.04535274
166	0xbdf29de5	-0.11846522
167	0xbd6dcc4c	-0.05805616
168	0x3e707825	0.23483332
169	0x3daf1bb9	0.085502096
170	0x3db816c3	0.089887165
171	0xbc1b88a3	-0.009493026
172	0xbd1b8826	-0.03797164
173	0xbdf68eda	-0.120389655
174	0xbeadfdf1	-0.33982804
175	0x3de9468e	0.1139041
176	0xbe345149	-0.17609133
177	0xbd32b728	-0.043631703
178	0xbe645521	-0.22298099
179	0x3dfd8283	0.12378409
180	0x3dbccf5c	0.09219238
181	0x3bc6e392	0.006069609
182	0x3da34714	0.079725415
183	0xbe05f28e	-0.13080809
184	0xbee0514d	-0.43812028
185	0xbe21c8c3	-0.15799241
186	0x3b42699d	0.0029665001
187	0x3d1f81ec	0.038942263
188	0xbeccbd42	-0.39988142
189	0xbde906bb	-0.11378237
190	0x3e37727f	0.1791477
191	0x3e3cefe0	0.1845088
192	0xbe9de032	-0.3083511
193	0x3e5096ac	0.20369977
194	0x3e04ea60	0.12980032
195	0x3d9f94b9	0.077920385
196	0xbb877c2a	-0.0041346746
197	0xbe41e04b	-0.18933217
198	0x3f57e6b4	0.843364
199	0x3cbefa82	0.02331281
