FinalModels/BR/Data2Models/br-6-7000-100-128-0.01-0.5569.pt (torch, 1895 bytes, 1 tensors)

dnn.0.weight f4 [1, 200]
00000000: 192a 6d3e cc74 98bd 14fe c9ba f3d9 32bd
00000010: 55fe bfbd b72a 053e e437 253e 6c0a 0e3f
00000020: 260f 61bd 7a2a acbe 2fe4 4b3d 6f7a 803e
00000030: d822 b93c fe25 ffbd cc59 b03d 92a2 b33c
00000040: 38c4 12bd 4279 c33d f141 4cbe 3909 683e
00000050: 653e 4e3e 431e efbd 257e 183e 4a86 89be
00000060: 8029 72be 267d 593d 7f12 393e 6683 5ebd
00000070: 050e 503e 0077 0d3e cdb6 26bd 4ede acbd
00000080: 1789 f53d 07d4 4c3e e693 423d 807b 1d3e
00000090: 622f 17bd 26c8 3dbd 32c1 bdbc e270 273f
000000a0: 0714 2abd 0cee fd3d 0e38 c13c 7766 babe
000000b0: 9609 a23d de6a d0be 02cf 33bc f4ae 9abd
000000c0: 75c9 bc3d b93c 523e 3833 73be 0c30 63bc
000000d0: 6fbe 053d 717a 51be 0e0d 61be 76cc d6be
000000e0: 4bf6 56bd 9d8d 14bd c637 4a3e a920 ae3d
000000f0: 1e4d a93d 7e3c 883d d914 2abe 518e 89be
00000100: ba93 803c 8d3d 343d 92a2 2b3d 1ded b7bd
00000110: 3261 b13c 813f a7bc 3e40 c13c 8a0e 8c3d
00000120: 4b11 d6be be74 eebd 01de 9ebd a62d 813e
00000130: e463 463e 5c82 883a 9ce6 193e 63b8 a4bc
00000140: 2008 e7bd fe9c 26be 083a 873d 9f51 55bd
00000150: 06e9 433d 1875 a73d e4bd 8d3e 68e2 44ba
00000160: 1ae7 0c3f b52f 98be f4ae 123e d476 e23d
00000170: d5f8 bdbd 4480 25be b054 a6be 1a3c 413d
00000180: 51c5 053e 1cd9 eebd 12fd 3cbe f14e cbbd
00000190: 3069 5d3a 7ec6 973d b4d0 a13d 38a3 5bbe
000001a0: 7199 53be 8b40 b03d 9694 673d 0570 5c3e
000001b0: c584 b6bb b115 96bc 0d57 053e 3fad b13e
000001c0: e99c 333e fbf8 f13d 23b3 f63c ca1f cdbb
000001d0: 2571 333e 88d2 12be 3511 bfbd f21c b9bc
000001e0: 7531 2cbd bb96 873e e482 fa3d b374 68be
000001f0: 169c 063d 7275 b13e c442 193e fa8d eebb
00000200: c593 043e c2f9 3e3e cbd2 adbd 746d 743d
00000210: bea4 853c c492 943c 4d81 67bd f03e bdbe
00000220: 26fa 973e 5f62 86bc 401b 21be 3713 0dbe
00000230: 3853 95be ce43 6d3d c693 193e 4e09 813e
00000240: 18ff 093e e536 e6bb a9c6 6cbd 2784 afbd
00000250: 7429 d2bd 3f14 8cbd 19e6 783e 5c47 71be
00000260: 914b d13d 82c7 91bd 066d 97be 3979 e03d
00000270: 56e7 9cbe 1130 fc3e cad6 7f3e b24e 4c3d
00000280: c3e3 dcbd 1977 85bd 1854 1dbc 451a 1f3e
00000290: 9ebb ca3e b24b a2be c82a 853e 1d20 bb3b
000002a0: e01f a4be 4518 023e 12e4 8ebc 1dfb 34be
000002b0: 134c 88bd 7255 3bbd c3f9 eb3e b8c3 df3d
000002c0: e332 d93c fe04 613d 0089 43be 2b10 283e
000002d0: 7590 da3e ff77 57bd a70e 443e 7319 e53b
000002e0: 432f 14be 4a52 9b3e 7678 72bd 8f9f f63d
000002f0: dca1 753e f8af 883c 0230 89be 5bd6 fc3b
00000300: cf1f 4fbd 8784 07bf 2979 313e d006 84be
00000310: 8976 0fbe 00db 36be 9364 88bc 96a6 c7bd
0.2316059 -0.07444152 -0.0015410804 -0.043664884 -0.09374682 0.13004576 0.16134602 0.5548465
-0.054946087 -0.33626157 0.04977816 0.2509341 0.022599623 -0.12458418 0.086108774 0.021928106
-0.03583166 0.095446125 -0.1994703 0.22659768 0.20140989 -0.11675694 0.1489187 -0.26860267
-0.23648643 0.053097866 0.18073462 -0.05432453 0.20317848 0.13814926 -0.040701676 -0.08440839
0.119890384 0.20002757 0.04750433 0.15379143 -0.036910422 -0.046333455 -0.023163412 0.6540662
-0.041523006 0.123989195 0.0235863 -0.364063 0.079119846 -0.40706533 -0.0109746475 -0.07552901
0.092181124 0.20530976 -0.23750007 -0.013866436 0.032652315 -0.20456864 -0.21977636 -0.41952866
-0.052480977 -0.036267865 0.19747838 0.08502323 0.08266662 0.06652163 -0.16609515 -0.2686639
0.015695442 0.044004012 0.041903086 -0.08980773 0.021652792 -0.020416023 0.023590203 0.068387106
-0.41810068 -0.116433606 -0.07757188 0.2523014 0.19374043 0.0010414827 0.15029377 -0.020107454
-0.112808466 -0.16270825 0.066028655 -0.052079793 0.04782965 0.08176631 0.27683938 -0.0007510544
0.55040133 -0.29723898 0.14324552 0.11057821 -0.092759766 -0.1616221 -0.32486486 0.047176458
0.13063551 -0.11662504 -0.18455914 -0.09927166 0.0008446155 0.07410906 0.07901135 -0.21448982
-0.20664002 0.086060606 0.056538187 0.21527107 -0.0055700266 -0.01832089 0.13021488 0.3470249
0.17540325 0.118150674 0.030114716 -0.006259893 0.1752363 -0.14338124 -0.09329454 -0.02259681
-0.042039353 0.26482186 0.12231997 -0.22700767 0.0328637 0.34659916 0.14966875 -0.0072801085
0.12946995 0.18649963 -0.08487471 0.059674695 0.016313907 0.01813639 -0.056519795 -0.3696208
0.29683036 -0.016404329 -0.15733051 -0.13776861 -0.29165053 0.05792599 0.14997777 0.2520241
0.13476217 -0.007025587 -0.057806645 -0.08570128 -0.10261813 -0.06839799 0.24306525 -0.23562378
0.10219491 -0.07118131 -0.29575366 0.109606214 -0.30645245 0.49255422 0.2498428 0.049879737
-0.107856296 -0.06516857 -0.009602569 0.15537365 0.39596266 -0.31698376 0.26009202 0.0057106153
-0.3205557 0.1270457 -0.017442737 -0.17673917 -0.06655135 -0.045735784 0.4608899 0.10926002
0.026513522 0.0549364 -0.1909523 0.16412418 0.42688337 -0.05260467 0.19146214 0.006991559
-0.14471154 0.3033622 -0.05919691 0.12042152 0.23987526 0.016685471 -0.2679444 0.007715983
-0.050567444 -0.52936596 0.17331375 -0.25786448 -0.14010061 -0.1785698 -0.01664952 -0.097485706
