FinalModels/BR/Data2Models/br-7-7000-82-128-0.01-0.6635.pt (torch, 1895 bytes, 1 tensors)

dnn.0.weight f4 [1, 200]
000000 3e da 84 3d d8 8c 55 bd d1 d0 d2 3a 2d f0 58 bd
       0.06486939 -0.052136272 0.0016083961 -0.052963424
000010 01 25 70 ba f8 a3 5d be c7 06 bf 3d 50 9e 78 3e
       -0.00091607874 -0.2164458 0.093274646 0.24279141
000020 93 30 8e bd 7e cf 30 3e 5f 03 17 be e7 80 2b 3e
       -0.069428585 0.17266652 -0.1474738 0.16748391
000030 be b8 22 bc 99 68 b4 3d fa a4 5d bd f5 2c 44 bc
       -0.009931741 0.08809013 -0.054112412 -0.011973609
000040 9a 94 27 3d b0 9b 1e 3e ea 08 7a be 60 98 1b be
       0.040913202 0.15489078 -0.24417463 -0.15194845
000050 2d 2a 16 be d3 fd 10 bd d7 09 92 be 50 5c d5 3d
       -0.14664526 -0.035398316 -0.28523132 0.10417998
000060 79 c9 e4 3d be 20 c7 3c 41 81 31 be af a1 d9 bc
       0.1117124 0.024307605 -0.17334463 -0.026566355
000070 00 db c9 bd 86 39 ab 3a 2a 0f cd bd ed 2b 0a 3d
       -0.09856224 0.0013063408 -0.10012658 0.033733297
000080 f7 88 a2 3d 05 0e d3 3c 08 2f c8 bd ee 26 4a be
       0.0793628 0.025763521 -0.097745955 -0.19741413
000090 9d 79 89 3c bb 3d ec be 1f dc a1 3e 98 1d 0d 3e
       0.016781623 -0.46140847 0.31613252 0.1378082
0000a0 bc 96 08 3d 87 66 23 be 16 15 8e 3e 7c b7 06 3c
       0.033346877 -0.1595708 0.27750462 0.008222457
0000b0 cd 30 5d be 76 c4 a7 3d dc cc db bd b1 a2 13 3c
       -0.21600647 0.08191769 -0.10732433 0.009010957
0000c0 56 1c d7 bd d3 83 01 3e 15 f6 95 bd fc e3 55 bb
       -0.105034515 0.12647943 -0.07322327 -0.003263711
0000d0 c2 01 87 bc 0c e8 ba bd bb a1 8d 3e 78 bd 49 3e
       -0.01648033 -0.09126291 0.27662453 0.19701183
0000e0 a7 20 1b 3e f3 b5 af 3d 0e c7 33 bd 36 a2 4c bd
       0.15149175 0.08579626 -0.043891005 -0.049959384
0000f0 a8 57 1e 3d 94 81 1c be af c1 74 3b fb 33 2a be
       0.038657814 -0.15283805 0.003734689 -0.16621391
000100 42 d1 84 3c 9e 87 5b 3e e6 c7 af bd 3c 6c 03 3e
       0.016213063 0.21438453 -0.085830495 0.12834257
000110 39 91 09 3e c6 b7 11 be 0e 0a 15 3c b2 3c 29 3e
       0.13434304 -0.1423026 0.0090966355 0.1652706
000120 c4 f2 06 3f 5e 0e 85 3e 7a 43 5a bd 5f 3a 73 3e
       0.5271418 0.25987524 -0.053287007 0.23752736
000130 8b 9b 81 3c 6f 27 bc 3d bb 50 a4 3d 49 4b 38 3d
       0.015821239 0.09187209 0.080232106 0.044993673
000140 be 39 cb bd 04 97 9a 3d 06 2f 93 bd 3a ab 83 bb
       -0.09923123 0.07548335 -0.071867034 -0.0040182145
000150 69 5d 13 bd 70 ff ec 3c fa 99 49 3b ed 6d bf 3d
       -0.035977755 0.028930396 0.0030761943 0.093471386
000160 e4 05 04 bf 6d 24 f9 bc a5 70 35 3d bc 27 a8 be
       -0.5157149 -0.030412877 0.04429688 -0.32842815
000170 cd 1b ae bd 61 53 99 3c e7 b8 d4 3d 3a 4c 89 bc
       -0.08501396 0.018716516 0.1038683 -0.01675998
000180 c7 59 39 be 7f 9a 01 3e e5 2b c3 be f3 96 47 be
       -0.18100654 0.12656592 -0.38119426 -0.19491176
000190 62 18 00 be 1e 6d 0f bd 76 da a4 bd dc 4f b1 bd
       -0.12509301 -0.03501617 -0.080494806 -0.0865781
0001a0 e0 ef 8a 3e a3 f7 2f be c2 74 31 be 04 f8 b1 bc
       0.27136135 -0.1718431 -0.17329696 -0.021724708
0001b0 ca 46 1e 3e 70 7c 2c be 0a d9 51 be ca 41 ed bd
       0.15456691 -0.16844344 -0.2049295 -0.11584814
0001c0 3a 73 08 be c0 db 97 bc b4 67 9c bd 7e c5 30 bd
       -0.13325205 -0.018537402 -0.07636967 -0.043157093
0001d0 f2 72 6e ba 59 e9 a3 3d 58 ac 7e 3d 3b e1 13 be
       -0.00090961077 0.08003492 0.06217608 -0.14441387
0001e0 42 74 b8 3c b6 4f 9f be 4f 2e 16 be c6 69 ab 3d
       0.022516374 -0.31115502 -0.14666103 0.08369784
0001f0 bf f4 3f 3e b8 6e bc 3d 36 9b 00 3d 04 fb 8b bc
       0.18745707 0.092008054 0.03139802 -0.017087467
000200 ae 73 cf bd 75 f5 32 3e ad 5d be bc da d8 35 3d
       -0.10129486 0.17476447 -0.023238027 0.04439626
000210 7f 72 17 3e 32 53 2b 3c 6f 88 d5 bd 3b f8 98 be
       0.1478977 0.010456847 -0.10426413 -0.29876885
000220 70 32 66 be fd cd fc 3c ac d1 d7 3d 37 af 15 3e
       -0.22480178 0.030859942 0.105380386 0.1461762
000230 d8 52 94 be 88 7a c7 ba 3f df de 3c e4 10 dd bd
       -0.28969455 -0.0015219012 0.027206061 -0.10794237
000240 ec 03 95 bd 38 6e 01 3d 5d 5c be 3d 0c 4b c8 3e
       -0.07276139 0.031599253 0.09294961 0.39119756
000250 45 00 e7 bd ab 31 bf bc 00 82 47 3e b6 8d 80 3e
       -0.11279348 -0.023339113 0.19483185 0.25108117
000260 75 5f 08 3e 7b ce b2 3d 30 af 12 3d 0a 43 03 bc
       0.13317664 0.08730789 0.035811603 -0.008011589
000270 f4 b3 22 3d ae 3b 60 3e 16 17 9e bc c4 28 3d bd
       0.039722398 0.21897766 -0.019298118 -0.046181455
000280 2a 3a 00 3e a1 1e c0 3d 2d a9 2e bd e5 e6 59 bd
       0.12522188 0.09380842 -0.042641807 -0.053198714
000290 80 b5 15 3e e2 94 b9 3d a6 e9 50 3e cb 87 06 be
       0.14620018 0.090616 0.2040163 -0.13137738
0002a0 de 86 2b 3e 37 69 c1 bd 51 ee 02 3e 16 7e 8c bd
       0.16750666 -0.09443896 0.12786223 -0.068599865
0002b0 43 60 ba 3d 4a d5 b5 bc 9c f7 3b be 91 24 08 be
       0.09100392 -0.02219643 -0.18356174 -0.13295199
0002c0 f8 90 ee b9 62 53 b0 bd dd 17 05 3e 1e 02 7f bd
       -0.00045502908 -0.08609654 0.12997384 -0.06225788
0002d0 cf dc 57 3d 99 91 51 3c 48 dd f1 3d 9a 33 43 3d
       0.052700814 0.012791061 0.11809784 0.047656633
0002e0 b5 9c a0 3c 81 fd 81 3e 1f 75 81 bb ea 93 7a 3e
       0.019605974 0.2538872 -0.0039507295 0.24470487
0002f0 3f 33 09 be a0 92 a0 3d 38 f4 1a be 9a 82 f2 bd
       -0.13398455 0.078404665 -0.15132225 -0.118413165
000300 4b 9c 16 be bb 1b 2f be 3e 1b c2 bd 5c 3a 3f bd
       -0.14708059 -0.17100422 -0.09477852 -0.046686515
000310 71 60 65 3e 08 28 2c 3e 59 d0 24 3f ea 90 b2 bd
       0.2240007 0.16812146 0.64380413 -0.087190464
