FinalModels/BR/Data2Models/br-8-7000-100-128-0.01-0.5868.pt (torch, 1895 bytes, 1 tensors)

dnn.0.weight f4 [1, 200]
0	0xbc8dd6b3	-0.01731429
1	0xbcb81901	-0.02247286
2	0xbd9637ac	-0.07334837
3	0x3c980684	0.018557794
4	0x3e0aee8f	0.13567565
5	0xbda158cb	-0.07878264
6	0x3de60089	0.11230571
7	0xbe1f2c67	-0.15544282
8	0xbdc0120d	-0.09378443
9	0xbe9dd975	-0.3082997
10	0x3d79514e	0.060868554
11	0xbd47ee37	-0.048811164
12	0x3d28b097	0.041184034
13	0xbe14975f	-0.14510868
14	0x3e1ca58a	0.15297523
15	0xbe318c59	-0.17338695
16	0xbe7d1a73	-0.24717121
17	0x3e063f3b	0.13110058
18	0xbdac9847	-0.08427482
19	0x3e8bb1ad	0.27283993
20	0x3c0b3f31	0.008498953
21	0x3b7d6706	0.0038666143
22	0x3e30c980	0.17264366
23	0xbeddbf35	-0.43309942
24	0x3d86aaba	0.06575532
25	0x3ce8a96b	0.028401097
26	0xbd3faa8a	-0.046793498
27	0xbdcd53ed	-0.10025773
28	0x3f04e3d6	0.5191015
29	0xbdb36bfc	-0.08760831
30	0xbdba57d1	-0.09098781
31	0xbdc48bb8	-0.09596962
32	0xbd029e25	-0.0318891
33	0x3d55c43a	0.05218909
34	0xbd62a7db	-0.05533586
35	0x3e86ca59	0.26326254
36	0xbe2767e7	-0.1634823
37	0x3e436b03	0.1908379
38	0x3e0370d6	0.12836012
39	0xbe8df81d	-0.27728358
40	0xbcd0c75a	-0.025485683
41	0xbdfe1346	-0.1240602
42	0xbdabdd07	-0.08391767
43	0xbdfaed4f	-0.12252294
44	0x3e12765e	0.14302966
45	0x3e1d2329	0.15345444
46	0xbd3dafb0	-0.046310127
47	0xbe9b29f3	-0.30305442
48	0x3d9333a0	0.07187581
49	0x3d87b690	0.06626618
50	0x3eea2935	0.45734563
51	0xbc5837fc	-0.013196941
52	0xbd6b592b	-0.057458084
53	0x3eb9ec33	0.36313018
54	0xbdcb1d8d	-0.09917746
55	0xbd75a961	-0.059975985
56	0xbead3423	-0.3382884
57	0xbca48e1e	-0.020087298
58	0x3c906081	0.017624142
59	0xbcf89d42	-0.030348424
60	0xbe9065e6	-0.28202742
61	0xbd9ce9c4	-0.07661775
62	0xbe0f9a80	-0.14023781
63	0xbe07b92f	-0.13254236
64	0xbccf62c9	-0.02531566
65	0xbe88fdbd	-0.26756087
66	0x3d08018d	0.033204604
67	0x3d58616d	0.052827287
68	0xbeaec952	-0.3413797
69	0xbdd84de8	-0.105617344
70	0xbd757217	-0.059923258
71	0x3d4944d2	0.049137898
72	0xbea29928	-0.31757474
73	0x3e24a3d3	0.16078119
74	0x3da8994a	0.082323626
75	0xbde78743	-0.11305096
76	0xbe1096c2	-0.1412001
77	0xbd362800	-0.04447174
78	0x3df5bfea	0.11999495
79	0x3d27676d	0.04087012
80	0x3e63a08e	0.22229216
81	0xbea79eaa	-0.3273824
82	0xbc0a732c	-0.008450311
83	0xbe10aa91	-0.14127566
84	0x3ddcd4f4	0.10782805
85	0xbe6e4fde	-0.23272654
86	0x3eaf8ce7	0.34287187
87	0xbe06498a	-0.1311399
88	0xbe14a045	-0.14514263
89	0x3dacf99d	0.084460475
90	0xbcec7926	-0.028866362
91	0x3cc23346	0.02370609
92	0x3dcf4393	0.10120311
93	0xbb9fd724	-0.0048779417
94	0xbcc9d9dd	-0.024640018
95	0x3da7099c	0.0815613
96	0x3cc68320	0.024232447
97	0xbd3de356	-0.046359383
98	0x3df4f56b	0.11960872
99	0x3d7b4886	0.06134846
100	0xbe1aeda9	-0.15129723
101	0x3cf11797	0.029430194
102	0xbcd05662	-0.025431816
103	0x3df17b2e	0.11791073
104	0x3e00bfb7	0.12573133
105	0xbe996c5e	-0.2996549
106	0x3d835d59	0.06414289
107	0xbd27edca	-0.040998258
108	0x3e004648	0.1252681
109	0x3e2041d9	0.15650119
110	0xbce0be6a	-0.027434547
111	0x3e0bd703	0.13656239
112	0x3f2b1bb0	0.6683912
113	0xbe3f67a1	-0.18691875
114	0x3de8bab5	0.113637365
115	0xbd85f699	-0.065411754
116	0x3e9bb715	0.30413118
117	0x3c934e52	0.017981682
118	0x3d522636	0.051305972
119	0x3edbad2a	0.4290555
120	0x3d401289	0.046892677
121	0xbdc31c13	-0.09526839
122	0xbc9d0bcb	-0.019170662
123	0xbdcd944c	-0.10038051
124	0x3a37c080	0.0007009581
125	0xbd2dfc06	-0.042476676
126	0x3dccb141	0.09994746
127	0xbd280b7c	-0.041026577
128	0x3d7f89b2	0.062387176
129	0xbe0bd86b	-0.13656776
130	0x3d66b46a	0.0563244
131	0xbdd2e20e	-0.10297023
132	0x3ea67d1b	0.32517323
133	0xbde67b10	-0.11253941
134	0x3e74b20f	0.23896049
135	0xbe5e9a9b	-0.21738665
136	0xbd86ab44	-0.06575635
137	0xbc05fa25	-0.008177315
138	0xbbd55bc1	-0.006511182
139	0x3e7d9eaa	0.24767557
140	0xbe1512e8	-0.14557993
141	0xbdcf73ad	-0.10129485
142	0xbd284a47	-0.04108646
143	0x3ec52762	0.3850661
144	0xbeb65024	-0.35608017
145	0xbd9021d9	-0.07037706
146	0x3ca68228	0.020325735
147	0xbe28267e	-0.16420934
148	0xbd872a4b	-0.065998636
149	0xbb3d0410	-0.0028841533
150	0xbe828ca0	-0.25497913
151	0xbe7f6e56	-0.24944434
152	0x3e4b57f0	0.19857764
153	0xbd1388eb	-0.036019247
154	0x3d9ff7c2	0.07810928
155	0x3daf4c52	0.08559479
156	0xbe363746	-0.17794523
157	0x3c15754d	0.009122205
158	0xbd2a8f61	-0.041640643
159	0x3d5b0813	0.053474497
160	0xbe66d637	-0.22542654
161	0x3d533992	0.051568575
162	0xbd518e71	-0.051161233
163	0x3d8e1c3e	0.069389805
164	0xbea91215	-0.33021608
165	0xbea8cf5e	-0.3297071
166	0x3dfc9c93	0.12334552
167	0x3f11bbaf	0.5692701
168	0xbd0b7cec	-0.03405468
169	0x3e140bb0	0.14457583
170	0x3b9c30da	0.0047665657
171	0x3dd1f016	0.10250871
172	0xbe5131c2	-0.20429137
173	0xbd35d9ee	-0.044397287
174	0x3e339a54	0.1753934
175	0x3ecf1732	0.40447384
176	0xbc90ab02	-0.017659668
177	0x3d929e51	0.07159103
178	0xbe07c294	-0.1325782
179	0x3d74bd13	0.059750628
180	0x3e1531b9	0.14569749
181	0x3df6ab1e	0.12044357
182	0xbcc5b5b3	-0.024134493
183	0xbbe6a6a6	-0.007038909
184	0x3c49a5ae	0.0123075675
185	0xbee55c72	-0.44797093
186	0xbec20ec9	-0.37901905
187	0x3d51963a	0.051168658
188	0x3e9cc099	0.3061569
189	0x3d748027	0.059692528
190	0x3e435a90	0.19077516
191	0x3e496c49	0.19670214
192	0x3df93173	0.12167635
193	0x3e06f288	0.13178456
194	0x3d928542	0.07154323
195	0xbb8f1895	-0.004366944
196	0x3e48d054	0.19610721
197	0x3d9b5a50	0.07585585
198	0x3e19c03f	0.15014742
199	0x3cc521f6	0.024064045
