FinalModels/BR/Data2Models/br-9-7000-82-128-0.01-0.6847.pt (torch, 1895 bytes, 1 tensors)

dnn.0.weight f4 [1, 200]
000000 3c 8e 06 be 61 2b af bc 7c 9c 27 bd 14 1b b2 3c
       -0.13140196 -0.02138299 -0.04092072 0.021741427
000010 70 ba 94 3d 97 ba 07 bc 1e da d4 3b e7 c6 cd 3e
       0.07262123 -0.008284233 0.006495728 0.40190813
000020 cd 39 25 3d d0 91 40 3c 71 eb 28 3e d3 e0 dd 3d
       0.040338326 0.011753514 0.16496064 0.108338974
000030 e6 f6 84 bd 32 50 3c 3c 3c 93 db bd 8d 01 7a bd
       -0.06492405 0.011493729 -0.10721442 -0.061036635
000040 3d 39 14 3e 01 c4 16 be eb c7 83 bd 65 1d a7 bd
       0.1447496 -0.14723207 -0.06434616 -0.081599034
000050 e2 b1 8d 3d 17 e8 99 3c 06 af 26 be 7a 13 b4 3e
       0.06918694 0.018787427 -0.16277704 0.3517111
000060 9c 54 10 3d 38 2b ef bd bf bc 02 3e a4 d4 37 bb
       0.03523694 -0.11678165 0.12767313 -0.0028050328
000070 80 f4 e3 3c 63 87 84 bd 6a 78 8d 3d 7f ca 8b 3d
       0.027826548 -0.064711355 0.06907733 0.068257324
000080 e3 26 af 3b cc b9 fe bd 83 3f 5c bd 3d 1f 51 3d
       0.005345212 -0.12437782 -0.053771507 0.05105518
000090 1e de 13 be 7b 88 0d be 94 ee 69 be 48 38 f0 bd
       -0.144402 -0.13821594 -0.22844917 -0.11729485
0000a0 2b c3 35 3d fd 59 8d 3e c7 9f 55 3d 84 6f 33 bc
       0.04437558 0.27607718 0.05215433 -0.01095188
0000b0 59 19 11 3d cf 4e ef bd d3 01 17 3b 26 62 7f 3e
       0.035424564 -0.116849534 0.0023041859 0.24939784
0000c0 8d 02 a5 3a 7e 21 59 bd db b1 38 be 5d 0e b0 3a
       0.0012589261 -0.053010456 -0.18036596 0.0013432015
0000d0 90 bc a3 38 37 a5 e4 3d 5e ec 07 3e 11 f6 d2 bb
       7.807568e-05 0.11164325 0.1327376 -0.006438025
0000e0 6c e7 84 3e 51 ec 25 bd 98 eb ad bd 85 f5 ad bc
       0.2595781 -0.040508572 -0.084922016 -0.021235237
0000f0 b4 83 70 3d a0 35 70 3e a0 8a 5c 3e b7 cb 37 be
       0.058719352 0.23457956 0.21537256 -0.17948805
000100 71 3f 0f bd 10 31 cb bd 0f e1 0d bd 8f dd 26 3c
       -0.03497261 -0.09921467 -0.03463846 0.01018466
000110 0c 54 cf 3c 9f 8d 63 3e 08 a8 cd bc 9b c8 2c 3e
       0.025308631 0.22221993 -0.025104538 0.168734
000120 5a c8 20 be 5e 26 99 3d a8 36 3e 3d 7e 19 41 3e
       -0.15701428 0.07478021 0.046438843 0.18857381
000130 23 46 2e 3c 7a 3f 17 bd 87 a9 22 3e b0 fb 04 bd
       0.010636839 -0.03692577 0.15884982 -0.03246659
000140 24 e1 43 be 92 b6 3c be a0 4b b8 3d 7d 5a 38 3d
       -0.19128853 -0.1842902 0.08998799 0.04500817
000150 95 84 98 3c c5 05 60 3e 35 52 03 be 1a 1c bf 3c
       0.018617908 0.21877201 -0.12824328 0.02332883
000160 b4 12 18 3e 38 03 16 3e 9f 5c f6 3c 72 08 a7 bc
       0.14850885 0.14649665 0.030073462 -0.02038977
000170 f6 d9 02 3e d1 c2 66 3d ce e0 51 bb dd 93 c3 3d
       0.12778458 0.056338135 -0.0032024863 0.09549687
000180 b8 97 64 be 91 f2 c8 3e 6b 61 b5 3d fd 19 a0 bb
       -0.22323501 0.39247563 0.08856472 -0.0048859105
000190 ad 29 0a 3e 3a f3 08 bc e8 55 b0 bd 59 e1 db bc
       0.1349246 -0.008358771 -0.08610135 -0.026840853
0001a0 38 30 01 3e 97 26 f0 3d 7f 94 52 bd 1e 86 46 bd
       0.1261605 0.117261104 -0.05141115 -0.048467748
0001b0 63 c6 95 be 6b c1 15 be 18 17 86 bd 30 6f be bd
       -0.2925292 -0.14624564 -0.065473735 -0.09298551
0001c0 31 11 05 3f af 61 49 be fc a7 b3 be bb 97 c9 3d
       0.51979357 -0.1966617 -0.350891 0.098433934
0001d0 c9 ed cf bd 95 51 f7 bc 3d 7a 8c bd 35 51 b8 be
       -0.10152776 -0.030190269 -0.068592526 -0.35999456
0001e0 ee 48 aa bd 0e 3c 67 3e da 85 12 3d 82 f9 5b be
       -0.083146915 0.22581503 0.035772182 -0.21481898
0001f0 2a 34 98 3c 45 05 5f bd e7 9c 39 bc 35 bc 96 bd
       0.018579561 -0.054448385 -0.011328912 -0.073601164
000200 94 45 f7 bc f3 db f6 3d 08 b4 a4 3c 65 2b df 3d
       -0.030184545 0.12053671 0.020105377 0.10896949
000210 af 97 86 be ba 79 e9 3d 8e 15 3f bc 51 95 7a 3e
       -0.262876 0.114001706 -0.011662854 0.24471022
000220 e5 df ab bd 98 5b 02 b9 50 9c 24 be d7 b8 fb 3c
       -0.08392314 -0.00012431887 -0.16075253 0.030727787
000230 0f 2d 42 3e a5 bc 96 bd 4c ef f1 3a d5 a9 57 3e
       0.18962501 -0.073602 0.0018458157 0.2106088
000240 18 84 be 3e 42 0a 2e 3c b8 a0 7c bd 9a bc 40 be
       0.37210155 0.010622563 -0.06167671 -0.18821946
000250 0b 71 04 be af 7b 92 bd 6b bb a0 3e e4 fa 15 3b
       -0.12933747 -0.07152497 0.3139299 0.0022885138
000260 50 49 d5 3d bd 06 d1 3a 86 7a dc 3d 89 69 a3 3c
       0.10414374 0.0015947443 0.10765557 0.019947784
000270 83 8c 1e 3d b9 5e 67 be 2f f8 2e 3e 37 70 a3 3e
       0.03870822 -0.22594728 0.17086862 0.3192155
000280 17 5e 34 be d2 1b 8f bd bf b1 37 3c 2a 90 a9 bd
       -0.17614017 -0.06987728 0.011211812 -0.0827945
000290 91 27 70 3c b0 5b 1f be 93 3c 6f be f0 a6 32 3e
       0.014657871 -0.1556232 -0.23362951 0.17446494
0002a0 1c 69 63 bc c3 6a 28 be e8 8a 0b be 66 f9 eb 3d
       -0.0138800405 -0.16446976 -0.13627207 0.11522178
0002b0 42 82 3e bc 32 13 0a 3e 84 4d 32 be ce d3 f7 bd
       -0.011627736 0.13483885 -0.17412382 -0.121009454
0002c0 2e 7f ad 3e 65 0e d4 3d 9b 60 40 3e b7 2d 03 3e
       0.33886093 0.10354308 0.18786852 0.12810408
0002d0 21 c9 45 be 82 98 94 bb 69 69 05 bd 3d 5f eb bd
       -0.19315006 -0.004534782 -0.03257123 -0.11492775
0002e0 56 f0 af 3e e5 67 27 3d 12 6f 09 3d 65 25 16 3e
       0.3436305 0.040870566 0.03355319 0.14662702
0002f0 2f 59 04 bf 2b 67 3a 3d eb ef 94 3e 4f 90 10 be
       -0.51698583 0.045508545 0.29089293 -0.1411755
000300 fb bc 39 3e 04 14 c4 3d f4 d5 43 bc 52 a0 07 bd
       0.18138497 0.0957413 -0.011952866 -0.033111878
000310 8a 4b 64 3b 0c 7c 00 3e 0e fd c1 3c e6 09 17 bd
       0.0034835064 0.1254732 0.023680236 -0.036874674
