Sener_3/Sener_algorithm_MultiMNIST/saved_models/last_mgda_acc_LRLR_99_0.9351833333333334_0.9641_0.9505_0.91755_model.pkl (torch, 227281 bytes, 28 tensors)

conv1.weight f4 [10, 1, 5, 5]
0	0x3db73de7	0.08947354
1	0xbc900044	-0.017578252
2	0x3cdadd09	0.026716726
3	0x3e1a911f	0.15094422
4	0xbbc535d7	-0.006018381
5	0x3e717129	0.23578323
6	0x3e11904a	0.14215198
7	0x3e1a0333	0.15040283
8	0xbbd3ad19	-0.006459844
9	0x3e17c377	0.14820658
10	0x3f24cb9a	0.6437317
11	0xbea14223	-0.3149577
12	0xbe43b7bc	-0.19113058
13	0xbec60614	-0.38676512
14	0xbe1b680d	-0.15176411
15	0x3f1db259	0.6160026
16	0xbeb5e120	-0.3552332
17	0xbe73753b	-0.23775189
18	0xbeba7153	-0.36414585
19	0xbd0a39fd	-0.03374671
20	0x3ea1ceff	0.31603238
21	0xbd4806ca	-0.0488346
22	0x3c556762	0.013025137
23	0x3c5fcf29	0.013660231
24	0xbdf8d0a9	-0.12149174
25	0xbd585edb	-0.052824836
26	0xbe934593	-0.28764018
27	0xbe7d5090	-0.24737763
28	0xbe8741a9	-0.26417282
29	0x3e3cc18b	0.18433206
30	0x3e30c0ea	0.17261091
31	0x3c83f63a	0.01610862
32	0xbd822b71	-0.06355942
33	0xba955dca	-0.0011395749
34	0x3eb87744	0.36028492
35	0xbd0d8633	-0.03455181
36	0xbd2a99e4	-0.041650668
37	0xbe0ac9aa	-0.13553491
38	0xbc95d379	-0.018289315
39	0x3f0f9a17	0.560945
40	0xbe91ba30	-0.28462362
41	0xbe85b559	-0.2611492
42	0xbec0471d	-0.37554255
43	0xbbc1d3b9	-0.005915132
44	0x3efa8352	0.48928314
45	0xbe72ae9e	-0.23699424
46	0xbe45f1da	-0.1933054
47	0xbe0284b4	-0.12745935
48	0x3e1c7416	0.15278658
49	0x3e3baf2a	0.18328539
50	0xbc4b7c53	-0.012419778
51	0x3e654c39	0.22392358
52	0xbd417f37	-0.047240462
53	0xbe351f12	-0.17687634
54	0xbe1b208b	-0.15149133
55	0x3ec1521c	0.37757957
56	0xbeac15da	-0.3361042
57	0xbf6baa20	-0.92056465
58	0xbe1e16ac	-0.15438336
59	0x3d92d2f4	0.07169142
60	0xbe0bf137	-0.13666235
61	0xbf752918	-0.9576583
62	0x3e564d93	0.2092803
63	0x3eda8d3c	0.42685878
64	0x3e162b69	0.14664997
65	0xbee07415	-0.43838564
66	0x3bc38a66	0.005967426
67	0x3f1771d4	0.5915806
68	0x3df7842b	0.12085756
69	0xbdc47da4	-0.095942765
70	0xbdc8a4fa	-0.09797092
71	0x3e8423c3	0.25808534
72	0x3de024d8	0.109445274
73	0xbe285d99	-0.16441955
74	0x3d4e40d9	0.050354812
75	0x3d3da59c	0.046300516
76	0xbe647312	-0.22309521
77	0xbf13195d	-0.57460576
78	0x3f46067f	0.7735366
79	0x3ec7d02e	0.39026016
80	0x3e4dd829	0.2010199
81	0x3f32e249	0.69876534
82	0xbe07f6fa	-0.13277808
83	0xbf29f239	-0.6638523
84	0x3e752d3b	0.23943035
85	0xbdfa17ac	-0.12211546
86	0x3e37455e	0.17897555
87	0x3e6b6a04	0.2298966
88	0xbe322950	-0.17398572
89	0xbc76c564	-0.01506171
90	0xbe8af40e	-0.27139324
91	0xbed2ff3b	-0.4121035
92	0x3e715a3b	0.23569576
93	0xbcf00788	-0.029300466
94	0x3d140bba	0.036143996
95	0xbd0c457c	-0.034245953
96	0x3d318e98	0.04334888
97	0xbce48d68	-0.027899459
98	0x3c541d23	0.0129464
99	0x3c852160	0.016251266
100	0x3df94554	0.121714264
101	0x3eafcaab	0.3433431
102	0x3e12366f	0.14278577
103	0x3defe055	0.1171271
104	0x3d040296	0.03222903
105	0xbe85cd36	-0.26133126
106	0x3e7476be	0.23873422
107	0x3e9a8d8e	0.30186123
108	0x3de885c4	0.11353639
109	0x3c350893	0.0110494075
110	0xbec8f53b	-0.39249596
111	0xbe5d7139	-0.21625222
112	0x3ea1e320	0.31618595
113	0x3e8e8646	0.27836818
114	0x3ba0271a	0.004887474
115	0xbeba40f5	-0.36377683
116	0xbe8c3583	-0.27384576
117	0xbdc837fb	-0.097763024
118	0x3e9e4885	0.30914703
119	0x3ba20dbc	0.004945485
120	0xbe76ab47	-0.24088775
121	0xbe8e742d	-0.2782301
122	0xbe0f5737	-0.13998114
123	0x3d8fdf09	0.070249625
124	0x3d50ff6f	0.05102485
125	0xbca142c1	-0.019685151
126	0x3c1cf920	0.00958088
127	0xbccea0ec	-0.025223218
128	0xbe01eeba	-0.12688723
129	0xbe8008b7	-0.2500665
130	0x3d86ed2d	0.065882064
131	0xbe1b46c6	-0.15163717
132	0xbee9a24f	-0.45631644
133	0xbda49645	-0.08036474
134	0x3ea3f980	0.3202629
135	0x3e0663a6	0.1312395
136	0x3ef47b9b	0.47750553
137	0x3f6cc9a6	0.9249519
138	0x3f3e3d48	0.7431226
139	0x3eaf31e8	0.34217763
140	0xbe65911f	-0.2241864
141	0xbed36b7d	-0.41292945
142	0xbf0aedff	-0.54269403
143	0xbf05974c	-0.52183986
144	0xbef2ec89	-0.47446087
145	0x3c64bae4	0.013960574
146	0xbe086d17	-0.13322864
147	0xbe64f4b9	-0.2235898
148	0x3cb7d1e1	0.022438945
149	0x3da33720	0.07969499
150	0xbdde9b2c	-0.108694404
151	0x3ddcddba	0.107844785
152	0x3e2da2aa	0.16956583
153	0x3bf22403	0.007389547
154	0xbd5acf17	-0.053420153
155	0x3f080ab8	0.53141356
156	0x3eb15280	0.34633255
157	0x3ea15263	0.3150817
158	0x3f03e52a	0.5152155
159	0x3f08b607	0.5340275
160	0xbe7eadcc	-0.24870986
161	0xbe184b2a	-0.14872423
162	0xbccc5fa5	-0.02494795
163	0xbeae063b	-0.33989128
164	0xbf056bf2	-0.52117836
165	0xbcc102c3	-0.023560887
166	0xbe768063	-0.24072413
167	0xbe9418b2	-0.2892509
168	0xbe5f835c	-0.21827453
169	0xbb9bd5a6	-0.0047556935
170	0x3caba62e	0.020953264
171	0xbdb67ce6	-0.08910541
172	0xbd4c85de	-0.049932353
173	0xbda6c3b3	-0.081427954
174	0x3c853fc7	0.016265763
175	0xbe1589cf	-0.14603351
176	0xbe379213	-0.17926817
177	0xbdd01410	-0.101600766
178	0xbe0699b8	-0.13144577
179	0xbddde6b1	-0.108350165
180	0x3de314dd	0.11087964
181	0xbe36b0b3	-0.17840843
182	0xbedc99ca	-0.43086082
183	0xbee28dd8	-0.44248843
184	0xbe7c8d34	-0.2466324
185	0x3ea63034	0.3245865
186	0x3ee5e58a	0.44901687
187	0x3df23f27	0.118284516
188	0xbebf70da	-0.37390786
189	0xbed4ea61	-0.41585067
190	0xbc3afe70	-0.011413202
191	0x3e469c92	0.19395664
192	0x3f1dba7e	0.6161269
193	0x3ed945a1	0.42435935
194	0xbe5cb4a3	-0.21553282
195	0xbd4a6959	-0.049416874
196	0xbe05791a	-0.13034478
197	0x3da1aa2a	0.07893784
198	0x3e87200e	0.26391643
199	0x3e6f8084	0.23388869
200	0x3ddb10ff	0.10696601
201	0x3e29f37d	0.1659679
202	0xbf064360	-0.52446556
203	0x3f3dc305	0.741257
204	0xbeef0d64	-0.46689904
205	0x3e48318b	0.19550149
206	0xbf30a05e	-0.689947
207	0x3db89ccf	0.09014284
208	0x3f441e2c	0.7660854
209	0xbefc2599	-0.49247435
210	0xbcf20ad7	-0.029546184
211	0xbea54a73	-0.32283363
212	0x3ed0a8f9	0.40753916
213	0x3de1906b	0.11013874
214	0xbe44a85c	-0.19204849
215	0x3dcf1be6	0.10112743
216	0xbe27b2aa	-0.16376749
217	0xbe1174a0	-0.14204645
218	0x3e48b71b	0.19601099
219	0x3e010e4e	0.12603113
220	0x3c0db434	0.008648921
221	0x3d51c7bc	0.051215872
222	0xbdae2abc	-0.08504245
223	0x3c889c26	0.01667602
224	0x3cf17152	0.02947298
225	0xbdaa02da	-0.08301325
226	0x3e2b2114	0.16711837
227	0x3ef8f592	0.48624855
228	0x3ebf6429	0.37381104
229	0xbeedebed	-0.4646906
230	0xbd47a005	-0.04873659
231	0x3edea167	0.43482515
232	0x3e2edb74	0.17075902
233	0xbe1533f2	-0.14570597
234	0xbed270a1	-0.41101554
235	0x3e36ba07	0.17844401
236	0x3ea2adb4	0.3177315
237	0xbceee0e6	-0.029159974
238	0xbeb35544	-0.3502599
239	0xbe6d524b	-0.23175924
240	0x3d0b0f6d	0.033950258
241	0xbdcbaab5	-0.09944669
242	0xbe5ea7f7	-0.21743761
243	0xbe6177ba	-0.22018328
244	0xbe13824d	-0.14405175
245	0xbdd21ec8	-0.10259777
246	0xbe00504a	-0.12530628
247	0xbdd38ff8	-0.10330194
248	0xbe1ad85e	-0.151216
249	0xbea4e2c1	-0.3220425

conv1.bias f4 [10]
0	0xbf05f722	-0.5233022
1	0xbf0a59f1	-0.5404349
2	0xbe03915d	-0.1284842
3	0x3e2a1589	0.16609778
4	0xbd670c53	-0.056408238
5	0xbe81382b	-0.25238165
6	0xbbb6fd7e	-0.005584418
7	0xbe1e6c42	-0.15470985
8	0xbec87524	-0.3915187
9	0xbe9b3cd8	-0.30319858

conv2.weight f4 [20, 10, 5, 5]
0	0x3c6c8a2a	0.014437238
1	0xbd8b2791	-0.06794656
2	0xbdfb50f1	-0.12271298
3	0xbd901a82	-0.07036306
4	0x3d53e672	0.05173344
5	0xbdf9ddd2	-0.12200512
6	0xbe6fa8ac	-0.23404187
7	0xbe5c51ea	-0.21515623
8	0xbe4d3300	-0.20038986
9	0x3cc6bdaa	0.02426036
10	0xbe30d4e4	-0.17268711
11	0xbd81ba25	-0.063343324
12	0x3d15f398	0.036609262
13	0x3b5e433a	0.0033914582
14	0x3d1f4661	0.038885478
15	0x3e2d439a	0.16920319
16	0x3d95061a	0.072765544
17	0x3dcbf489	0.09958751
18	0xbda1d3db	-0.07901736
19	0x3d32db72	0.04366631
20	0x3e3ec5b3	0.18630104
21	0x3d2a794d	0.041619588
22	0x3def6a13	0.11690154
23	0x3b1892e7	0.002328092
24	0xbd2d87fd	-0.042366017
25	0xbd5a9486	-0.0533643
26	0xbe495e64	-0.19664913
27	0xbd1bfffb	-0.03808592
28	0x3cc46b8f	0.02397707
29	0x3d26d3ee	0.040729456
30	0xbd9f0ff0	-0.07766712
31	0xbeae8d23	-0.34092054
32	0xbe984edf	-0.29747674
33	0xbdfccd50	-0.12343848
34	0xbdfb307e	-0.122651085
35	0xbc4785b4	-0.012177873
36	0xbdad8683	-0.08472922
37	0xbe054359	-0.13013972
38	0xbd86433d	-0.065557934
39	0xbdb636b7	-0.08897155
40	0xbdfddb23	-0.12395313
41	0xbcdffd1c	-0.027342372
42	0xbc8766a9	-0.016528444
43	0x3c698762	0.014253469
44	0xbcd61a21	-0.026135506
45	0xbe36c321	-0.17847873
46	0x3cc17754	0.02361647
47	0xbd4e356c	-0.050343916
48	0xbb8bd65c	-0.004267497
49	0xbd627383	-0.05528594
50	0xbb92427f	-0.0044634934
51	0xbde63c02	-0.11241914
52	0x3dc35f3a	0.095396474
53	0x3bad12ce	0.0052817827
54	0xbdb0d38e	-0.08634101
55	0x3d839a26	0.06425886
56	0x3dd971ff	0.10617446
57	0x3d41d514	0.047322348
58	0xbc900646	-0.017581116
59	0x3d7ed987	0.06221917
60	0x3e35a998	0.17740476
61	0x3da12b8f	0.07869636
62	0x3d5dfbd7	0.05419525
63	0x3d01f8a8	0.031731278
64	0xbd0c8200	-0.034303665
65	0x3e20121d	0.1563191
66	0xbe57ae42	-0.21062568
67	0xbe22c200	-0.15894318
68	0xbc1ee739	-0.009698682
69	0xbd4b9100	-0.04969883
70	0x3d347cc8	0.044064313
71	0x3d42c515	0.047551233
72	0x3dae5eac	0.08514151
73	0x3bdbbd43	0.0067059114
74	0xbc588a45	-0.01321656
75	0xbafdcc96	-0.001936334
76	0x3da4945f	0.08036112
77	0x3da9f44a	0.082985476
78	0x3da79796	0.081832096
79	0xbda81808	-0.082077086
80	0xbc116d85	-0.008876209
81	0x3ce73253	0.028222239
82	0xbd966552	-0.07343544
83	0x3ca32f6f	0.019920079
84	0x3c55af44	0.013042275
85	0x3be15112	0.0068761194
86	0x3b2bb3d6	0.002619972
87	0xbd69091f	-0.056893464
88	0x3e12d24f	0.14338039
89	0xbc9102ec	-0.017701589
90	0x3c214ed8	0.009845458
91	0x3d8e9f3b	0.069639646
92	0x3d10ede7	0.03538313
93	0x3d7b9f24	0.061431065
94	0xbde5de1a	-0.11224003
95	0xbbf6abe2	-0.0075278142
96	0x3e00d506	0.12581262
97	0x3deb41c3	0.114871524
98	0x3cb1b728	0.021693781
99	0xbcbcf34d	-0.023065234
100	0x3d78690c	0.060647056
101	0xbe25242b	-0.16127078
102	0x3d9c1424	0.07621029
103	0x3e14cb9f	0.145308
104	0x3e0747d1	0.1321099
105	0xba9f7d47	-0.0012168073
106	0xbe8c7eb3	-0.27440414
107	0xbea556c4	-0.3229276
108	0xbd4278bc	-0.047478423
109	0xbd28e378	-0.041232556
110	0xbddf197b	-0.10893532
111	0xbe6271f2	-0.22113779
112	0x3c3e971a	0.011632705
113	0x3db4a3b4	0.088202864
114	0xbdcee3c0	-0.101020336
115	0xbe3ded16	-0.18547472
116	0xbdbfb426	-0.093605325
117	0x3e19f25f	0.15033863
118	0x3dad79e8	0.084705174
119	0x3d19f8ed	0.03759091
120	0x3d77a9f7	0.060464825
121	0xbc7861c9	-0.015160033
122	0x3e1122f6	0.14173493
123	0x3e00063c	0.12502378
124	0x3d88e687	0.066845946
125	0xbcb28191	-0.021790298
126	0x3d509cb0	0.05093068
127	0x3e4ba716	0.19887957
128	0x3ded52cb	0.11588057
129	0xbdebb8d5	-0.11509863
130	0x3d27fe04	0.041013733
131	0x3bc39465	0.0059686177
132	0x3e63effe	0.22259519
133	0x3e5d620d	0.21619435
134	0xbc8da997	-0.01729278
135	0xbd74ae51	-0.059736554
136	0x3cbe6d8f	0.023245601
137	0x3d55ae1f	0.052168008
138	0x3d8accef	0.06777369
139	0xbc46ed36	-0.012141516
140	0xbd4c3cae	-0.049862556
141	0xbc92dd98	-0.01792793
142	0xbcd0bd37	-0.02548085
143	0xbc04a685	-0.008096342
144	0x3e0b4e27	0.13604032
145	0x3cb89b20	0.022534907
146	0xbcefa755	-0.029254595
147	0x3d1ae9dc	0.037820682
148	0x3c0d5ee0	0.008628577
149	0x3cf70683	0.030154472
150	0x3c9010d5	0.017586151
151	0xbd344489	-0.044010673
152	0xbdc49ff5	-0.09600822
153	0x3e2d061f	0.16896866
154	0xbe1c151d	-0.15242429
155	0xba9249d2	-0.0011160916
156	0x3e1f345b	0.15547316
157	0x3e27f854	0.16403323
158	0x3e16966a	0.14705816
159	0xbe143124	-0.1447187
160	0xbdd0ffaa	-0.10205014
161	0xbc4b25a4	-0.012399111
162	0x3da701d9	0.08154649
163	0x3dd75b14	0.10515419
164	0xbd926c51	-0.07149566
165	0xbda2e4b7	-0.0795378
166	0xbde3b701	-0.111188896
167	0x3da16061	0.07879711
168	0x3ce712f5	0.028207282
169	0xbcb679c9	-0.022274869
170	0xbdff6387	-0.12470155
171	0xbe3f948c	-0.1870901
172	0xbc5d4da8	-0.013507284
173	0x3c9452bf	0.018105863
174	0x3d41a4ec	0.047276422
175	0x3d766427	0.060154106
176	0xbd8491f8	-0.06473154
177	0xbd7143b0	-0.058902442
178	0xbc969269	-0.01838036
179	0xbd431e58	-0.04763636
180	0xbd818399	-0.063239284
181	0xbb328887	-0.0027242021
182	0x3e56dda7	0.20982991
183	0x3e745a13	0.23862486
184	0x3db8927d	0.090123154
185	0x3d5fef4d	0.054671574
186	0x3dfa3b2b	0.12218317
187	0x3e5c9976	0.21542916
188	0x3dd1c528	0.10242683
189	0x3c9e35a7	0.019312693
190	0xbcfb147f	-0.030649422
191	0x3ddc9534	0.10770646
192	0x3e0af2a9	0.1356913
193	0xbd340085	-0.043945808
194	0xbc652838	-0.01398664
195	0x3d42ef07	0.047591235
196	0xbdc8276b	-0.097731434
197	0x3d156c58	0.036480278
198	0xbd8f44d9	-0.069955535
199	0xbd635f00	-0.05551052
200	0xbb0e63d9	-0.0021726994
201	0x3e013358	0.12617242
202	0x3dc78b9e	0.09743427
203	0x3d1997e9	0.03749839
204	0xbd93890e	-0.072038755
205	0x3c27c843	0.010240617
206	0xbcc1345f	-0.023584543
207	0xbe0a78db	-0.13522665
208	0xbd742670	-0.05960697
209	0xbc9911a9	-0.018685179
210	0xbc97a322	-0.018510405
211	0xb99dcf7f	-0.0003009997
212	0xbc390c10	-0.01129438
213	0xbdfc4957	-0.12318676
214	0xbdc43915	-0.095812
215	0x3c2c3130	0.010509774
216	0x3d9cc004	0.076538116
217	0xbcd6ccdd	-0.026220733
218	0xbde3db58	-0.11125821
219	0xbdd8e4c7	-0.10590511
220	0x3e94c4fd	0.2905654
221	0x3e75ac2e	0.23991463
222	0x3d272b21	0.040812615
223	0xbd9548c7	-0.07289272
224	0xbd21bd0a	-0.039486922
225	0x3d2dc15f	0.04242074
226	0xbc9070fc	-0.017632
227	0x3e06f8d7	0.13180862
228	0x3d04565d	0.032308925
229	0xbc992d32	-0.018698309
230	0xbc6ad0c4	-0.014332
231	0x3d134cd4	0.03596194
232	0x3db3bd3a	0.087763265
233	0x3da4e517	0.08051508
234	0x3db02854	0.08601442
235	0x3c355c6f	0.011069401
236	0x3e49316e	0.19647762
237	0x3dc700b1	0.09716929
238	0x3dd19329	0.10233147
239	0x3da5e0d2	0.08099522
240	0x3e1c7fe8	0.15283167
241	0xbe1b7a83	-0.15183453
242	0xbe0bd7aa	-0.13656488
243	0x3c952aa5	0.018208811
244	0xbdb1cbfb	-0.08681484
245	0xbe15f8c8	-0.14645684
246	0xbdab8b69	-0.083762
247	0x3dcce057	0.10003727
248	0x3ccbaf94	0.024863996
249	0xbdada2da	-0.08478327
250	0xbc0d66c0	-0.008630455
251	0xbd8f6be9	-0.07003004
252	0xbde1bcda	-0.11022349
253	0xbd13bb6d	-0.036067415
254	0x3d817cd9	0.06322641
255	0x3da34a98	0.07973212

conv2.bias f4 [20]
0	0x3c50ba56	0.012739738
1	0x3da72942	0.08162166
2	0x3e56d9d1	0.20981528
3	0x3cac3b34	0.021024324
4	0x3e0471c8	0.12934029
5	0xbc03644d	-0.008019519
6	0x3dd15678	0.10221571
7	0xbd059c84	-0.032619968
8	0x3cba0018	0.022705123
9	0x3dcb2d4e	0.099207506
10	0xbc92401d	-0.017852837
11	0x3ded0d37	0.11574786
12	0xbca24736	-0.019809347
13	0x3dd194d3	0.10233464
14	0x3d386ecc	0.04502754
15	0x3e384fbb	0.17999165
16	0x3d0e98b7	0.03481361
17	0x3cf824cb	0.030290982
18	0x3e54cd31	0.207814
19	0xbd187079	-0.037216637

fc.weight f4 [50, 320]
0	0x3d4b0865	0.049568553
1	0x3cf9e664	0.030505367
2	0xbd54af9a	-0.05192528
3	0x3d63cb9c	0.0556141
4	0xbc54019b	-0.012939836
5	0xbd360af6	-0.044444047
6	0x38f0ce8e	0.000114825656
7	0xbd7f2b89	-0.062297378
8	0x3cfa1ef9	0.030532347
9	0x3d93fce0	0.072259665
10	0x3dec591a	0.11540432
11	0xbc29614b	-0.010338138
12	0xbd258f74	-0.04042001
13	0xbc139856	-0.009008488
14	0x3d48ddad	0.04903953
15	0x3dccad8b	0.09994038
16	0x3c20e89c	0.009821083
17	0x3d4643f5	0.048404653
18	0x3d81b2e9	0.063329525
19	0x3d22d2d1	0.03975183
20	0x3cc000bc	0.02343785
21	0x3c932eb5	0.017966608
22	0xbc912b70	-0.017720908
23	0xbba26cf7	-0.0049568373
24	0xbd6670d6	-0.056259952
25	0x3bdf6ce9	0.006818403
26	0x3b8d34c6	0.0043092696
27	0x3d02c46c	0.031925604
28	0x3d73f946	0.059563898
29	0xbc477180	-0.012173057
30	0x3d886bee	0.06661211
31	0x3db9fa2b	0.09080919
32	0x3db71083	0.08938696
33	0x3d444e76	0.04792639
34	0x3b9b0f4a	0.004732047
35	0xbd335d05	-0.043789882
36	0x3ba4a04d	0.005023992
37	0x3d14785f	0.036247607
38	0x3d94dbda	0.07268496
39	0xbdc56e93	-0.09640231
40	0xba56eaed	-0.0008198459
41	0x3d69c1d8	0.05706963
42	0x3be2dd66	0.0069233654
43	0x3d557f3f	0.052123304
44	0xbdd35940	-0.103197575
45	0x3c702be6	0.014658904
46	0xbd68cad7	-0.05683407
47	0x3c2f3bf5	0.010695447
48	0x3da687b0	0.08131349
49	0x3db8411c	0.08996794
50	0xbd392dcf	-0.045209702
51	0x3e01cb25	0.1267515
52	0xbaeb237e	-0.0017939655
53	0xbcce3096	-0.025169652
54	0x3cafd5cf	0.021464257
55	0x3c6e9860	0.014562696
56	0x3cd022df	0.025407253
57	0xbcf6cd1a	-0.030127097
58	0xbd4bd61d	-0.04976474
59	0x3ad293d5	0.0016065786
60	0x3c7cb0ac	0.015422981
61	0xbdcf3acf	-0.10118639
62	0xbbb6fef0	-0.00558459
63	0x3d963640	0.07334566
64	0x3cc1e8b6	0.023670536
65	0x3d546824	0.05185713
66	0x3d199f11	0.037505213
67	0x3d8ff738	0.07029575
68	0xbd12014a	-0.03564576
69	0x3bc6066f	0.0060432474
70	0xbca6f012	-0.020378146
71	0xbd41a9e0	-0.047281146
72	0x3d3a3b45	0.04546668
73	0xbccf518b	-0.025307437
74	0x3d332e37	0.043745246
75	0xbd3acaed	-0.04560368
76	0xbd312d9c	-0.043256387
77	0xbc3f41ff	-0.01167345
78	0x3c79a778	0.015237682
79	0x3d5fbde6	0.05462446
80	0x3dcdc32e	0.10046993
81	0x3d80b997	0.062853985
82	0xbcb3f467	-0.021967126
83	0x3d769dea	0.060209192
84	0x3d009a34	0.03139706
85	0xbdc71cc1	-0.09722281
86	0xbc951c19	-0.018201875
87	0x3c8483b8	0.01617609
88	0xbd031c34	-0.03200932
89	0xbc97020e	-0.018433597
90	0x39789fed	0.000237107
91	0x3dba4f25	0.09097127
92	0x3d825f65	0.06365851
93	0xbb3d1193	-0.0028849586
94	0x3caa96a6	0.020823788
95	0x3bb73a87	0.005591694
96	0x3c59d560	0.0132955015
97	0xbd984037	-0.07434123
98	0x3c2576f4	0.010099161
99	0xbdf7df39	-0.12103123
100	0xbd282179	-0.041047547
101	0x3ce57561	0.028010072
102	0x3d18e7ff	0.037330624
103	0x3d891c29	0.06694824
104	0xbcb72d22	-0.022360388
105	0x3dc82a9a	0.097737506
106	0xbccdfed6	-0.02514593
107	0x3e0b5afc	0.13608927
108	0x3d6f63d8	0.058444828
109	0xbe06d685	-0.1316777
110	0xbd3c8d84	-0.046033397
111	0xbe0fb858	-0.14035165
112	0x3ae9f8a1	0.0017850586
113	0x3cc43ab8	0.02395378
114	0xbd60699f	-0.054788228
115	0xbd310ac0	-0.043223143
116	0x3bae292d	0.005314967
117	0xbcb486a6	-0.022036862
118	0x3d0b9491	0.03407723
119	0x3ca68a2d	0.02032956
120	0x3d080c51	0.03321487
121	0x3d9295ac	0.07157454
122	0x3d362570	0.044469297
123	0x3ddeb29d	0.108739115
124	0x3d097ba4	0.03356518
125	0xbd1f8e84	-0.038954273
126	0xbd892a2e	-0.06697498
127	0xbd05264e	-0.032507233
128	0x3d8d16d4	0.0688912
129	0xbcc5494d	-0.024082804
130	0xbd031b5b	-0.03200851
131	0xbc81acf6	-0.015829545
132	0xbcc52038	-0.024063215
133	0x3d2c78c3	0.042107355
134	0xbce898c5	-0.028393159
135	0x3c3a9151	0.011387185
136	0x3d102e76	0.03520056
137	0xbc58afe5	-0.01322553
138	0xbd4f3886	-0.050591014
139	0xbccf5134	-0.025307275
140	0x3cb664cc	0.02226486
141	0xbd2ac6a0	-0.04169333
142	0x3d4b5bbb	0.049648028
143	0x3d721c00	0.059108734
144	0x3c2e7127	0.010647095
145	0xba612bbe	-0.0008589587
146	0x3c510a68	0.012758829
147	0xbc2a39d3	-0.010389763
148	0x3dcca5d8	0.0999257
149	0xb935530c	-0.00017292442
150	0x3c161c51	0.009162025
151	0xbd51ba05	-0.051202793
152	0xbc82369f	-0.015895186
153	0xbdef5627	-0.11686354
154	0xbd7597d8	-0.059959263
155	0xbccb2d5e	-0.024801906
156	0xbb118835	-0.002220643
157	0x3d86b718	0.06577891
158	0x3d976ec3	0.07394173
159	0x3e99b571	0.3002124
160	0xbc5c68d3	-0.013452726
161	0xbd372767	-0.04471531
162	0xbc109b32	-0.008826064
163	0xbd9890ee	-0.07449518
164	0x3da38ba2	0.07985617
165	0xbd313361	-0.04326189
166	0x3da58be9	0.08083326
167	0xbcc6b141	-0.024254443
168	0x3dc15b79	0.09441275
169	0x3d2dfb13	0.04247577
170	0x3d5d8dd1	0.054090325
171	0x3d945275	0.0724229
172	0xbdb08351	-0.086187966
173	0x3c4596e7	0.012059904
174	0xbda4e27b	-0.0805101
175	0x3df64bcc	0.12026176
176	0x3d6b89df	0.05750453
177	0x3b826417	0.003979217
178	0x3c2376cb	0.009977053
179	0xbcca829d	-0.024720484
180	0x3cba8dfe	0.022772785
181	0xbda31593	-0.07963099
182	0xbd7ab359	-0.061206196
183	0x3d73e67a	0.05954597
184	0x3b1f85ca	0.002434122
185	0x3d9546d2	0.072888985
186	0x3d71d346	0.059039377
187	0x3c4848d4	0.012224395
188	0x3d53048a	0.051518
189	0xbcb76665	-0.022387693
190	0xbc98e3bc	-0.01866328
191	0xbd7ea390	-0.062167704
192	0x3d87003b	0.06591841
193	0x3cc355a4	0.023844548
194	0xbd9ed52e	-0.077555045
195	0xbdb6a1f0	-0.08917606
196	0x3d0fd2b5	0.035113055
197	0x3d457a00	0.04821205
198	0x3d8b4bf6	0.06801598
199	0xbb7702d1	-0.0037690888
200	0x3d91cee8	0.07119542
201	0x3cbfbbd2	0.02340499
202	0x3cf43688	0.029811159
203	0x3dfe6410	0.12421429
204	0xbdbfca16	-0.09364717
205	0x3cd019d3	0.025402939
206	0x3b06b8aa	0.0020556846
207	0x3dd58dad	0.10427413
208	0x3ca97b4e	0.02068868
209	0x3d17506a	0.036941923
210	0xbd189f03	-0.03726102
211	0x3d1786dd	0.03699385
212	0x3c490ac0	0.012270629
213	0xbc3a89b5	-0.011385371
214	0x3b154591	0.002277706
215	0x3e049e29	0.12950958
216	0xbd0114f6	-0.03151413
217	0x3d0a6455	0.03378709
218	0x3d2e0ea1	0.04249442
219	0x3d464abe	0.048411123
220	0x3d4c61a8	0.04989782
221	0xbd1bcf7d	-0.038039673
222	0xbd60cb31	-0.05488128
223	0xbb9bfc3f	-0.0047602947
224	0xbd029b72	-0.031886525
225	0x3c9c4252	0.019074593
226	0x3d67a914	0.05655773
227	0x3d8dd284	0.06924918
228	0xba9742ef	-0.0011540334
229	0xbc280141	-0.010254205
230	0xbc28c1ea	-0.010300139
231	0x3c1d4e0a	0.0096011255
232	0xbc8cfac1	-0.017209413
233	0xbcb8a317	-0.022538705
234	0x3bf711ed	0.0075399787
235	0xbacc2c2b	-0.0015577128
236	0x3b71c4e0	0.0036891028
237	0x3cc466c8	0.023974791
238	0x3cb6a657	0.022296114
239	0xbc71e4ce	-0.014764024
240	0xbd0751ba	-0.033036925
241	0x3c7e760b	0.015531073
242	0x3db5e675	0.08881847
243	0xbd6bbf2b	-0.05755536
244	0x3d83d2db	0.06436702
245	0x3c95acf8	0.018270954
246	0xbd37eb2e	-0.04490202
247	0xbd7ec97a	-0.06220386
248	0xbb32a0a3	-0.0027256391
249	0xbd46a589	-0.04849771
250	0x3db0ee92	0.08639254
251	0xbdb71d46	-0.0894113
252	0x3d674fcb	0.05647258
253	0x3d3734b8	0.04472801
254	0x3ca5eb10	0.020253688
255	0x3dedae47	0.116055064

fc.bias f4 [50]
0	0xbdcf10d0	-0.101106286
1	0xbd01f987	-0.03173211
2	0x3d94b652	0.07261337
3	0x3c0495f8	0.008092396
4	0x3cde68a1	0.0271495
5	0x3df1fb9a	0.11815567
6	0xbdf715a0	-0.120646715
7	0x3e63020b	0.22168748
8	0xbcc70e4d	-0.024298811
9	0x3d693793	0.056937765
10	0xbcf27ed6	-0.029601496
11	0x3b2a64ff	0.002600014
12	0x3e36065b	0.17775862
13	0x3e4567ab	0.19277827
14	0x3dbbfc59	0.09178991
15	0xbd358854	-0.044319466
16	0xbd78e418	-0.060764402
17	0x3e02fd81	0.12792017
18	0x3e0d8412	0.13819912
19	0x3dbc8a8c	0.09206113
20	0x39983c25	0.0002903651
21	0x3d2fa2fc	0.042880043
22	0x3e5460d9	0.2074007
23	0x3be71ea4	0.007053213
24	0xbd5c6358	-0.05380568
25	0x3e6a0633	0.22853927
26	0x3db16e20	0.08663583
27	0x3ec0ab3e	0.37630647
28	0x3da1db71	0.07903183
29	0x3e56685f	0.20938252
30	0x3e1c2764	0.15249401
31	0xbd385afa	-0.045008637
32	0xbdc6bc8f	-0.097039334
33	0x3d870be3	0.06594064
34	0xbea01cce	-0.31271976
35	0xbd27fe62	-0.041014083
36	0xbc72cd81	-0.014819504
37	0xbe61dd49	-0.2205707
38	0xbab64569	-0.0013906184
39	0xbcf68566	-0.030092906
40	0xbe217385	-0.15766723
41	0x3c170bed	0.009219152
42	0x3cce304e	0.025169518
43	0x3b3e60c2	0.0029049371
44	0x3e012979	0.12613477
45	0x3d3fab0f	0.046793994
46	0xbd840552	-0.06446327
47	0x3d3bd285	0.045855064
48	0x3cdfa8c2	0.02730215
49	0x3cf8cd99	0.030371474

momentum_buffer f4 [10, 1, 5, 5]
0	0xbc471dba	-0.012153083
1	0xbcc0726e	-0.023492064
2	0xbc2e03a2	-0.010620983
3	0xbccbd28a	-0.024880666
4	0xbca5bce8	-0.02023168
5	0x3d684ad8	0.056712
6	0x3c5082d0	0.012726501
7	0xbbe15790	-0.0068768933
8	0xbd2f160e	-0.042745642
9	0xbcdc3112	-0.026878867
10	0x3dff6397	0.12470167
11	0x3d8fb8fd	0.070177056
12	0x3c073237	0.008251718
13	0x3c5e266c	0.013558965
14	0x3cd47cc5	0.025938401
15	0x3dd4851a	0.103769496
16	0x3d8b3cea	0.06798728
17	0x3d0acca1	0.033886556
18	0x3d2b18c3	0.04177166
19	0x3d1d5523	0.03841127
20	0x3dff5064	0.12466505
21	0x3dc9e484	0.09858039
22	0x3db99e82	0.09063436
23	0x3d98fd72	0.07470216
24	0x3d58328a	0.052782573
25	0xbd807c14	-0.06273666
26	0xbd649419	-0.0558053
27	0xbd4d5812	-0.05013282
28	0xbdabf423	-0.08396175
29	0xbdb2ee01	-0.08736802
30	0xbdb6ff0d	-0.08935366
31	0xbd9f450e	-0.07776843
32	0xbd5745fc	-0.052556977
33	0xbd6920c5	-0.056916017
34	0xbcecad57	-0.028891249
35	0xbd4e965a	-0.050436355
36	0xbd61db4a	-0.05514077
37	0xbdaad07a	-0.08340545
38	0xbd465817	-0.048423853
39	0xbc1785b8	-0.00924819
40	0xbca32ea6	-0.019919705
41	0xbd119112	-0.03553874
42	0xbd607ac7	-0.05480459
43	0xbc9b3170	-0.018944472
44	0x3b984210	0.004646547
45	0x3c67b16c	0.014141422
46	0x3b4b02b8	0.0030976962
47	0x3c7ce880	0.015436292
48	0x3d15d2ec	0.036578104
49	0x3c1a63f8	0.0094232485
50	0xbd92a796	-0.07160871
51	0xbd52a3d2	-0.051425762
52	0xbd66d78c	-0.056357905
53	0xbd2bab0e	-0.041911177
54	0xbd9ac7d8	-0.075576484
55	0xbd8674ef	-0.06565272
56	0xbbd1382e	-0.006384871
57	0xbc834ba8	-0.016027287
58	0xbd778790	-0.060432017
59	0xbdfe0f3e	-0.12405251
60	0xbcb2994e	-0.021801617
61	0x3b94f0c8	0.004545305
62	0xbce50390	-0.0279558
63	0xbd4c7d4a	-0.049924172
64	0xbdca99c0	-0.09892607
65	0xbc3ceaa7	-0.011530555
66	0x3cfe2170	0.031021804
67	0xbac310ec	-0.0014882362
68	0xbcaaf6d4	-0.02086965
69	0xbd65c364	-0.056094542
70	0x3db5bac7	0.088735156
71	0x3da2826a	0.07935031
72	0x3cf28275	0.029603222
73	0xbabc21f0	-0.0014353376
74	0xbd110544	-0.035405412
75	0x3dcb0642	0.09913303
76	0x3dc014fa	0.09379001
77	0x3d7cc349	0.061709676
78	0x3d852903	0.06501963
79	0x3d2d0237	0.04223844
80	0x3cb435f0	0.021998376
81	0x3c143b5d	0.009047356
82	0x3d2404de	0.040043704
83	0x3cb1b621	0.021693291
84	0x3cdf5d06	0.027266037
85	0xbc1e7ca8	-0.009673275
86	0xbd38e6ca	-0.045141973
87	0xbc8718a8	-0.01649125
88	0x3c16b2e3	0.009197923
89	0x3d39a8e8	0.045327097
90	0x3c86d646	0.016459595
91	0xbd119658	-0.03554377
92	0x3b2e3699	0.0026582836
93	0x3c853e35	0.016265014
94	0xbca36d4c	-0.019949578
95	0x3b59e0c0	0.0033245534
96	0xbd93d57a	-0.07218452
97	0xbd602ce1	-0.0547303
98	0xbdb9496e	-0.09047209
99	0xbe08dec2	-0.13366225
100	0x3da3398b	0.0796996
101	0x3d843e5b	0.06457206
102	0x3c9dde4c	0.019271038
103	0x3d319d51	0.04336292
104	0x3d07b556	0.03313192
105	0x3d7d495a	0.06183753
106	0x3d824a1e	0.06361793
107	0x3d90d9d2	0.07072796
108	0x3d9a53f7	0.07535546
109	0x3dbcf1fa	0.09225841
110	0x3d248506	0.040165924
111	0xbc797568	-0.015225746
112	0xbd07d78d	-0.03316455
113	0x3b9a9510	0.0047174767
114	0x3d8694a0	0.06571317
115	0x3cb2499b	0.021763613
116	0x3cdf4122	0.027252737
117	0xbc9dcfe8	-0.019264176
118	0xbcf63f8b	-0.030059597
119	0x3d53f333	0.051745605
120	0x3c820f79	0.015876519
121	0x3c6013be	0.013676582
122	0x3bb89c18	0.005633842
123	0xbd1a4792	-0.03766591
124	0xbd84394e	-0.064562425
125	0x3d3e0a53	0.046396565
126	0x3c57fa5c	0.013182249
127	0x3cc9bf7d	0.024627442
128	0x3d4e8e2b	0.05042855
129	0x3d17b7bb	0.037040453
130	0x3cc6de55	0.024275938
131	0x3cdb51d3	0.026772415
132	0x3d4c9374	0.04994531
133	0x3d2e494e	0.042550378
134	0x3cec69da	0.028859068
135	0x3d31287b	0.043251496
136	0x3d0bd4f5	0.03413864
137	0x3c964ac6	0.018346202
138	0xbace24d2	-0.0015727526
139	0x3d06f17e	0.03294515
140	0x3cdc9985	0.026928673
141	0xbbf83928	-0.007575173
142	0xbcb77515	-0.022394696
143	0xbc7f73e6	-0.015591597
144	0x3d6818ac	0.056664154
145	0xbca4451b	-0.020052483
146	0xbd72cefe	-0.059279434
147	0xbd394528	-0.04523197
148	0xbd6770ba	-0.05650399
149	0xbcf563bc	-0.029954784
150	0xbd869052	-0.06570496
151	0xbdaa7ecd	-0.083249666
152	0xbe01554c	-0.12630194
153	0xbdebfb1a	-0.11522503
154	0xbd9a58a0	-0.07536435
155	0xbd97804e	-0.07397519
156	0xbd6d02a0	-0.05786383
157	0xbd8100ae	-0.06298958
158	0xbd939a18	-0.072071254
159	0xbd92838b	-0.07153996
160	0xbdcb8c78	-0.09938902
161	0xbcb80312	-0.022462402
162	0xbd38812d	-0.045045067
163	0xbd258695	-0.04041155
164	0xbd942f4e	-0.07235585
165	0xbda7e126	-0.081972405
166	0xbd100f95	-0.03517111
167	0xbd25fe9c	-0.040526018
168	0xbd38a3a5	-0.04507794
169	0xbdc11497	-0.09427755
170	0xbd8e5340	-0.069494724
171	0xbd9b91a6	-0.075961396
172	0xbdeba31b	-0.11505719
173	0xbe000c58	-0.12504709
174	0xbdf81132	-0.12112655
175	0xbcce7bd0	-0.025205523
176	0xbb47cc6a	-0.003048683
177	0x3ca43e6c	0.020049296
178	0x3d47a238	0.04873869
179	0x3d171e94	0.036894396
180	0x3d2f0ac2	0.04273487
181	0xbc4f8bf8	-0.0126676485
182	0xbd08175a	-0.033225395
183	0x3c28b4d6	0.010297021
184	0x3d48bb54	0.049006775
185	0x3c79fe9a	0.015258456
186	0xbd53e2a8	-0.051729828
187	0xbc07056c	-0.008241039
188	0x3d6596de	0.05605208
189	0x3d2b86f9	0.041876767
190	0x3c558022	0.0130310375
191	0xbd30f9dc	-0.043207034
192	0xbdb10fc6	-0.08645587
193	0xbd894401	-0.06702424
194	0xbd582140	-0.052766085
195	0x3d8796e3	0.06620576
196	0x3d6ce404	0.05783464
197	0xbbf3c1fc	-0.007438896
198	0xbd9ff454	-0.07810274
199	0xbd162316	-0.036654554
200	0x3d96bb79	0.07359976
201	0x3d4686ef	0.048468526
202	0x3d86556a	0.0655926
203	0x3da13ad0	0.07872546
204	0x3c25a93e	0.010111151
205	0x3d406dbe	0.04697966
206	0x3c530a00	0.012880802
207	0x3d397877	0.0452809
208	0x3dbb647c	0.09150025
209	0x3cac408a	0.021026868
210	0x3d5a2c11	0.05326468
211	0xba895b38	-0.0010479456
212	0x3dcfbea6	0.10143785
213	0x3dbbcccc	0.09169921
214	0x3d0d1202	0.034441
215	0xbd26f740	-0.04076314
216	0xbcc2cd1d	-0.023779446
217	0x3cd64cea	0.026159722
218	0x3d731e80	0.05935526
219	0x3d80e3cc	0.06293449
220	0xbc994d22	-0.018713538
221	0xbd0bc523	-0.03412355
222	0xbb562920	-0.003267832
223	0x3cebbe88	0.028777376
224	0x3d36173b	0.044455748
225	0xbd8dd47e	-0.06925295
226	0xbd9d9513	-0.07694449
227	0xbd8822d4	-0.06647268
228	0xbccde750	-0.025134712
229	0x3b505048	0.0031786133
230	0xbd7057a0	-0.058677316
231	0xbc1ae85e	-0.009454815
232	0x3b2acd68	0.0026062373
233	0xbb9da7e0	-0.004811272
234	0x3c99d958	0.018780395
235	0xbd8c5627	-0.0685237
236	0xbd084692	-0.033270426
237	0x3ccd6e4c	0.025077008
238	0x3c9ce808	0.01915361
239	0x3ca0829c	0.01959353
240	0xbd4bf9b3	-0.04979868
241	0xbd35c495	-0.04437693
242	0x3c53297a	0.012888307
243	0x3c83a33a	0.016069043
244	0x3c9c2a95	0.019063273
245	0xbd27c336	-0.040957652
246	0x3c1df061	0.00963983
247	0xbc4ad328	-0.012379445
248	0x3c202b22	0.009775909
249	0x3d24c7e2	0.040229686

momentum_buffer f4 [10]
0	0x3ca03d3c	0.019560449
1	0x3abeadb0	0.0014547613
2	0x3bffd370	0.0078071877
3	0x3ce1db93	0.027570521
4	0x3d06d189	0.032914672
5	0xbcddf3e1	-0.02709383
6	0xbd800439	-0.062508054
7	0xbd0a72d8	-0.03380093
8	0x3d917ff8	0.07104486
9	0xbc8ae509	-0.016954916

momentum_buffer f4 [20, 10, 5, 5]
0	0x3d13433c	0.03595279
1	0x3b9e0a58	0.0048230104
2	0xbc7117b4	-0.014715124
3	0x3c7a0834	0.015260745
4	0x3c99d731	0.01877937
5	0x3ce8a442	0.028398637
6	0xbc03d6a8	-0.0080467835
7	0xbcd4eeec	-0.025992833
8	0xbc7efde1	-0.015563459
9	0xbd1258e9	-0.035729323
10	0xbd287c09	-0.041133914
11	0xbb82bd78	-0.0039898716
12	0xbd746a71	-0.059671823
13	0xbd27636f	-0.04086631
14	0xbc92b5cc	-0.017908953
15	0xbbe3068c	-0.0069282707
16	0x3cb5a705	0.022174368
17	0xbc6d4832	-0.014482545
18	0x3b8fbada	0.004386288
19	0x3c51f00f	0.012813582
20	0x3cefb48b	0.029260894
21	0x3d82a4fe	0.06379126
22	0xbbf970e0	-0.0076123327
23	0xbc8cf5e8	-0.017207101
24	0xbce34ae8	-0.027745679
25	0x3cda3af6	0.026639443
26	0x3cd590af	0.026069967
27	0xbce59f14	-0.028029956
28	0xbc99f377	-0.01879285
29	0xbb9d88fc	-0.0048075896
30	0x3cde757f	0.027155636
31	0xbd240735	-0.040045936
32	0xbcef999d	-0.029248053
33	0xbb95aeb0	-0.0045679435
34	0xbcd0f936	-0.025509458
35	0xbba32ad0	-0.004979469
36	0xbd47f6b8	-0.048819274
37	0x3c3bf8d8	0.011472903
38	0x3b87c194	0.0041429494
39	0xbcd8b963	-0.026455587
40	0xbcd491ca	-0.025948424
41	0xbd1287b3	-0.035773944
42	0xbd044b1c	-0.032298192
43	0xbc555d8e	-0.013022793
44	0xbb9ca5d0	-0.0047805086
45	0xba299878	-0.0006469558
46	0xbcc5386b	-0.024074754
47	0xbd8b5ff4	-0.06805411
48	0xbd042cda	-0.032269336
49	0x38288d80	4.0186103e-05
50	0xbca0471e	-0.019565161
51	0x3c9b33c5	0.018945584
52	0xbc1c6696	-0.009545943
53	0xbd7ae19d	-0.061250318
54	0xbca1279a	-0.019672204
55	0x3d116ede	0.03550612
56	0x3ba9aaf4	0.00517785
57	0xbd77f4b8	-0.060536116
58	0xbc4edf89	-0.012626537
59	0x3cd9c0d1	0.0265812
60	0x3d135104	0.035965934
61	0xbd299e17	-0.04141053
62	0xbc7859e7	-0.015158153
63	0x3c934dc1	0.017981412
64	0xbc85990a	-0.016308326
65	0xbb994d06	-0.0046783714
66	0xbb95d474	-0.0045724455
67	0xba64a800	-0.0008722544
68	0xbd27ca1a	-0.040964223
69	0xbd3cf8c4	-0.04613568
70	0x3c912ffc	0.017723076
71	0xbc8d878f	-0.017276553
72	0xbd343c6b	-0.04400293
73	0xbc817b06	-0.015805732
74	0xbcd31166	-0.025765132
75	0x3c94799a	0.01812439
76	0x3ccb57b1	0.024822088
77	0x3bee2b3e	0.0072683385
78	0x3bb900d8	0.0056458525
79	0xbcbede7d	-0.02329945
80	0x3d488d40	0.04896283
81	0xbb9e135a	-0.004824084
82	0xba2fa788	-0.00067006843
83	0xbd0c286c	-0.034218237
84	0xbd199bf1	-0.037502233
85	0xbcd4790b	-0.025936624
86	0xbc042cc1	-0.008067311
87	0xbd256e0f	-0.040388163
88	0xbc6e2199	-0.0145343775
89	0xbd2314d2	-0.039814778
90	0x3c049b0c	0.008093607
91	0x3bee0334	0.0072635654
92	0xbbaa6cc0	-0.0052009523
93	0xbcf45afc	-0.029828541
94	0x3bfc9424	0.0077080894
95	0x3c6b1e87	0.01435054
96	0xbce2fb44	-0.027707703
97	0xbc69632e	-0.014244838
98	0xbc9ac1d5	-0.018891254
99	0xbcf5d384	-0.030008085
100	0xbab525f8	-0.001382052
101	0x3d374f00	0.044753075
102	0x3ceb0110	0.02868703
103	0xbb8136c0	-0.0039432943
104	0xbcb6b945	-0.02230514
105	0x3c81aa94	0.015828408
106	0x3b8dd840	0.0043287575
107	0xbcca63bb	-0.024705758
108	0xbcaab1e4	-0.020836778
109	0xbd2bc21c	-0.041933164
110	0x3d3e4f21	0.046462182
111	0xbd4330ee	-0.047654085
112	0xbd031360	-0.0320009
113	0xbd0e08e0	-0.034676433
114	0xbd3072ae	-0.043078117
115	0x3bc1272c	0.005894562
116	0xbc7afcb7	-0.015319041
117	0xbcc44c1a	-0.02396207
118	0xbc819db3	-0.015822267
119	0x3ba7658c	0.005108541
120	0x3bb6ffb0	0.0055846795
121	0xbb96bdf8	-0.0046002828
122	0xbcf6da8e	-0.030133512
123	0xbd13930b	-0.036028903
124	0xbb73e950	-0.0037217923
125	0x3c8f29c5	0.017475972
126	0x3ca7bd5a	0.020476032
127	0x3ca9e29e	0.020737942
128	0xbc985a1d	-0.018597657
129	0xbce59015	-0.028022805
130	0xbcd74d4f	-0.02628198
131	0xbd46b141	-0.048508886
132	0xbd5ac35a	-0.053408958
133	0xbd45c379	-0.04828212
134	0xbd02321c	-0.03178607
135	0xbbb6d347	-0.0055793854
136	0x3c57f86c	0.013181787
137	0x3c5d18ac	0.013494652
138	0x3c853b5f	0.016263662
139	0x399e57d0	0.00030201534
140	0xbcc2406c	-0.02371236
141	0xbce8dd60	-0.028425872
142	0xbc96d717	-0.01841311
143	0x3c191f09	0.009345778
144	0x3bd65b84	0.006541671
145	0x3d114143	0.03546263
146	0x3c259d44	0.010108296
147	0xbcd855e7	-0.026408149
148	0xbd01ba01	-0.031671528
149	0xbd35b5d2	-0.04436285
150	0x3d27fb92	0.0410114
151	0x3d6599b8	0.0560548
152	0x3d17af18	0.037032217
153	0x3ce6424a	0.028107781
154	0xbb914e64	-0.0044343937
155	0x3c11d670	0.008901224
156	0xbc90d442	-0.017679337
157	0x39826200	0.00024868548
158	0xbcb1c13c	-0.021698587
159	0xbd3c1634	-0.045919612
160	0xbd07eb20	-0.033183217
161	0xbd01b472	-0.031666227
162	0xbd2672d3	-0.04063685
163	0xbd1a45a5	-0.037664074
164	0xbc395f58	-0.011314236
165	0x3b835d7d	0.0040089474
166	0x3c40aecb	0.011760424
167	0x3cb0de00	0.021590233
168	0x3d4eb5f4	0.050466493
169	0x3d57e795	0.05271109
170	0xbb775410	-0.0037739314
171	0x3b3535b0	0.0027650408
172	0x3a72d640	0.0009263493
173	0xbb2617c8	-0.0025343765
174	0xbcb3db66	-0.021955203
175	0xbcfc7c6a	-0.030821044
176	0xbd0ec814	-0.034858778
177	0xbc864592	-0.016390596
178	0x3b8937e1	0.0041875695
179	0x3cfd6558	0.030932114
180	0x3d0809e9	0.033212576
181	0xbd056ba3	-0.032573353
182	0xbc99b775	-0.018764237
183	0xbc8cd43e	-0.017191049
184	0x3d2c1f56	0.04202207
185	0x3d49022a	0.04907433
186	0x3d2638b6	0.040581428
187	0x3c868876	0.016422492
188	0x3c07fe20	0.008300334
189	0x3d155a80	0.03646326
190	0xbccc64ea	-0.024950463
191	0xbd1aa122	-0.037751324
192	0xbd4d3844	-0.050102487
193	0xbd953904	-0.072862655
194	0xbd067033	-0.032821845
195	0x3ca0d934	0.01963482
196	0xbd11ac63	-0.03556479
197	0xbd6d77fd	-0.057975758
198	0xbd2fe622	-0.04294408
199	0xbc05d816	-0.008169195
200	0xbb21390c	-0.0024600653
201	0x3a668dbc	0.0008794924
202	0xbc2f8e8f	-0.010715141
203	0xbbec76fa	-0.0072163315
204	0xbcd2f2e3	-0.025750583
205	0x3b8db126	0.0043240963
206	0x3ca25581	0.019816162
207	0x3bc54fe1	0.006021485
208	0xb964df40	-0.00021826942
209	0xbb022ec4	-0.00198643
210	0x3d0f9ed0	0.035063565
211	0xbc5d2468	-0.013497449
212	0xbcc89910	-0.024487048
213	0xbc4eab80	-0.012614131
214	0xbbdc500e	-0.0067234104
215	0x3cabae1a	0.020957042
216	0xbd1fb6fd	-0.03899287
217	0xbd17e1e9	-0.03708068
218	0xb6b78000	-5.468726e-06
219	0x3a2876b8	0.0006426382
220	0x3bdaed49	0.0066811186
221	0x3c414744	0.011796776
222	0xbcde94fe	-0.027170654
223	0xbc06d940	-0.008230507
224	0x3b8adb3d	0.004237561
225	0x3d765f59	0.060149524
226	0x3c8a1264	0.016854472
227	0x3bb710af	0.0055867056
228	0x3d14aaa3	0.036295544
229	0x3d45e25d	0.04831158
230	0x3caa3413	0.020776784
231	0xbc97d2a8	-0.018533066
232	0x3b0760c8	0.0020657051
233	0xbbbfcf87	-0.0058535966
234	0xbc360314	-0.011109132
235	0xbd3f2b87	-0.04667237
236	0xbd0520b0	-0.032501876
237	0xbce735f9	-0.028223978
238	0xbd556ac9	-0.05210379
239	0xbc306f6a	-0.010768751
240	0xbc1fb1a0	-0.009746939
241	0xbc056014	-0.008140583
242	0x3b0be8b0	0.002134841
243	0xbb959f3c	-0.0045661014
244	0x3c9126eb	0.017718753
245	0x3cec3a57	0.028836412
246	0x3cbcb088	0.023033395
247	0x3b8ac65c	0.004235072
248	0x3c90f97d	0.01769709
249	0xbc41afed	-0.011821729
250	0x3bd02aa8	0.0063527413
251	0x3c2da881	0.0105992565
252	0x3c54590d	0.0129606845
253	0x3c437fee	0.011932356
254	0xbca271d5	-0.01982967
255	0xba4d53f0	-0.0007832637

momentum_buffer f4 [20]
0	0xbc4da3bd	-0.012551245
1	0xbb500389	-0.0031740388
2	0xbc01d51a	-0.0079243425
3	0xbb908d1a	-0.004411352
4	0x3b83d18c	0.0040227827
5	0x3c6a97b7	0.014318398
6	0x3c4e76b3	0.012601542
7	0x3bd45b89	0.0064806384
8	0x3c1e8e1d	0.009677437
9	0xbbbc6f6a	-0.0057505863
10	0x3bbbce56	0.0057313843
11	0x3b305854	0.0026908116
12	0xbc0eb3d4	-0.008709867
13	0xbbe5c0e4	-0.0070115197
14	0x3a397d68	0.0007075877
15	0x3c4ca1fc	0.012489792
16	0x3b19abae	0.0023448276
17	0x3c99dd82	0.018782381
18	0xbc9ca273	-0.01912043
19	0xbc55bb2a	-0.013045112

momentum_buffer f4 [50, 320]
0	0x3c864943	0.016392356
1	0x3d1394b0	0.03603047
2	0x3d13c027	0.036071923
3	0x3c882586	0.016619455
4	0x3c812088	0.015762582
5	0x3cb31a82	0.021863226
6	0x3cafe47a	0.02147125
7	0xbbe6faa0	-0.00704892
8	0x3c3e2f7c	0.011608001
9	0xb8ff78a0	-0.00012181816
10	0x3b98c6dc	0.0046623778
11	0x3c1173cb	0.008877705
12	0x3c6a3830	0.014295623
13	0x3c4203de	0.011841742
14	0x3c68f47d	0.014218447
15	0xbc4cc952	-0.01249917
16	0x3c1465a6	0.009057438
17	0xb8080280	-3.2427255e-05
18	0xbae8eb18	-0.0017770259
19	0xbc95184e	-0.018200066
20	0xbb61f73a	-0.0034479634
21	0x3a243f66	0.00062655506
22	0xbc5d418e	-0.013504399
23	0xbb974884	-0.004616799
24	0xbb29e1d1	-0.002592195
25	0xbbf651f2	-0.007517093
26	0xbbfcf06d	-0.0077190907
27	0xbc869640	-0.016429067
28	0xbbaf6b5d	-0.005353375
29	0xbbf71af6	-0.007541056
30	0xbc2e6318	-0.010643743
31	0xbb232d92	-0.0024898988
32	0x3d08b8b4	0.03337927
33	0x3d99ead5	0.07515494
34	0x3d943485	0.0723658
35	0x3d4bc6e3	0.04975022
36	0x3bda530c	0.006662732
37	0x3c1a1674	0.009404767
38	0x3d8f01aa	0.06982739
39	0x3d62b7a6	0.055350922
40	0x3d6d276c	0.057898924
41	0x3d0c7525	0.034291405
42	0x3d69c8ac	0.05707614
43	0x3cfc7ba2	0.030820671
44	0x3c09a8bc	0.008402046
45	0x3b9ccdfc	0.0047852974
46	0x3d6cdfe3	0.057830703
47	0x3d331331	0.043719474
48	0x3b5b2d46	0.0033443733
49	0x3c887751	0.016658457
50	0x3b139970	0.0022521876
51	0x3a278c99	0.0006391495
52	0xbc0a252d	-0.008431715
53	0xbc635cb7	-0.013877085
54	0x3b584cec	0.0033004833
55	0xbb316968	-0.0027070884
56	0x3c53f3a4	0.012936506
57	0x3b88a4b7	0.004170026
58	0x3c1148d0	0.0088674575
59	0x3a8f7895	0.001094597
60	0x3b19323f	0.0023375896
61	0xbc848640	-0.016177297
62	0xbc0eb512	-0.008710163
63	0xbbbafbfb	-0.005706308
64	0x3cbe7270	0.023247927
65	0x3c22b88d	0.009931696
66	0x3bb8e837	0.0056429165
67	0x3c292ff5	0.010326375
68	0x3c294de8	0.010333516
69	0x3b98f4d0	0.004667856
70	0x3c7061b9	0.014671736
71	0x3c2f687c	0.010706063
72	0x3cb00a87	0.021489395
73	0x3cfae258	0.030625507
74	0x3d0761d0	0.033052266
75	0x3c86368d	0.016383434
76	0x38d32000	0.000100672245
77	0x3ccca0d2	0.024979029
78	0x3c3b8385	0.011444931
79	0x3b6c0468	0.0036013369
80	0x3c9a337a	0.018823374
81	0x3bccdf29	0.0062521887
82	0x3ca764e4	0.02043385
83	0x3c596929	0.013269701
84	0x3bd48771	0.0064858724
85	0x3bd06a6a	0.006360342
86	0x3b2bc2ca	0.0026208633
87	0x3c4246e8	0.011857726
88	0xbb07e970	-0.0020738505
89	0x3bad36f0	0.00528609
90	0x3cd2918a	0.025704164
91	0x3d0a7a84	0.033808246
92	0x3c047596	0.008084675
93	0x3c463736	0.012098124
94	0x3c556116	0.013023635
95	0x3c5825c5	0.013192599
96	0xbcb5e159	-0.02220218
97	0xbd0206d9	-0.03174481
98	0xbd0d1ecc	-0.0344532
99	0xbc664da0	-0.014056593
100	0xbc8f84fe	-0.01751947
101	0xbc7a8e24	-0.015292678
102	0xbc2ed36c	-0.010670524
103	0xbc534e4a	-0.012897084
104	0xbc496b1a	-0.012293601
105	0xbcbc4ff2	-0.02298734
106	0xbc13d67e	-0.009023307
107	0x3ba2635a	0.0049556913
108	0xbac87602	-0.0015293958
109	0xbc6f5cce	-0.014609529
110	0xbc34d914	-0.011038084
111	0x3c952db1	0.018210264
112	0xbc136aa0	-0.008997589
113	0x3b802f91	0.0039119204
114	0x3bdb2098	0.006687235
115	0xbc231137	-0.009952835
116	0xbb7686f8	-0.0037617069
117	0xbaf0916c	-0.0018353886
118	0xbbae3a78	-0.0053170286
119	0xbbc1d4fa	-0.0059152814
120	0xbc187b79	-0.009306782
121	0xbc7d05d1	-0.015443281
122	0xbbc36dc1	-0.0059640114
123	0xbb17be58	-0.0023154225
124	0xbae09b71	-0.0017136169
125	0x3c093b14	0.008375902
126	0xbc390ace	-0.01129408
127	0xbae55bc2	-0.001749866
128	0x3b39fe94	0.00283805
129	0x39f0933e	0.0004588607
130	0xbaa0da84	-0.0012272154
131	0x3b892420	0.0041852146
132	0x3c5e77e2	0.013578387
133	0x3bb7cef4	0.0056093875
134	0x3c0f7719	0.008756422
135	0x3acba5cc	0.0015537082
136	0x3bf75d14	0.0075489376
137	0x396945e0	0.00022246642
138	0x3b3e582c	0.0029044254
139	0x3c209b02	0.009802582
140	0x3c398769	0.011323788
141	0x3c2c8a0f	0.010530963
142	0xbb0cc807	-0.002148153
143	0xbb04e98b	-0.0020280804
144	0xbc18bb53	-0.009322005
145	0x390527c0	0.00012698676
146	0x3c80175d	0.01563614
147	0xbbe456e2	-0.006968365
148	0x3d02a907	0.03189948
149	0x3c78b390	0.01517953
150	0x3c26a469	0.010171034
151	0x3c261c79	0.010138624
152	0x3bdd67d6	0.006756763
153	0xbb16d46c	-0.0023014797
154	0x3b9445dc	0.0045249294
155	0x3cd3313f	0.025780318
156	0x3c80beba	0.015715946
157	0x3c950391	0.018190177
158	0x3cd29dd0	0.025710016
159	0x3b603f92	0.0034217578
160	0x3c79740a	0.01522542
161	0x3d261120	0.040543675
162	0x3cefc340	0.029267907
163	0x3c8e007e	0.017334219
164	0xbc453ad4	-0.0120379515
165	0x3b51c114	0.0032005953
166	0xbc05f652	-0.008176403
167	0x3a5040e0	0.00079442374
168	0x3cfb7acf	0.030698208
169	0x3cd137a0	0.02553922
170	0xba3b95d8	-0.00071558123
171	0x3bd935a4	0.006628709
172	0x3c6a62d2	0.014305787
173	0x3cb158f3	0.02164886
174	0x3c24e26f	0.010063752
175	0xb8f86bd3	-0.00011845645
176	0x3d97b073	0.07406702
177	0x3d36687c	0.044533238
178	0x3c3cb8d5	0.011518677
179	0x3aaee2a2	0.0013342688
180	0x3d862a1a	0.06550999
181	0x3c8c33a6	0.017114472
182	0x3b529ea7	0.0032138021
183	0xbaee3d7c	-0.0018176283
184	0x3bfcb0ee	0.0077115213
185	0x3bbbee7c	0.0057352167
186	0x3c41359e	0.0117925685
187	0x3c39d706	0.0113427695
188	0x3c834e1f	0.016028462
189	0x3c0c530e	0.008564724
190	0x3cb44852	0.022007141
191	0x3cc11626	0.023570132
192	0x3b68a520	0.0035498813
193	0x3bfd11a6	0.007723051
194	0x3c1a32ba	0.009411508
195	0x3c078b94	0.008273024
196	0xbc7c0458	-0.015381895
197	0xbbec10d5	-0.007204155
198	0xbbc76ebc	-0.0060861986
199	0xbc075cb3	-0.008261847
200	0xbbab682a	-0.005230923
201	0xbb5e7a8d	-0.0033947558
202	0x3b95fe2a	0.004577418
203	0xbc10e244	-0.008843008
204	0xba6f53e0	-0.0009129625
205	0xba641de0	-0.00087019615
206	0x3b0fbbec	0.0021932079
207	0xbb03db88	-0.0020119864
208	0x3c957033	0.018241977
209	0x3bdcc474	0.006737286
210	0x3a0d6cf0	0.0005394956
211	0xbb786701	-0.0037903192
212	0x3ce8498f	0.028355388
213	0x3c70ab4e	0.01468928
214	0xbc566005	-0.013084416
215	0x3b8a51fc	0.004221199
216	0x3c84b045	0.016197333
217	0x3c37e3c9	0.011223742
218	0x3bec3f58	0.0072096996
219	0x3c589adc	0.013220515
220	0x3c9693c2	0.018381003
221	0x3c75e164	0.015007351
222	0x3c055fba	0.008140499
223	0x3c4e6d9e	0.012599377
224	0x3bdb7b46	0.006698045
225	0xbc8af3ed	-0.016962016
226	0x3c9e3557	0.019312544
227	0x3b6f4798	0.003651118
228	0x3c973eba	0.018462528
229	0xbb99ff75	-0.0046996423
230	0xbbe3b879	-0.006949481
231	0xba844270	-0.0010090601
232	0x3a85c737	0.0010206465
233	0x3ae33678	0.0017334959
234	0xbc2dccab	-0.010607879
235	0xbafc7478	-0.0019260785
236	0x3ae5b3e9	0.0017524931
237	0x3c3d987e	0.0115720015
238	0xbb94ee76	-0.0045450283
239	0x3cdf8c4c	0.027288578
240	0x3d13c66b	0.036077898
241	0x3cfb60c0	0.030685782
242	0x3c3d74b5	0.01156347
243	0x3cddbb06	0.027066719
244	0x3d51f103	0.051255237
245	0x3d415af8	0.047205895
246	0x3b87c8f6	0.0041438295
247	0x3bd8e36c	0.0066189077
248	0x3cbad484	0.022806413
249	0x3d2d23c6	0.042270444
250	0x3c752aee	0.0149638485
251	0x3c1c3546	0.009534186
252	0x3c2588a2	0.010103377
253	0x3cefb861	0.029262723
254	0x3d128658	0.03577265
255	0x3cb26916	0.021778625

momentum_buffer f4 [50]
0	0x3b8b3ef6	0.004249449
1	0x39841ccc	0.00025198457
2	0xbb769c7e	-0.0037629898
3	0x3b95091f	0.0045482065
4	0x3a19ffd2	0.0005874607
5	0xbb4ff9a0	-0.0031734481
6	0xbb2df938	-0.002654625
7	0xbb066264	-0.0020505423
8	0xba601bab	-0.0008549045
9	0xbb3e9f3e	-0.0029086615
10	0x3b08309d	0.002078093
11	0xb89ead95	-7.566359e-05
12	0xbb98bcb0	-0.004661165
13	0x3b3095ab	0.0026944678
14	0xbb8a3bad	-0.0042185397
15	0xbab2ded2	-0.0013646728
16	0x3b9ba572	0.004749947
17	0x3bb5f2c2	0.0055526206
18	0xbbc7628d	-0.006084746
19	0x39d8d89b	0.00041360114
20	0xbc0af934	-0.008482266
21	0xba3dfb48	-0.00072472217
22	0xbc209573	-0.0098012565
23	0x3ac4af92	0.0015005937
24	0x3b603eb0	0.0034217052
25	0x3b8510b7	0.0040608305
26	0x3a554dc2	0.0008136892
27	0x3b8d3394	0.004309127
28	0x3ad639d0	0.0016344134
29	0xbb523f70	-0.0032081269
30	0xbb56b924	-0.003276416
31	0x38fc9a30	0.00012045016
32	0x3b1c251d	0.0023825832
33	0x3b8b7e7a	0.0042570205
34	0x394dea28	0.00019637553
35	0xbb97d1c6	-0.0046331612
36	0x39de3f3a	0.00042390247
37	0x3ad820c6	0.001648926
38	0xbb1d8f40	-0.0024041682
39	0xbaf1c250	-0.001844475
40	0xbb0d2a86	-0.0021540239
41	0xba9c46ec	-0.0011922992
42	0x3b2e3966	0.0026584505
43	0xb69c77c8	-4.6631067e-06
44	0xbb221cf6	-0.00247365
45	0x3b15b428	0.0022842977
46	0x3ab26145	0.0013609311
47	0xbbe31bb2	-0.006930792
48	0x3b8cc70f	0.0042961906
49	0xba862346	-0.0010233901
