FinalModels/Sener/Data3Models/sener_dnn2-312-100-128-0.0001-0.1843.pt (torch, 74773 bytes, 48 tensors)

dnn.0.weight f4 [64, 72]
000000 49 3c f7 bc 4a 60 37 bd 58 4c d2 bd d5 e6 c0 bd
       -0.030180113 -0.044769563 -0.10268468 -0.09419028
000010 4e 2e da 3d 52 e3 a7 3c 46 0e 27 bd 3c 7c 78 bc
       0.10653363 0.020494137 -0.040785097 -0.0151663385
000020 d0 49 cc bd cd ad 03 3c c6 e6 49 3d 57 70 d3 3d
       -0.09975016 0.008037043 0.04929235 0.103241615
000030 18 e7 c5 3d b6 1e d1 bd 3b 29 9a bc 35 cb fa bd
       0.09663218 -0.10210936 -0.018818488 -0.1224579
000040 b9 df 61 3c 26 ef 73 bc ae 35 82 3d c1 cd d8 3d
       0.01378625 -0.01488856 0.06357895 0.105861194
000050 53 92 5b 3d e1 76 c9 bd 7b 5b 30 bd b7 44 80 3d
       0.053606343 -0.098371275 -0.043055993 0.06263106
000060 53 8c a0 bd eb 7a ef 3c b0 81 07 bd 62 40 03 bd
       -0.07839265 0.029233417 -0.033082664 -0.032043822
000070 8a 0e c2 3d ee e2 cc 3d 3f 0e e8 3c 58 80 a4 bd
       0.09475429 0.10004221 0.028327106 -0.08032292
000080 60 eb 03 3d 09 d2 01 3d 93 8c 8f bb 3b 36 fe bc
       0.032206893 0.031694446 -0.0043807714 -0.031031718
000090 60 15 be 3d 1a 19 43 bd ba c4 12 bd 63 9f 6c bd
       0.09281421 -0.04763136 -0.035832144 -0.05776919
0000a0 3e 08 98 3d 8e 38 37 bb 74 47 b7 3d 55 25 0a bc
       0.07423447 -0.0027957293 0.089491755 -0.008431752
0000b0 0c b4 aa 3d 3f 90 07 bc cd a8 73 3d a5 0d c5 3c
       0.083351225 -0.008274137 0.059487153 0.024054358
0000c0 55 ad b0 bd 7f 4a 76 bb ba 1f 8c bb 2e 23 d2 bd
       -0.086268105 -0.0037581024 -0.004276243 -0.10260616
0000d0 3a b5 a8 3c a5 f1 c8 bd 07 20 ba 3c 35 18 89 bc
       0.020594228 -0.09811715 0.02272035 -0.016735176
0000e0 da 8c 03 3c e7 ca 98 3d 32 10 81 3d e5 4f f8 bc
       0.008029187 0.074605756 0.06301917 -0.030311534
0000f0 77 a7 ab 3c 8a b5 1c 3d 1b 54 4e 3d e4 5f 0e 3d
       0.020953877 0.038259067 0.050373178 0.034759417
000100 16 8c 48 3d 95 98 04 bd f6 7c 96 3d 6a b3 a9 bd
       0.04896172 -0.032372076 0.07348053 -0.08286174
000110 06 0c 5b 3d b4 1b 84 3d ba 79 04 3d 69 49 13 3d
       0.053478263 0.064505965 0.03234265 0.03595868
000120 15 8c 23 3c 9e 2d 8c 39 7a 60 25 bd 86 b0 47 3c
       0.009982129 0.00026736868 -0.04037521 0.012188083
000130 45 de 91 3d 25 5b 98 bd 95 8c 21 bd 5f b5 3c bd
       0.07122473 -0.074392594 -0.03944071 -0.046071406
000140 0b 80 40 3d e6 de d9 3c d0 87 28 bc 8c 51 2b bd
       0.04699711 0.026595544 -0.0102862865 -0.041825816
000150 66 56 00 39 eb c1 1b af 39 75 9d 3d fa 0a a1 bb
       0.00012239217 -1.4166061e-10 0.07688374 -0.0049146386
000160 8f 70 8d 3d 8d bb 91 ba 1b ac a1 bd 29 8a 37 bc
       0.069062345 -0.0011118517 -0.07894155 -0.011202374
000170 61 d0 31 3d 6e 98 f9 bc a9 be a4 3d f9 7f 98 3d
       0.043411616 -0.030468192 0.08044178 0.07446284
000180 b7 fb 2d 3d 64 a8 6d bd f5 c4 5e bc 5c b9 81 ae
       0.042476382 -0.058021918 -0.013596763 -5.899167e-11
000190 e1 68 ac 3d cc dc 25 b8 97 58 80 3d 45 6f cf 38
       0.084184416 -3.95447e-05 0.06266897 9.891255e-05
0001a0 52 54 82 bc e8 34 74 bb ab 01 5f 3d cd 23 96 bc
       -0.015909348 -0.003726298 0.05444495 -0.018327618
0001b0 43 b6 57 bd 8b 63 fa 3b 25 b4 77 bd 9b 6b cf b9
       -0.052664053 0.007641261 -0.060474534 -0.0003956229
0001c0 47 39 94 bb 7b 4c 2b bd 2b 4d 52 bb 39 ad 58 bc
       -0.0045234296 -0.041820984 -0.0032089453 -0.013224893
0001d0 63 a3 8c 3d 2f 2b 70 bd 28 28 1c 3a a6 e1 ae 3d
       0.06867101 -0.058634933 0.00059569115 0.08539133
0001e0 81 e8 8b 3b db 27 5f bd 94 a9 b2 3c dc 57 2e 3d
       0.00426966 -0.05448137 0.021809377 0.042564258
0001f0 2a 7f a1 bd e2 59 f1 bc 11 58 97 b9 9f 84 68 3a
       -0.07885583 -0.029461805 -0.0002886658 0.000886986
000200 e7 25 3b bd 35 57 a4 3c e8 b8 15 ba 13 24 1f ba
       -0.045690443 0.020061115 -0.0005711452 -0.0006070744
000210 4f b7 aa bd 03 52 17 bc 1b 46 8c bc 1d dc 6b bd
       -0.083357446 -0.009235862 -0.017123273 -0.057582963
000220 16 42 4d 3d b6 45 72 bc da 0c 93 bd 94 d8 66 bd
       0.050111853 -0.014787128 -0.071801856 -0.05635889
000230 db a5 01 3b 85 53 d3 31 28 70 97 bd 8c d0 47 b8
       0.0019782695 6.1504033e-09 -0.07394439 -4.763952e-05
000240 f3 b0 09 bc f7 0f 5b 3a df eb af bd dd fc a0 3d
       -0.008404004 0.0008356566 -0.08589911 0.0786073
000250 13 88 f6 bb 8b cd f1 bc 2b 94 33 bd c5 22 8f 3d
       -0.0075235455 -0.029516956 -0.043842476 0.06989054
000260 1c e0 9b 2f 7e 73 8e bc 62 01 b7 bc 86 ea 8a ae
       2.8353575e-10 -0.017389055 -0.022339527 -6.317173e-11
000270 8e 6d 81 ba b9 d7 47 bc 9d 53 86 3d d0 48 a0 3d
       -0.0009874569 -0.012197428 0.06558917 0.07826388
000280 82 8a d1 bc 56 49 51 3d 95 b2 7c bd 62 d6 e9 2f
       -0.025578741 0.05109533 -0.061693747 4.253478e-10
000290 3f 39 05 3d c4 80 84 3d 56 53 0a 3b dc 1b 3f bc
       0.032525297 0.064698726 0.00211068 -0.011664357
0002a0 22 5b ab bb 3a b7 06 3c 2e 5a 90 bd 05 2d 0a bd
       -0.0052293697 0.008222396 -0.070484504 -0.03373434
0002b0 ac f0 2e 3a 50 e0 82 bb 06 e5 b0 3c e1 6b 14 3d
       0.0006673436 -0.0039940253 0.021593582 0.036235694
0002c0 7f 04 fa 3b a9 2d a8 bd 7c 4c 96 bc e9 2e 67 bd
       0.0076299305 -0.08211834 -0.018347017 -0.05644122
0002d0 ec aa c7 bc 4c ec 74 bd 93 32 8a bc 8e e7 78 3d
       -0.024373494 -0.059795663 -0.016869819 0.060767703
0002e0 a1 68 00 3a 70 95 17 3d 73 a8 59 3d 10 7f 2e bb
       0.00048984034 0.03700775 0.05313916 -0.0026626028
0002f0 c7 00 69 3d 74 32 59 3d 88 68 86 bd 05 6f db bb
       0.056885507 0.05302663 -0.065629065 -0.006696584
000300 0c 28 af 3d 05 5f 80 30 47 20 98 bd a9 d2 8e bd
       0.0855256 9.340232e-10 -0.074280314 -0.06973774
000310 69 2a ee 3c 0e 50 8f 3b da f9 36 3d 48 46 16 bc
       0.029072957 0.004373557 0.04467187 -0.00917203
000320 25 12 10 b4 04 b9 25 3d 96 65 72 bc 1c e6 26 3d
       -1.3417646e-07 0.040459648 -0.014794728 0.040746793
000330 71 06 df 3c 4c c4 3b 3d 08 89 25 bd 66 f5 90 bd
       0.027224751 0.0458415 -0.040413886 -0.07078056
000340 8b 4d 9b bd be 58 cb bc 2f fb 06 3d 11 77 00 bd
       -0.075831495 -0.024822589 0.03295439 -0.03136355
000350 48 ca 70 3d 52 f9 b6 3d 9e 48 7b bd 69 20 6a bd
       0.05878666 0.08934273 -0.06134855 -0.057159815
000360 2e 65 5d bd 85 6d 80 3d d0 84 b2 bd 66 d9 c8 bd
       -0.05405157 0.06270889 -0.08716738 -0.098070905
000370 6d 16 c0 bd 56 d8 0f 3b 7e d1 f0 bd 14 10 b4 3d
       -0.093792774 0.0021949015 -0.117587075 0.08792129
000380 65 e6 45 bd 0e ba 9a bd cf 77 8a 3d e2 c8 b5 bd
       -0.048315424 -0.07555018 0.06761133 -0.08876206
000390 3a 48 89 3d 3b a1 11 bd 11 67 aa 3d f1 f2 3e 3c
       0.06703229 -0.035554152 0.083204396 0.011654601
0003a0 01 93 df bc 94 21 3d 3d 44 66 2b bd ae a5 02 3d
       -0.027291777 0.0461746 -0.041845575 0.031896286
0003b0 57 fa f8 bd 37 f4 57 3d 2e 02 b6 3d 60 08 a7 3c
       -0.121571235 0.052723136 0.088871345 0.020389736
0003c0 1d cc 8b 3d c0 a7 3b 3d a0 78 3c 3d ee 4a 08 bd
       0.06826041 0.045814276 0.046013474 -0.033274584
0003d0 1a fe fe bd 93 c1 d3 bd cb 77 80 bc a0 bc 4b bd
       -0.1245081 -0.10339656 -0.015682122 -0.049740434
0003e0 48 18 7f 3b ca 14 d2 bd 89 fa b1 3d ac 90 3f bd
       0.0038924385 -0.102578714 0.08690364 -0.04676883
0003f0 5e de 3d bd 97 5b e7 bd 36 d9 e6 3d 42 de 98 bd
       -0.046354644 -0.11296766 0.112718984 -0.07464267

dnn.0.bias f4 [64]
000000 f4 fe df bd 09 0b 65 38 f1 fb d4 bc dd 94 d4 bd
       -0.109373 5.4608132e-05 -0.025999041 -0.10379956
000010 e5 40 d5 3d b8 f5 91 bc 22 ce 63 bd 04 b8 85 bd
       0.10412768 -0.017817363 -0.055616505 -0.06529239
000020 89 a0 20 bd 6e 8b 91 bd 65 ab 92 bc bc 39 76 3a
       -0.0392156 -0.07106672 -0.017903993 0.00093927584
000030 2c 49 41 b9 92 97 90 3d 56 df 0a bd 0d 3d 2c bd
       -0.00018433173 0.0706016 -0.033904396 -0.04205041
000040 19 c7 a3 bd f7 8f 77 3c 1e 1d f1 3c 75 27 06 3d
       -0.07996959 0.0151100075 0.02943283 0.032752473
000050 f3 c9 a1 bd 18 7b a8 bc cd 72 b8 3d 1a 7f 56 3d
       -0.07899847 -0.020566508 0.090062715 0.052367307
000060 af 34 c3 3d 0f 51 9a 3d 66 6c a1 bd e5 8c 12 3d
       0.09531533 0.07534992 -0.078820035 0.0357789
000070 7f d9 fc bd 10 46 04 b9 88 5a 8a 3d e3 99 d6 3d
       -0.123461716 -0.00012614601 0.06755549 0.1047857
000080 b1 89 cc 3d 66 26 0b 3d 7e 0d e7 bc aa ec d2 3d
       0.099872 0.033972166 -0.028204676 0.10299046
000090 5b 9b 8a bd 82 58 88 bd 4d 13 52 b0 63 49 e2 3d
       -0.06767913 -0.066575065 -7.6424983e-10 0.11049154
0000a0 bf b9 15 bb 80 bc 8f 3c 5c 64 3a 3d ef bd 1a 3d
       -0.002284631 0.017545938 0.045505866 0.03777879
0000b0 a1 1e b2 bd 4f f1 c2 3d 21 ae da bd e3 d3 81 3c
       -0.08697248 0.09518682 -0.10677744 0.015848106
0000c0 17 0f f2 bd 56 84 5e bd 5d b5 34 bd 34 cb 48 bd
       -0.118192844 -0.054325424 -0.044118274 -0.049021915
0000d0 6d 80 3b 3d 2c 02 ac bd ac 2a 6d 3c c7 03 86 3d
       0.045776773 -0.08398852 0.014475506 0.06543689
0000e0 89 8b 03 bd b8 6e 8e bd 1c 6d bc bd 70 3f 99 3d
       -0.032115493 -0.06954712 -0.092004985 0.07482803
0000f0 c7 a3 90 bd c1 e1 01 3d 6b 41 ab bd 6d 67 7d bc
       -0.07062488 0.031709436 -0.08362087 -0.015466553

dnn.2.weight f4 [6, 64]
000000 aa 33 c5 b9 1c ba 5d bd 5d 1f a7 3d b2 f7 f3 bd
       -0.0003761326 -0.054132566 0.08160279 -0.119124785
000010 e8 96 d0 3c 74 ef be 3d b5 a4 56 3d 0f 6d ad 3d
       0.025462583 0.09323016 0.05240317 0.08468067
000020 db e2 d1 bd 5b ae bd bd 6b 87 db 3c a5 df 42 3d
       -0.10248347 -0.09261771 0.02679797 0.047576565
000030 62 f5 0d bd f5 b0 6c bd d2 1b 9f bd 85 62 c8 bd
       -0.034657843 -0.057785947 -0.07768978 -0.09784416
000040 41 42 03 be 57 53 bd 3d 10 b0 92 bc d9 76 b9 3c
       -0.12818243 0.092444114 -0.017906219 0.022639679
000050 e9 50 80 3c 73 12 58 bd 1f a8 1a ba 8e 32 b5 3d
       0.015663581 -0.05275197 -0.0005899686 0.08847533
000060 43 bd 97 bd c8 6e 48 bd 11 98 ac 32 79 df be bd
       -0.07409146 -0.048933774 2.0092587e-08 -0.09319968
000070 71 5b 5f bd 3f 2a 7b 3d 32 de fd bc 60 95 8b 3a
       -0.054530565 0.061319586 -0.03098974 0.0010649376
000080 c1 e0 c5 bd 56 64 26 bc f6 4f 3f 3c 06 64 b5 3d
       -0.09662009 -0.010155758 0.011676779 0.088569686
000090 30 a5 f6 3d a8 8e ad bd 96 05 70 bd 5c 4c 47 3d
       0.12043226 -0.08474475 -0.058599077 0.048656806
0000a0 3f 59 9e bb 5b 80 f7 bd 48 1e 45 3d df a5 36 bd
       -0.0048324163 -0.12085029 0.04812458 -0.04459178
0000b0 f7 3a 8e 3c 9d 02 a9 3d b4 d3 a0 3c 07 2d dd 3d
       0.017362101 0.082524516 0.019632198 0.10799604
0000c0 52 30 0c 3d fa ae ee 3d e6 48 c3 3a 69 55 8f bd
       0.03422577 0.11654468 0.0014899045 -0.069987126
0000d0 d9 2b 51 bd 48 a8 7f bd 51 4c 39 bd 58 8f 16 b1
       -0.051067207 -0.062416345 -0.045238797 -2.1909354e-09
0000e0 a8 09 c2 3d 16 35 2d bd b4 cf 77 3d 30 3f 3a bc
       0.09474498 -0.042286955 0.060500816 -0.011367604
0000f0 55 ea 1c bd 7f ac 24 3d 8d 1d 92 3d 3b 8c 9f 3d
       -0.038309414 0.040203568 0.071345426 0.07790419
000100 af 85 d6 3d 45 7c ab bd 7a e3 b8 bd 5a 87 89 3d
       0.10474717 -0.08373312 -0.09027763 0.067152694
000110 49 0d ed bd 05 58 bb 3d 29 94 86 3c 51 93 27 3d
       -0.115747996 0.09147648 0.01642807 0.040911976
000120 89 0d 8e 3d 97 95 d1 31 ae 1b a7 bd b1 31 7d bd
       0.069361754 6.099707e-09 -0.08159576 -0.061814968
000130 12 93 a7 bd 04 7d 32 bd 3f 51 e1 bd e2 13 87 bc
       -0.08182348 -0.043576255 -0.110018246 -0.016488973
000140 b2 ee 65 bd 96 99 86 3d ea d4 36 3d c6 db 06 3c
       -0.05613584 0.06572263 0.044636644 0.008231109
000150 23 a8 21 3d c9 8a 54 3c 14 81 be 3c bb 4b e3 3d
       0.03946699 0.012972542 0.023254909 0.11098429
000160 bf c9 b1 3c 19 79 c7 3d 32 98 53 3d b4 1c cd 3d
       0.021702645 0.097398944 0.051658817 0.1001524
000170 bd d5 bb 3d 76 18 3f 3d 64 9c 00 3d 00 cd 58 bb
       0.09171627 0.046654187 0.031399146 -0.0033081174
000180 6a 7a d1 3d d7 67 d2 3b b1 04 50 3c 9a e1 52 bd
       0.10228427 0.00642107 0.012696431 -0.05148468
000190 25 bd 96 3d a3 c9 96 30 55 87 8b bb 2a d5 6c bd
       0.07360295 1.0971245e-09 -0.004258076 -0.057820477
0001a0 d5 33 c0 bd 38 8e c0 3d 02 21 fd bb 38 e3 cd bc
       -0.09384886 0.09402126 -0.007724882 -0.02513276
0001b0 ec 7f bc 3d 33 35 2a 3d 36 96 5e 3d 12 2b 05 be
       0.09204087 0.04155464 0.05434247 -0.13004711
0001c0 18 29 f6 3c 86 6c 02 be 5b ff e9 3d 79 2e a9 3d
       0.030048892 -0.12736711 0.11425658 0.08260817
0001d0 a0 19 9b 3d e6 6d 62 bd c9 3f de bd 80 02 a4 3d
       0.07573247 -0.05528059 -0.1085201 0.08008289
0001e0 5d 2c 83 3b cd e3 b3 3c 67 b2 37 3d 4a 05 48 bd
       0.0040030912 0.02195921 0.044847872 -0.04883317
0001f0 5a dc 97 3d 55 e8 3d bd 76 3e d4 bd 86 a4 f3 bc
       0.074150756 -0.046364147 -0.10363476 -0.029741537
000200 15 30 6f 3d 98 9a 28 3d 4c 54 6c bd 63 d9 91 3d
       0.058395464 0.041163057 -0.05769758 0.07121541
000210 bc 80 5b 3c a4 35 5a 3d 74 ec 72 bd 14 74 95 3d
       0.013397392 0.053273812 -0.05930753 0.07297531
000220 7b 18 cf 3d ae d3 59 3d d9 bd 2c 3d 09 79 97 bd
       0.10112091 0.05318039 0.04217324 -0.073961325
000230 ae 2a 8e bc 13 26 8f bd ed 5d 2a bd ec 15 5f bd
       -0.017354336 -0.06989684 -0.04159348 -0.054464266
000240 38 ca 55 3c d9 65 5c 3d 06 c8 81 bd 6d 6b 30 bd
       0.013048701 0.053808067 -0.063369796 -0.0430712
000250 ab ac 95 bd e6 a8 f3 bb 3d 53 0e 3e 80 b5 01 be
       -0.073083244 -0.0074359057 0.1389894 -0.12666893
000260 6c 98 4c 3d c6 0c 62 3d ac 02 62 39 99 56 d5 3d
       0.04995005 0.055187963 0.00021554035 0.10416908
000270 22 28 85 3c 00 b1 ab bd 56 4c c2 bc 9d 7c 43 3d
       0.016254488 -0.083833694 -0.02371804 0.047726262
000280 fd a7 48 bd bb 06 b9 bb 05 01 8a bd e4 55 52 3d
       -0.04898833 -0.0056465543 -0.06738476 0.051351443
000290 a0 5e b1 bd 2f b6 36 3d 0e 4f 0e bd e5 31 cf 3d
       -0.086606264 0.044607338 -0.03474336 0.101169385
0002a0 55 b0 97 ba 85 96 0f 3d 17 86 4d bd e2 a5 13 b2
       -0.0011572937 0.035055656 -0.050176706 -8.5942435e-09
0002b0 3f 0d e2 bd c4 0c df 3c b3 07 7e 3d f5 05 6d bd
       -0.11037683 0.027227767 0.06201906 -0.05786701
0002c0 58 8c d5 3d 1d ea 1c 3b a0 34 89 bd bd 0f a4 bc
       0.10427159 0.0023943253 -0.066994905 -0.020027036
0002d0 07 5d 85 3a 61 f9 db 3d 88 fc 07 bd 2f 01 9b 3c
       0.0010174819 0.107409246 -0.033199817 0.018921463
0002e0 ef c7 bf bd cf 6a d8 3b 77 be 6a 3d 34 9e fc 3b
       -0.09364306 0.0066045295 0.057310548 0.007709289
0002f0 e1 a2 a8 bb b5 1d 5d bd 50 ac ca 3d fa bf 51 bd
       -0.00514637 -0.05398341 0.09896147 -0.051208474
000300 be 66 ac bd 5a bc 97 bd 9e f3 40 bd 3c 08 9b bd
       -0.08418034 -0.07408972 -0.04710733 -0.0756993
000310 3a 12 02 3d 29 05 82 bc bd 73 66 bd 3f a2 2b 3d
       0.031755663 -0.015871601 -0.05626272 0.041902777
000320 69 69 c6 3d 51 70 d9 3c 25 ef 49 bd ba 8f d5 b5
       0.09688074 0.026542814 -0.04930033 -1.5911567e-06
000330 b6 59 90 3d 1f 5c af 3d 0f aa c9 bd 33 87 96 bd
       0.07048361 0.085624926 -0.09846889 -0.07350006
000340 4e 89 91 3c 1b b4 bb bd 22 34 ae bb d4 75 f3 bc
       0.017765667 -0.09165212 -0.0053162733 -0.02971927
000350 e5 34 fe 3b 91 a3 26 3d 12 9f dc bd b2 ef a9 bd
       0.0077577704 0.040683333 -0.10772528 -0.082976714
000360 56 9a a1 3c 77 7e 30 3c b4 4a a3 3c e5 4b 82 bc
       0.019726913 0.010772339 0.019933082 -0.01590533
000370 f5 5c b8 bd 36 14 9e bc d6 8c c4 3d 89 28 9b 3d
       -0.09002105 -0.019296747 0.09597175 0.07576091
000380 43 77 86 3d 0b 96 52 3d 75 92 aa bd c7 97 cd 3d
       0.06565716 0.051412623 -0.08328716 0.10038715
000390 8e aa f2 3d e4 df 53 bd ee 02 1c 3c 11 c6 d9 3d
       0.11848937 -0.05172719 0.009522183 0.10633481
0003a0 d4 8f a6 3c 81 33 03 3d fd 8a a9 bd 69 f6 77 3c
       0.020332254 0.03203154 -0.08278463 0.015134432
0003b0 e4 35 15 39 ef cd be 3d c5 6b b6 bc ca ce c6 3c
       0.00014229823 0.093166225 -0.022268185 0.024268527
0003c0 1f 3f cd 3d 3a a8 db bc 14 a4 13 bc a2 81 b2 3d
       0.10021805 -0.026813615 -0.009011287 0.08716132
0003d0 e7 e8 df bb 39 16 89 bd da 87 8b 3d da 7b 35 31
       -0.006833184 -0.06693692 0.06813021 2.6409368e-09
0003e0 ef 94 d1 3d 82 31 00 bd 2e 34 bb bd 61 c1 84 3d
       0.10233485 -0.031297214 -0.09140812 0.064821966
0003f0 c9 ef 79 bd 15 c6 a0 3d bb 81 2f bd 14 f4 2c 3b
       -0.061019693 0.07850281 -0.04284833 0.00263906

dnn.2.bias f4 [6]
000000 a6 89 f3 3d 93 29 eb bc 4d 0f 5d 3d ef a9 02 be
       0.11891489 -0.028706348 0.05396967 -0.12760137
000010 99 b7 cd bd 53 f9 99 3d
       -0.10044784 0.07518258

exp_avg f4 [64, 72]
000000 98 0a 8f b5 d0 b2 dc 35 bb bf 15 b7 65 62 a4 ba
       -1.0657413e-06 1.6443319e-06 -8.925733e-06 -0.0012541531
000010 1d 8f 47 38 56 6b 50 37 ac 57 0b 38 1a a2 b7 37
       4.7578582e-05 1.2422757e-05 3.3221833e-05 2.1890784e-05
000020 21 9f 86 36 b7 c9 09 37 cf 93 96 37 c2 97 a8 37
       4.0120362e-06 8.212802e-06 1.7950222e-05 2.0097828e-05
000030 4a 1f c9 37 34 30 1b 34 14 89 8f 36 8c 06 7c b6
       2.3975637e-05 1.4453036e-07 4.27769e-06 -3.7554737e-06
000040 33 d7 35 36 57 95 27 36 c3 57 e9 36 91 3a a9 38
       2.7096364e-06 2.4971866e-06 6.954158e-06 8.069457e-05
000050 c9 74 fb 37 e8 58 b2 36 6b ad 49 37 1d 6b ad 37
       2.9975914e-05 5.3151634e-06 1.2020911e-05 2.0673086e-05
000060 0a b7 9e 36 77 2e 89 37 15 0a 21 37 43 9a 05 37
       4.7300755e-06 1.635331e-05 9.598695e-06 7.963335e-06
000070 e6 b9 cb 37 ed e1 ad 37 c7 a8 69 37 72 aa a0 34
       2.4286051e-05 2.0728412e-05 1.3927179e-05 2.9926338e-07
000080 da 64 82 36 8c e4 9d 36 5d 14 b7 b4 be 9f 41 38
       3.8860426e-06 4.705571e-06 -3.4101222e-07 4.6163557e-05
000090 0e 8f c6 37 f1 cf 20 36 e4 67 5c 36 0c 5e bb 35
       2.3670054e-05 2.3962896e-06 3.2843027e-06 1.3959957e-06
0000a0 d2 75 8e 37 8e 1c aa 36 db 32 93 37 ff ea 2c 37
       1.6982583e-05 5.069719e-06 1.7547447e-05 1.0306713e-05
0000b0 56 d4 ad 37 e1 10 de 36 29 16 49 37 9b 94 bb 36
       2.0722084e-05 6.6180805e-06 1.1985693e-05 5.5903342e-06
0000c0 25 42 09 b7 07 ac b0 35 d5 77 ee 33 dc 9e 67 38
       -8.181237e-06 1.3163088e-06 1.1104536e-07 5.522264e-05
0000d0 15 cd 19 37 1d 79 dc b6 77 6f ba 36 e6 68 bb 35
       9.16726e-06 -6.5706104e-06 5.556208e-06 1.3963115e-06
0000e0 0e c4 7e 36 21 3e 26 37 fb b5 1d 37 cd 16 79 b5
       3.7963068e-06 9.908837e-06 9.4003e-06 -9.279291e-07
0000f0 53 3f ae 36 97 e7 c4 36 a2 24 0a 37 63 be a0 36
       5.192976e-06 5.868216e-06 8.23397e-06 4.7905355e-06
000100 5b 00 a7 36 d9 ae 57 b6 ee 71 f9 36 f8 35 0a b7
       4.977029e-06 -3.2139271e-06 7.4340414e-06 -8.238007e-06
000110 91 9d b5 36 d9 46 db 36 3f 02 5e 36 c9 58 76 36
       5.4125635e-06 6.5349564e-06 3.3081885e-06 3.6708536e-06
000120 55 f2 8c 35 6a c5 0e 33 98 18 8a b6 23 19 ab 35
       1.0501341e-06 3.32415e-08 -4.1155836e-06 1.2747809e-06
000130 62 dd f1 36 c3 82 fc b6 c2 f2 86 b6 7b 46 9d b6
       7.208132e-06 -7.525408e-06 -4.021772e-06 -4.6871696e-06
000140 1e 64 a0 36 5c 40 37 36 52 1c 91 b5 47 fb 8e b6
       4.7800268e-06 2.7306587e-06 -1.0811584e-06 -4.2611823e-06
000150 b9 6b 89 32 8f 5d c2 28 e0 70 02 37 60 26 0e b5
       1.5997886e-08 2.1578901e-14 7.774885e-06 -5.2954965e-07
000160 db 98 ea 36 ba 3f 09 b4 eb e5 05 b7 77 a3 9d b5
       6.991538e-06 -1.2782303e-07 -7.98095e-06 -1.1744986e-06
000170 42 52 94 36 6b 66 51 b6 22 6b 08 37 32 bf fc 36
       4.42032e-06 -3.1203042e-06 8.1311755e-06 7.5324433e-06
000180 1a 2c 91 36 ee 7a c5 b6 5d 4d be b5 09 e3 62 28
       4.326471e-06 -5.8853684e-06 -1.4178619e-06 1.2594751e-14
000190 9b b4 0e 37 22 1a c1 b1 0a 1b d5 36 62 65 61 32
       8.50591e-06 -5.6200102e-09 6.3510424e-06 1.31197755e-08
0001a0 88 c3 dd b5 3b de d9 b4 32 73 b9 36 6d 98 fe b5
       -1.652269e-06 -4.0581094e-07 5.52684e-06 -1.8968836e-06
0001b0 97 75 b3 b6 54 9d 59 35 38 ba cd b6 69 6e 4e b3
       -5.348305e-06 8.106774e-07 -6.131155e-06 -4.806353e-08
0001c0 67 3e 03 b5 1b f7 8e b6 c4 c1 bc b4 63 3c b9 b5
       -4.889211e-07 -4.2606966e-06 -3.5158712e-07 -1.3801149e-06
0001d0 26 48 e9 36 a6 8a c7 b6 57 e7 97 33 98 bb 10 37
       6.9523403e-06 -5.946803e-06 7.073566e-08 8.626746e-06
0001e0 59 4f f8 34 8f 92 b9 b6 24 e3 16 36 da 77 91 36
       4.6251333e-07 -5.5304913e-06 2.2483955e-06 4.3352893e-06
0001f0 0d c1 05 b7 84 9b 4a b6 e4 6e 19 b3 fd 7c dd 33
       -7.972366e-06 -3.0190868e-06 -3.5723943e-08 1.031385e-07
000200 33 fe 9b b6 5b 0c 0b 36 5e fa 91 b3 de a5 9a b3
       -4.6489527e-06 2.0719806e-06 -6.79763e-08 -7.201355e-08
000210 fd 50 0d b7 2b b8 82 b5 8c 40 ee b5 05 01 c4 b6
       -8.4231115e-06 -9.739355e-07 -1.7751167e-06 -5.841374e-06
000220 6c df aa 36 6a 81 ce b5 eb cd f3 b6 29 e3 bf b6
       5.0924045e-06 -1.538586e-06 -7.2659363e-06 -5.7186885e-06
000230 7e a2 6d 34 e5 ce d9 2a 30 01 fb b6 d4 31 e5 b1
       2.213146e-07 3.8690505e-13 -7.480521e-06 -6.670442e-09
000240 58 99 6e b5 c5 4f d1 33 f3 95 11 b7 2b 56 05 37
       -8.8885054e-07 9.746831e-08 -8.677586e-06 7.94748e-06
000250 3a 5f 56 b5 d2 fa 4a b6 9e c5 95 b6 77 61 ed 36
       -7.9859785e-07 -3.0246342e-06 -4.4635517e-06 7.074497e-06
000260 cc 53 68 a7 31 dc f1 b5 af 79 1a b6 5c c9 2a a8
       -3.2241894e-15 -1.8019983e-06 -2.3018617e-06 -9.4805586e-15
000270 74 3c f5 b3 ca 39 ab b5 32 ec de 36 76 c2 04 37
       -1.1419698e-07 -1.2757312e-06 6.6436123e-06 7.91309e-06
000280 75 61 30 b6 86 2e ae 36 a7 d3 d1 b6 52 21 d2 27
       -2.6282771e-06 5.19102e-06 -6.253325e-06 5.8322835e-15
000290 82 47 5f 36 e8 ed db 36 2b ce 7c 34 04 f3 a3 b5
       3.3271212e-06 6.5544045e-06 2.3544332e-07 -1.2215173e-06
0002a0 11 e8 16 b5 44 9b 69 35 81 60 ef b6 0f 6f 67 b6
       -5.6217056e-07 8.7025205e-07 -7.1339896e-06 -3.4486327e-06
0002b0 92 23 a9 33 09 e2 e8 b4 2f 6d 15 36 5c 4c 78 36
       7.876146e-08 -4.337783e-07 2.2266283e-06 3.6999327e-06
0002c0 73 4d 59 35 20 3c 0b b7 c6 db fe b5 0c 2a c0 b6
       8.0951503e-07 -8.299045e-06 -1.8988437e-06 -5.726941e-06
0002d0 c0 3b 28 b6 d9 71 cb b6 96 cf ea b5 91 b6 ce 36
       -2.506873e-06 -6.063125e-06 -1.7494774e-06 6.160532e-06
0002e0 0a 86 7c 33 8b 80 7d 36 be 0e b5 36 3d d9 9d b4
       5.879523e-08 3.777476e-06 5.3959366e-06 -2.940159e-07
0002f0 8f a8 c1 36 d6 ad b4 36 88 0e df b6 07 8f 3f b5
       5.771471e-06 5.384655e-06 -6.6476096e-06 -7.1361177e-07
000300 54 f5 10 37 c4 86 bc a8 2c 22 fc b6 fc dd ec b6
       8.640189e-06 -2.0930638e-14 -7.5141634e-06 -7.0591905e-06
000310 85 fb 47 36 07 1e fe 34 6f 90 98 36 09 d8 81 b5
       2.9799714e-06 4.7333035e-07 4.5467673e-06 -9.674123e-07
000320 6e 9a 49 ad 64 61 8a 36 e3 9b ce b5 fd 58 8b 36
       -1.14598175e-11 4.1240583e-06 -1.5393565e-06 4.1528824e-06
000330 7d 80 3b 36 60 80 9c 36 f1 39 8a b6 3a 5f f0 b6
       2.7939961e-06 4.664107e-06 -4.1194658e-06 -7.163643e-06
000340 4b ac 00 b7 08 45 2b b6 74 2c 62 36 1b 71 57 b6
       -7.66951e-06 -2.5521167e-06 3.37025e-06 -3.2103333e-06
000350 46 0d c8 36 a7 5e 17 37 87 aa d0 b6 b9 94 c2 b6
       5.9620097e-06 9.022339e-06 -6.218735e-06 -5.798964e-06
000360 b7 ed 82 38 59 da 82 39 15 f9 84 37 58 6e 31 bb
       6.243161e-05 0.00024958214 1.5851614e-05 -0.0027073827
000370 56 2b 3e bb 2b 91 89 b9 11 d4 88 b9 a4 e4 c5 38
       -0.002901753 -0.00026238835 -0.00026097943 9.43628e-05
000380 45 c0 ba 38 08 85 e7 38 ea 62 8b 39 f4 70 6e 39
       8.904984e-05 0.00011039717 0.00026585843 0.00022739527
000390 9b bc 5e 39 6b 3e 5f 39 7d cb 23 39 8e 03 38 39
       0.00021241831 0.0002129019 0.00015620697 0.00017548932
0003a0 59 fc 4d 38 2b 17 29 39 4c 99 bb 36 92 0a 11 3a
       4.9110826e-05 0.00016125727 5.5908804e-06 0.0005532886
0003b0 4c 85 89 39 03 3d 5b 39 a5 ee 25 39 77 d9 0d 39
       0.0002622999 0.00020908196 0.00015824528 0.0001352782
0003c0 47 8a b2 38 06 e5 b8 38 55 47 74 38 6c e8 20 38
       8.5134576e-05 8.816463e-05 5.8240566e-05 3.8363432e-05
0003d0 59 fa 5d 38 ff 82 55 38 0a 45 68 38 4b 79 0c 38
       5.292366e-05 5.0905157e-05 5.5377408e-05 3.3491564e-05
0003e0 a2 8f ee 36 ee e0 cc 35 fb 87 31 37 c4 7f 04 bb
       7.109674e-06 1.5264648e-06 1.0581683e-05 -0.0020217756
0003f0 f2 1e b9 b9 2f 7d 9a b9 56 b2 ee b8 a0 68 3b b9
       -0.00035309006 -0.00029466438 -0.00011381942 -0.00017872686

exp_avg_sq f4 [64, 72]
000000 cd dc 81 2e 81 69 29 30 20 d5 19 2e 25 7e e6 37
       5.905463e-11 6.163177e-10 3.4977465e-11 2.7476877e-05
000010 07 95 d7 32 8c 72 08 31 6d 09 d1 32 89 90 25 32
       2.5097064e-08 1.9855717e-09 2.4335089e-08 9.6371275e-09
000020 07 1b 5d 31 4e 48 88 30 12 6e 58 31 61 d6 04 31
       3.2175096e-09 9.915853e-10 3.1494705e-09 1.9330388e-09
000030 7f 5d 87 31 cf 38 ec 30 2f b6 33 30 37 72 98 30
       3.9396464e-09 1.7187406e-09 6.537872e-10 1.1091917e-09
000040 e4 dd 21 2e 21 dc 95 2f dd e5 f3 2d 24 5c be 33
       3.680424e-11 2.7259353e-10 2.7727981e-11 8.864325e-08
000050 a5 51 3d 32 8c 79 82 31 92 a6 9d 31 97 2c 85 31
       1.1019812e-08 3.7973162e-09 4.5882382e-09 3.8758787e-09
000060 c2 fa 33 31 8d 6b 61 31 22 46 45 31 0d 48 13 31
       2.6190468e-09 3.2802945e-09 2.8707139e-09 2.1432272e-09
000070 de 2d 90 31 19 0f 1d 31 7c 9d 1a 31 e8 28 99 30
       4.196166e-09 2.285509e-09 2.249947e-09 1.1143841e-09
000080 6d d2 91 2d f7 68 77 2e 97 5a 8d 2a 47 86 38 33
       1.657804e-11 5.6254525e-11 2.510949e-13 4.2962963e-08
000090 b9 e9 88 31 89 ac 69 30 ae 1c 5a 30 80 44 67 30
       3.984692e-09 8.5010093e-10 7.9348694e-10 8.4134655e-10
0000a0 ae f1 f4 30 3c 7b 0b 30 7c da cc 30 b0 36 16 31
       1.7822026e-09 5.074303e-10 1.490505e-09 2.185896e-09
0000b0 8f 96 4a 31 c6 c9 85 30 da ff 48 30 48 fb 5a 2f
       2.9480451e-09 9.734371e-10 7.3123163e-10 1.9916258e-10
0000c0 fd 3e ab 2d 8c 16 5f 2e 9e f0 b4 2c ae 6e a0 33
       1.9468422e-11 5.0724355e-11 5.1426216e-12 7.470713e-08
0000d0 8d 07 80 30 80 6c 24 2f 82 f9 66 2f e7 ea 2e 2f
       9.315372e-10 1.495426e-10 2.1007021e-10 1.5908662e-10
0000e0 ba 47 36 2f 36 17 31 2f a5 3d 75 2f 4b ef 97 2e
       1.6578286e-10 1.6106302e-10 2.2304521e-10 6.909192e-11
0000f0 95 fc 4c 2f 9f 8d d2 2e ec 2b 75 2f ba 52 45 2e
       1.8643427e-10 9.574851e-11 2.2298224e-10 4.486609e-11
000100 81 1f 2f 2d 78 8e 98 31 dd f9 ab 2d 03 78 98 32
       9.954594e-12 4.439979e-09 1.955141e-11 1.7749704e-08
000110 70 5f a4 2d 09 58 8a 2d 05 91 ba 2c 87 19 df 2c
       1.8687024e-11 1.5727879e-11 5.3025384e-12 6.3408753e-12
000120 99 54 9d 2b 3e 3a cf 29 c3 c9 00 2d 26 02 c6 2b
       1.1179002e-12 9.20275e-14 7.320758e-12 1.4069342e-12
000130 b5 f2 a2 2d 70 87 af 2d 39 59 f8 2c 28 a3 1e 2d
       1.8525051e-11 1.9955343e-11 7.0584896e-12 9.017488e-12
000140 b5 c4 23 2d 69 b3 89 2c 35 bb a2 2b a3 1b 08 2d
       9.309155e-12 3.9136927e-12 1.1562753e-12 7.7368415e-12
000150 93 a7 9b 29 69 7c c7 25 92 be b9 2d 93 ae 19 2b
       6.912452e-14 3.46053e-16 2.1116695e-11 5.459879e-13
000160 95 9f 9a 2d 66 f4 4e 2a 68 65 c2 2d 20 66 b3 2b
       1.7578642e-11 1.8381268e-13 2.210028e-11 1.274706e-12
000170 94 54 10 2d 82 e1 a7 2c 62 d3 c8 2d 2b d0 af 2d
       8.204232e-12 4.771462e-12 2.283124e-11 1.9987642e-11
000180 0b 74 0b 2d 95 e5 66 2d b8 d2 e1 2b 73 bf 11 25
       7.927002e-12 1.3124964e-11 1.6045698e-12 1.2641611e-16
000190 1e 50 d9 2d ce 5c 5f 29 63 42 83 2d e7 3b 91 29
       2.4705623e-11 4.9596442e-14 1.4922457e-11 6.449685e-14
0001a0 72 4e 09 2c d6 82 f1 2a 6c e6 4f 2d db e6 24 2c
       1.9512417e-12 4.2900985e-13 1.1817752e-11 2.3433952e-12
0001b0 eb e2 44 2d 2b eb 6b 2b 18 57 77 2d c6 7e f4 29
       1.1191696e-11 8.381513e-13 1.4059663e-11 1.08577684e-13
0001c0 22 aa 0e 2b 54 15 08 2d 64 c4 d5 2a 2d 57 da 2b
       5.068464e-13 7.735441e-12 3.7972674e-13 1.5514028e-12
0001d0 c2 23 99 2d 7c f4 6a 2d fb 05 14 2a 31 c4 de 2d
       1.7409966e-11 1.33556464e-11 1.3147116e-13 2.5325604e-11
0001e0 17 9d 07 2b e0 20 50 2d f7 62 50 2c 80 e8 0b 2d
       4.817964e-13 1.1830731e-11 2.9613514e-12 7.952861e-12
0001f0 36 08 c2 2d 30 c6 9f 2c 6f c5 d5 29 8f 16 36 2a
       2.2058893e-11 4.541055e-12 9.4933494e-14 1.6172674e-13
000200 67 8c 1c 2d 78 ff 39 2c 5e 00 11 2a 22 6a 15 2a
       8.898749e-12 2.6431895e-12 1.2878714e-13 1.327068e-13
000210 73 9d d5 2d ca 5b 90 2b 53 e4 16 2c 0c 03 64 2d
       2.4285218e-11 1.0257292e-12 2.1443027e-12 1.2960976e-11
000220 94 9b 35 2d 5b 73 fa 2b a3 34 a5 2d 4a 0f 5c 2d
       1.0323204e-11 1.7795586e-12 1.8781704e-11 1.2508947e-11
000230 85 3f 95 2a c6 a9 04 28 a7 b8 ad 2d 16 98 6a 29
       2.6511792e-13 7.364286e-15 1.9749825e-11 5.209035e-14
000240 33 5d 82 2b e9 45 30 2a 90 14 e1 2d 4d fa c0 2d
       9.262924e-13 1.5656195e-13 2.558867e-11 2.1939029e-11
000250 52 29 68 2b b3 36 a0 2c 9b 9a 12 2d 60 c9 9d 2d
       8.24803e-13 4.5535463e-12 8.3334685e-12 1.7938262e-11
000260 ab 2f 81 25 27 f0 19 2c a2 65 57 2c 27 5a a2 24
       2.2410234e-16 2.187592e-12 3.0609755e-12 7.0409025e-17
000270 7e 4e 41 2a 1a 30 c6 2b 0a b3 8d 2d 8c 86 bf 2d
       1.7169076e-13 1.4082097e-12 1.6109353e-11 2.1773937e-11
000280 49 3b 82 2c c3 6c 3b 2d 06 b8 7f 2d 38 ac fc 25
       3.701404e-12 1.0653869e-11 1.4535933e-11 4.3831732e-16
000290 4d 07 b9 2c 84 79 8a 2d b8 24 9c 2a 93 08 bc 2b
       5.258827e-12 1.5742747e-11 2.7736645e-13 1.3360583e-12
0002a0 21 ae 22 2b 52 bf 7e 2b 04 13 a0 2d bc 77 c3 2c
       5.7795614e-13 9.050444e-13 1.8198339e-11 5.5555265e-12
0002b0 7e ae 1c 2a 7f 09 00 2b fc 8f 4d 2c 2a ea d9 2c
       1.3916122e-13 4.5487914e-13 2.921218e-12 6.1935084e-12
0002c0 58 8e 6b 2b dd 21 d0 2d ca 21 25 2c 13 97 5c 2d
       8.3686313e-13 2.36619e-11 2.3466667e-12 1.2539097e-11
0002d0 17 3f 73 2c d1 bb 72 2d d8 02 14 2c bc 57 79 2d
       3.4567399e-12 1.3797811e-11 2.1033644e-12 1.4173492e-11
0002e0 3c be 06 2a f6 12 e1 2c c6 cb 47 2d f1 f1 b8 2a
       1.1967592e-13 6.3969897e-12 1.1357087e-11 3.2852846e-13
0002f0 c7 76 5f 2d f3 1a 47 2d 3e d8 8d 2d 23 4e 4e 2b
       1.2702456e-11 1.1317824e-11 1.6125875e-11 7.329434e-13
000300 81 60 df 2d 97 b3 1e 27 48 13 af 2d 58 33 9d 2d
       2.5395021e-11 2.202426e-15 1.990376e-11 1.7871635e-11
000310 fb b0 9c 2c cb 7d 0a 2b 53 07 17 2d 67 44 8f 2b
       4.4534355e-12 4.920202e-13 8.5849826e-12 1.0179747e-12
000320 82 6f a9 28 72 35 01 2d 7b 9c fa 2b 0f a5 02 2d
       1.8811128e-14 7.344668e-12 1.7807e-12 7.426295e-12
000330 e2 6a 8e 2c 06 60 1d 2d 0e fb 00 2d 7b 38 a1 2d
       4.047749e-12 8.945738e-12 7.331703e-12 1.8328663e-11
000340 1d 65 b5 2d 84 99 79 2c e8 b3 bc 2c d0 3f af 2c
       2.0622221e-11 3.5470247e-12 5.363255e-12 4.9808838e-12
000350 0f f7 6b 2d b5 15 f1 2d 3b 55 7d 2d 53 3f 61 2d
       1.34130615e-11 2.7408168e-11 1.440031e-11 1.280383e-11
000360 4f 4e 34 33 a8 7a 09 35 b4 53 29 33 29 9f a4 3c
       4.1980737e-08 5.1214965e-07 3.9424506e-08 0.020095425
000370 41 fd 21 38 ac 5c 08 36 45 38 11 37 fa 98 08 36
       3.8621252e-05 2.0319521e-06 8.655775e-06 2.0354623e-06
000380 cd ce 3d 36 fa fa bc 35 8e 3f f3 35 4f 5f c6 35
       2.8283569e-06 1.4080135e-06 1.8123408e-06 1.4779888e-06
000390 59 ff b8 35 c5 a2 c7 35 03 4f a0 35 5f 4b 84 35
       1.3783384e-06 1.4874028e-06 1.1943924e-06 9.856702e-07
0003a0 8e 54 ef 32 bd 70 bd 34 f6 44 fe 31 c9 5a 06 39
       2.7861713e-08 3.528602e-07 7.400213e-09 0.00012813056
0003b0 03 0b 25 37 19 3a b4 36 49 f5 61 36 30 87 1c 36
       9.83733e-06 5.3711815e-06 3.3670387e-06 2.33245e-06
0003c0 e6 9c e0 35 28 72 c5 35 80 95 b2 35 7c 05 9f 35
       1.6734964e-06 1.4710868e-06 1.3305544e-06 1.1848019e-06
0003d0 6a 60 a0 35 b3 b6 8c 35 06 96 88 35 af b4 75 35
       1.1948989e-06 1.0483985e-06 1.0176452e-06 9.153254e-07
0003e0 5b a4 6a 31 8b f8 bb 32 28 12 f3 2f c6 f9 b7 37
       3.4144907e-09 2.188269e-08 4.4214343e-10 2.193161e-05
0003f0 b5 01 cf 35 9c 7a 7a 35 5f 32 29 35 89 17 ac 34
       1.5423199e-06 9.331068e-07 6.3030706e-07 3.205462e-07

exp_avg f4 [64]
000000 8d 4f e0 36 56 f9 01 32 94 38 33 b6 6b 40 4b 39
       6.684981e-06 7.565481e-09 -2.6706011e-06 0.00019383586
000010 3b 76 9e b8 e4 76 f2 b5 f7 63 bd b6 cd ec dd b6
       -7.556049e-05 -1.8065007e-06 -5.6442764e-06 -6.6138805e-06
000020 52 7d cd b7 71 55 f1 b6 5f e7 45 38 83 dc e9 33
       -2.4496261e-05 -7.1923064e-06 4.718394e-05 1.0890019e-07
000030 ae 77 c9 b2 b8 34 3a 36 75 e6 19 38 13 7e 47 38
       -2.3453904e-08 2.7746846e-06 3.6692672e-05 4.7562713e-05
000040 75 b3 88 b8 03 e5 bc b7 2b 4a c7 b8 e7 0f 5c 36
       -6.518412e-05 -2.2517988e-05 -9.502874e-05 3.279181e-06
000050 8c c0 b6 36 c7 20 8a 35 57 0a 84 36 f2 84 7c 38
       5.446438e-06 1.0291341e-06 3.9351103e-06 6.0205297e-05
000060 e8 90 01 38 67 9c db 37 aa b1 05 b7 9d 17 3b 39
       3.089095e-05 2.6179665e-05 -7.968783e-06 0.00017842506
000070 a4 32 14 39 c0 58 8d b2 45 88 e5 36 31 d1 e4 36
       0.00014133245 -1.645492e-08 6.8405957e-06 6.8192826e-06
000080 74 43 a5 38 47 e3 b4 36 02 b3 18 b6 8c 38 1a b8
       7.880377e-05 5.3908766e-06 -2.2753961e-06 -3.6769125e-05
000090 c0 8c 9e b9 9c 3c e2 b6 b5 22 99 26 26 84 9a 37
       -0.00030240975 -6.7423807e-06 1.0625915e-15 1.8419767e-05
0000a0 75 57 88 b4 f7 21 40 38 df 0f dd 36 65 59 81 36
       -2.5395607e-07 4.5808e-05 6.588161e-06 3.8549065e-06
0000b0 3a 07 7b b8 1a 76 7d b8 37 f7 e1 38 e3 d6 06 b9
       -5.9849794e-05 -6.042989e-05 0.000107748834 -0.00012859287
0000c0 d6 6e be b7 94 2f 78 b8 a4 22 94 b6 93 7b 0e b9
       -2.2701377e-05 -5.917212e-05 -4.4147764e-06 -0.0001358821
0000d0 89 46 9a 36 12 91 ec 38 21 a4 25 b9 2a 69 de 36
       4.597769e-06 0.000112803784 -0.00015796769 6.6283583e-06
0000e0 72 cc 5a b9 39 79 2f b6 96 9a 3b 39 15 56 d3 b8
       -0.00020866262 -2.6147593e-06 0.00017891297 -0.00010077298
0000f0 34 4a c5 38 2a 7c 13 b9 a3 e5 bb 38 56 e0 84 b6
       9.4075134e-05 -0.00014065267 8.959628e-05 -3.9600227e-06

exp_avg_sq f4 [64]
000000 91 e9 b0 31 d0 81 73 29 c8 4b 85 2c 4d 50 99 36
       5.1488276e-09 5.4069433e-14 3.7885008e-12 4.5691036e-06
000010 9a 2d 02 37 28 d1 6f 2d aa 4d 57 2d d9 9e 8c 2d
       7.759221e-06 1.3632019e-11 1.223858e-11 1.59867e-11
000020 8a d2 85 36 1c 55 a2 2d 5f 50 1f 36 9c f3 3b 2a
       3.988219e-06 1.8455064e-11 2.3739628e-06 1.6693455e-13
000030 a3 a3 b3 29 43 49 24 31 31 67 42 37 77 9c e2 34
       7.977583e-14 2.3906785e-09 1.1587327e-05 4.2209624e-07
000040 0e 22 2f 36 38 31 13 33 a0 93 83 36 de 87 ef 30
       2.6096855e-06 3.427087e-08 3.92129e-06 1.7428154e-09
000050 ad 33 9d 30 90 5f 27 30 02 84 5a 30 b6 93 80 35
       1.1437941e-09 6.089005e-10 7.949553e-10 9.579733e-07
000060 95 3d 39 35 85 82 7b 36 45 e1 c1 2d 12 87 3b 37
       6.9007484e-07 3.7477887e-06 2.20416e-11 1.1177517e-05
000070 aa 20 49 35 6e 3c 9d 29 cc f2 94 2d f5 83 b4 30
       7.492587e-07 6.9826835e-14 1.6933475e-11 1.3134228e-09
000080 1a d0 16 35 f5 6e 95 30 01 37 ee 2f 99 94 0e 31
       5.618218e-07 1.0872713e-09 4.333103e-10 2.0748188e-09
000090 c5 93 c7 34 de 4f 91 2d d7 df cd 26 21 20 e9 34
       3.7174155e-07 1.652006e-11 1.4285404e-15 4.342301e-07
0000a0 f7 33 a5 2a 02 e4 f7 36 1e 48 97 2f 3d 55 e8 2c
       2.9345946e-13 7.3877172e-06 2.7517982e-10 6.6033e-12
0000b0 db eb 0b 37 9a 84 f0 36 02 dc 81 36 84 0d a7 36
       8.33996e-06 7.167994e-06 3.870112e-06 4.9785613e-06
0000c0 5f 80 1a 37 3f a6 63 37 be 86 b5 31 ae 08 a0 37
       9.209004e-06 1.3568962e-05 5.2831117e-09 1.9077528e-05
0000d0 f0 43 11 2f 0e 54 bd 36 4e ef 36 34 3c 25 8d 2d
       1.321181e-10 5.642424e-06 1.703713e-07 1.604638e-11
0000e0 da 4f ba 35 98 81 16 31 52 1e b2 35 1e 40 a8 34
       1.388132e-06 2.1901538e-09 1.3270858e-06 3.133909e-07
0000f0 88 85 0d 34 cc d0 0d 36 b3 fd bd 36 71 59 3b 2f
       1.3180227e-07 2.1132173e-06 5.6621734e-06 1.7039327e-10

exp_avg f4 [6, 64]
000000 57 d5 44 b3 33 66 b8 b6 6d 5e 0a 37 aa 46 01 b6
       -4.5828838e-08 -5.495525e-06 8.247426e-06 -1.926363e-06
000010 4e ec e5 36 12 e6 1d 37 ea 94 b2 36 00 8a 0f 37
       6.8522413e-06 9.411497e-06 5.3221493e-06 8.555595e-06
000020 59 e7 04 b7 c3 de 1c b7 49 13 a5 36 5d 57 a2 36
       -7.921678e-06 -9.35019e-06 4.9196283e-06 4.8381467e-06
000030 3f a9 6d b6 c7 af c4 b6 2b 63 c0 b5 15 d2 13 b7
       -3.5414266e-06 -5.8617184e-06 -1.4333976e-06 -8.810796e-06
000040 d5 9a c8 b6 1e 94 1c 37 50 d9 0f 35 a2 81 1c 36
       -5.9784893e-06 9.332811e-06 5.358788e-07 2.3321268e-06
000050 6e 6c da 35 50 c1 b3 b6 f1 85 96 b3 b1 dd 57 37
       1.6273823e-06 -5.3571202e-06 -7.009283e-08 1.2866615e-05
000060 b3 a8 f8 b6 05 f9 94 b6 c4 1a c9 2b 64 33 a8 b6
       -7.410615e-06 -4.4397334e-06 1.4289338e-12 -5.012773e-06
000070 a4 49 13 36 9a 91 d0 36 67 eb 54 b6 55 bd 03 34
       2.1947571e-06 6.2158333e-06 -3.1727484e-06 1.2269204e-07
000080 7f 97 23 b7 ec 52 8f b5 70 1e a4 35 44 12 16 37
       -9.75083e-06 -1.0678464e-06 1.2227811e-06 8.9449495e-06
000090 12 be 5b 37 8f a5 0f b7 ca 6b c7 b6 1e 56 f9 36
       1.3097671e-05 -8.562011e-06 -5.9432105e-06 7.4308036e-06
0000a0 1a dc 0b b5 0b a2 13 b7 82 2f a4 36 69 4b 98 b6
       -5.2101825e-07 -8.799611e-06 4.8931115e-06 -4.538732e-06
0000b0 fa a6 37 37 45 0d 75 37 24 39 3c 36 a8 4c 99 37
       1.0946527e-05 1.46062275e-05 2.8047443e-06 1.8274717e-05
0000c0 06 9e 45 37 be ba a2 37 63 54 35 34 7e c4 b5 b6
       1.1778908e-05 1.9398864e-05 1.6887638e-07 -5.417095e-06
0000d0 cf df ab b6 17 8b 9c b6 51 53 d1 b5 05 5a 9d aa
       -5.122252e-06 -4.6653545e-06 -1.5595962e-06 -2.7951266e-13
0000e0 84 fb 76 37 ce 88 90 b6 60 dd 6a 37 89 24 79 37
       1.4721303e-05 -4.3074606e-06 1.399903e-05 1.4850063e-05
0000f0 52 44 1d 37 ba f9 33 37 00 9b 5a 37 c3 27 04 37
       9.373836e-06 1.0727375e-05 1.3029901e-05 7.877071e-06
000100 cc 3a b8 3a 89 f2 0d b7 a1 f0 18 b7 33 a1 2f 3c
       0.0014055609 -8.4607245e-06 -9.115932e-06 0.010719585
000110 6d a5 95 3a c1 ec 1a 37 b9 cf e4 35 68 e7 8b 36
       0.0011417099 9.234239e-06 1.7047779e-06 4.169462e-06
000120 f7 e1 98 3a 67 5d a0 2a 66 eb 15 3b fb 3b d2 b6
       0.0011664022 2.848652e-13 0.0022875904 -6.2654703e-06
000130 54 bd 0a b7 0d 46 95 3a 3c d9 8b 3b 91 8f 99 3b
       -8.269522e-06 0.0011388675 0.0042678397 0.004686304
000140 ad ab 2f 3c cf ae 5c 3b f0 67 d6 b9 52 10 5d 35
       0.010722083 0.003367353 -0.000408947 8.2352665e-07
000150 17 15 7f 3a 0d eb dd 39 15 18 40 3a 16 47 c3 3b
       0.00097306207 0.0004232753 0.0007327807 0.005959402
000160 10 17 28 b7 f9 3c 23 37 d9 13 b0 36 11 cf e5 3b
       -1.001895e-05 9.729753e-06 5.2475193e-06 0.0070132096
000170 97 60 3d 3b a3 3c 9f 36 97 ae 57 36 b4 05 fb 39
       0.0028896683 4.7456283e-06 3.2139121e-06 0.000478787
000180 58 45 55 3a 12 4a 4e 3a eb d0 ee 35 79 1c cb 3a
       0.0008135638 0.00078693137 1.7793185e-06 0.0015496156
000190 6b 12 c0 b8 1a ef 01 29 89 a9 f7 b4 04 0b 21 b9
       -9.158704e-05 2.885114e-14 -4.6130688e-07 -0.0001535826
0001a0 13 f0 1e b7 02 f0 99 3b 54 2e 3f 38 c8 5d 2d b6
       -9.4734305e-06 0.0046978006 4.5581095e-05 -2.5833597e-06
0001b0 af be 9e 3b 73 8a 8f 3b b2 40 17 3b 8f 4f 84 3b
       0.0048445086 0.004380518 0.0023079333 0.0040378044
0001c0 4a 4d fd 3b 70 b8 c7 3b 0a c0 3f 37 e5 41 c6 b7
       0.007730161 0.0060949847 1.14292e-05 -2.3634124e-05
0001d0 63 87 fe 36 a8 ec 68 3b 6f 2d e7 3b c8 d0 07 37
       7.585551e-06 0.0035541449 0.0070549767 8.095238e-06
0001e0 fe 4d c6 3b e8 07 bb 39 a9 28 76 3b 08 2b 80 3c
       0.006051778 0.0003567331 0.0037560856 0.015645519
0001f0 a2 51 5f 3c 54 6f 58 3b 50 b1 27 3b 8d f1 89 39
       0.013630303 0.003302534 0.0025587864 0.00026310646
000200 98 37 f7 b9 e4 bf 8c 36 b3 63 c4 b6 2a 60 12 3b
       -0.00047152932 4.194664e-06 -5.8528617e-06 0.002233515
000210 89 9c 03 3c 2d 72 b4 36 a9 cd c9 b6 7e bf f7 36
       0.008032926 5.37771e-06 -6.014209e-06 7.3834663e-06
000220 c5 c4 a0 ba 40 32 b5 36 22 cb de 39 ba 0f fb b6
       -0.0012265673 5.40007e-06 0.00042494485 -7.4822137e-06
000230 8b 63 f1 b5 be d4 e1 b9 ee 9b 5d bb 2b c2 00 bc
       -1.798487e-06 -0.0004307385 -0.0033814865 -0.007858793
000240 34 2e 9f bb 72 31 14 bb 11 1d 22 3b ba 6b 91 b6
       -0.0048578028 -0.002261248 0.0024736563 -4.3338778e-06
000250 65 b0 b1 b9 77 39 18 b9 27 91 77 b9 43 dd 8f 3a
       -0.00033891495 -0.00014517257 -0.00023609829 0.0010975975
000260 02 bf 76 b7 e7 d2 8c 39 2e 43 e9 32 85 77 1a 3a
       -1.4707215e-05 0.00026860015 2.715532e-08 0.00058924436
000270 f3 90 8a 3b cc 1d 0e b7 15 cd 23 b6 02 ee 26 b9
       0.004228705 -8.470797e-06 -2.4408266e-06 -0.00015919658
000280 4c f4 a9 b9 38 5d 8d b9 5e e3 e7 b6 4b 43 1f ba
       -0.00032416207 -0.0002696307 -6.9108055e-06 -0.0006075396
000290 37 cd 06 3b d2 58 98 36 da 3c 6e b6 e2 35 83 3b
       0.0020569095 4.540293e-06 -3.5500184e-06 0.004004226
0002a0 82 93 0e b4 6f 1f 10 3b c1 3e af b7 62 2c 09 ac
       -1.3278444e-07 0.0021991392 -2.0890848e-05 -1.9493508e-12
0002b0 c9 42 bb 3b e4 7d 3f 38 7f 26 f1 ba d9 60 9c 3b
       0.0057147485 4.5655193e-05 -0.0018398314 0.0047722873
0002c0 8a a8 b5 3a 17 b7 09 3b fa 6c e1 b6 f1 58 ef 3b
       0.0013859433 0.002101367 -6.718209e-06 0.007304304
0002d0 64 0a e7 33 dd b6 84 bb 69 61 b2 ba 14 53 03 36
       1.0758666e-07 -0.0040501193 -0.0013609353 1.956888e-06
0002e0 86 c1 9e ba 64 10 fd b8 a7 07 a4 3a ce 78 df 3a
       -0.0012112118 -0.00012067033 0.0012514488 0.0017049552
0002f0 ea 87 78 3a 4e 48 8f 3b 4b 67 ea 3b 01 d2 c9 b8
       0.0009480702 0.004372633 0.0071534268 -9.623543e-05
000300 74 3e 0d b7 37 7e fb b6 14 c3 a0 b6 53 d9 e0 bb
       -8.418796e-06 -7.4950763e-06 -4.7910817e-06 -0.0068618446
000310 1c b2 c8 3b b6 fe d5 b5 5d 90 bf b6 9f 3d 8f 36
       0.006124748 -1.5943867e-06 -5.7090497e-06 4.2689057e-06
000320 92 06 c2 3b 29 e5 36 36 46 ec e5 bb 6c 5c b7 af
       0.0059211934 2.7253502e-06 -0.0070166914 -3.3353176e-10
000330 bf 5f ef 36 e2 aa 0f 37 e3 21 76 bb e6 27 44 3a
       7.1339014e-06 8.563251e-06 -0.003755682 0.0007482752
000340 7a 92 f6 ba f6 d5 19 b7 50 f9 2c bb 79 bd 47 b6
       -0.0018811964 -9.169327e-06 -0.002639372 -2.9763598e-06
000350 5e 45 50 35 c7 98 88 36 af cb 34 b7 07 0b 4c bb
       7.758698e-07 4.0709015e-06 -1.077626e-05 -0.0031134502
000360 ef 27 09 39 c6 c7 4f ba 49 2e 0a 36 1d d5 64 3b
       0.00013080215 -0.0007926192 2.0590544e-06 0.0034917064
000370 c7 a0 36 39 56 de 05 b6 c2 80 22 37 1f 44 fe 36
       0.00017416767 -1.994796e-06 9.685931e-06 7.57772e-06
000380 57 b3 e6 36 81 89 ac 36 13 d6 0b b7 fc 72 28 37
       6.875412e-06 5.142007e-06 -8.334889e-06 1.0040352e-05
000390 08 2e 7a bb bc 4e b0 b6 2a a5 86 35 29 c6 64 3a
       -0.003817441 -5.2543746e-06 1.0031847e-06 0.0008727038
0003a0 95 e2 0c 36 49 c5 c6 3b ab fc 0a b7 b7 3a d3 35
       2.0993514e-06 0.0060659987 -8.28427e-06 1.5737813e-06
0003b0 50 81 72 bb a3 ef 87 bb 01 ee 30 bb 61 7c 40 bc
       -0.0037003346 -0.00414844 -0.002699733 -0.011748404
0003c0 ca 74 98 ba 76 19 03 3b 34 22 72 b5 d5 b5 a5 b8
       -0.0011631486 0.002000419 -9.02018e-07 -7.901682e-05
0003d0 34 d7 37 b5 f2 fb dd ba 33 4c b3 3a 95 09 84 2a
       -6.8485974e-07 -0.0016936047 0.0013679325 2.345456e-13
0003e0 ea 61 cf bb 58 16 52 b6 53 89 89 b9 30 c7 18 bb
       -0.006328811 -3.1305444e-06 -0.0002623299 -0.0023312084
0003f0 0e 58 83 ba c0 16 88 bb 9a 59 9b 3b f7 3c 8e 34
       -0.0010020749 -0.0041531026 0.004740906 2.649392e-07

exp_avg_sq f4 [6, 64]
000000 90 1d ef 29 7c f2 4d 2d 2d df cd 2d 59 20 33 38
       1.06188604e-13 1.1706743e-11 2.3404912e-11 4.270705e-05
000010 1d 5e 44 36 b3 e6 01 2e 22 4c 43 2d 19 8c db 2d
       2.9261057e-06 2.9536106e-11 1.11013716e-11 2.4959633e-11
000020 56 35 e8 36 61 67 00 2e 02 0e c8 33 1b 05 27 2d
       6.920348e-06 2.919565e-11 9.315774e-08 9.493985e-12
000030 3b 9f cb 2c f7 57 65 2d a3 f6 ea 36 09 cb ab 31
       5.787285e-12 1.3036675e-11 7.0024557e-06 4.9998374e-09
000040 87 2b 4b 37 3c f6 ff 2d 45 f5 6c 36 49 69 5b 2c
       1.2109877e-05 2.9099494e-11 3.5309506e-06 3.1180217e-12
000050 1c 9f 06 2c 5f 6c 45 2d 58 52 13 2a 8d d3 f2 36
       1.9130869e-12 1.1222217e-11 1.3084791e-13 7.2367898e-06
000060 42 8a 88 33 52 03 0a 35 40 69 50 28 e8 6d 4b 37
       6.3581425e-08 5.141384e-07 1.1569142e-14 1.2125332e-05
000070 ba f0 bc 37 01 22 7d 2d be 27 ac 2c af d5 49 2a
       2.2523443e-05 1.4388935e-11 4.8929463e-12 1.7926523e-13
000080 f7 57 0a 2e cd 67 a0 2b 91 44 bc 2b e9 71 ed 2d
       3.1455696e-11 1.1397494e-12 1.3377234e-12 2.6994367e-11
000090 87 ee ad 34 23 d6 db 2d 80 b7 6a 2d 0e 05 ce 36
       3.2397313e-07 2.4992513e-11 1.3342105e-11 6.139867e-06
0000a0 e5 59 17 2b e0 0c 10 37 a4 1f 2a 2d 46 99 16 2d
       5.377073e-13 8.5860665e-06 9.670407e-12 8.560546e-12
0000b0 ed 0c 1a 38 db 29 bc 37 f8 59 e4 35 e9 aa 47 37
       3.67285e-05 2.2430837e-05 1.7013508e-06 1.1901117e-05
0000c0 21 7a 15 38 94 17 64 37 4c 61 77 2a 95 3e 4e 36
       3.563811e-05 1.3595349e-05 2.1971764e-13 3.073282e-06
0000d0 45 75 96 2f 8e 65 34 33 a2 4e d4 35 12 5f 9c 27
       2.7368166e-10 4.200188e-08 1.5818116e-06 4.3401773e-15
0000e0 60 ae 97 37 ae 79 0a 2d 27 da bf 37 fb 46 be 38
       1.8081802e-05 7.87141e-12 2.287056e-05 9.073127e-05
0000f0 e6 2b 8a 38 bc 04 b5 37 66 ca cf 36 b0 02 be 2d
       6.5885295e-05 2.1579086e-05 6.192643e-06 2.1601693e-11
000100 27 ab e4 36 72 4a d7 2d f4 85 f5 2d ec e4 6e 3e
       6.8148543e-06 2.447573e-11 2.7912762e-11 0.23329514
000110 72 3a 35 3c 9b 6a 02 2e be 0b 0f 2c 66 79 03 2d
       0.011061298 2.9653262e-11 2.032804e-12 7.473444e-12
000120 4a 0e d6 3c e1 3b 07 28 c6 eb a9 3a 9c 47 80 2d
       0.02612986 7.50699e-15 0.0012963943 1.4583716e-11
000130 85 d6 ce 2d 9f 2d 89 36 07 42 03 3d 41 2b f4 39
       2.3514754e-11 4.088229e-06 0.03204539 0.00046571533
000140 46 07 c8 3d 84 86 c1 38 a9 05 c3 3b 63 c6 28 32
       0.09767012 9.228013e-05 0.0059516025 9.823995e-09
000150 2a f5 79 36 b9 29 9f 34 c1 b8 6c 35 52 13 41 3d
       3.7246596e-06 2.9646415e-07 8.8185703e-07 0.047137566
000160 09 d8 bb 38 67 3d 3b 39 3b cc 3e 2d 6b c4 9f 3d
       8.9570945e-05 0.00017856584 1.0845598e-11 0.07801136
000170 a8 ef 9b 3d c6 db 21 2d 94 8b af 2c 41 10 8d 35
       0.0761407 9.20059e-12 4.9892954e-12 1.0510049e-06
000180 bf cd 95 37 06 b2 26 36 19 14 65 33 be 5b 42 36
       1.7857992e-05 2.483955e-06 5.3336496e-08 2.8961654e-06
000190 5f ea 9a 37 7b 44 16 27 25 4b 07 2b 29 50 af 3c
       1.8467368e-05 2.0853805e-15 4.806592e-13 0.021400528
0001a0 23 6c 03 2e 5b e3 4b 3d 3e 76 8c 33 c9 07 7e 2c
       2.9881996e-11 0.04977737 6.540766e-08 3.6099893e-12
0001b0 49 d8 10 3e 05 7d c6 3d 5e a9 1d 3c 17 f7 4e 3d
       0.14145006 0.09691814 0.0096229 0.050528612
0001c0 c2 ec 35 3e 98 14 95 3d f1 3f e2 32 43 9f 09 3c
       0.17766097 0.072793186 2.633894e-08 0.008399787
0001d0 c3 1b 83 30 54 59 05 3b e9 3d b6 3c 38 47 c7 2d
       9.539395e-10 0.0020347433 0.022246318 2.2655308e-11
0001e0 5d 4b bd 3d 1b 89 33 35 6d 19 a5 3d f5 58 03 3f
       0.0924289 6.688221e-07 0.0806149 0.5130761
0001f0 65 54 b7 3e 78 2f ab 3d cc 22 ca 3c a6 32 80 33
       0.35806575 0.08358663 0.024674796 5.9696774e-08
000200 47 58 c1 34 61 bd 04 2d 65 c3 64 2d 4e 2b 38 3b
       3.6013282e-07 7.545382e-12 1.3003686e-11 0.0028101983
000210 bf 39 b3 39 61 a3 00 2e a1 72 6f 2d 10 d8 a9 2d
       0.00034184565 2.924894e-11 1.361103e-11 1.9309027e-11
000220 b0 2e 13 39 bb 0c 48 2d 18 5c cf 38 0c ca ad 2d
       0.00014036405 1.13715105e-11 9.887683e-05 1.975755e-11
000230 e7 89 19 2c 57 5f 75 34 db 17 2d 3a c3 dd 05 38
       2.1819159e-12 2.2852088e-07 0.0006602981 3.1916203e-05
000240 8c 7e be 3a 1d 93 33 36 62 3f 21 38 cb 1e 92 2e
       0.0014533564 2.675871e-06 3.844442e-05 6.644781e-11
000250 55 79 4d 34 c1 90 bd 32 f8 e0 86 33 d5 5d 04 3a
       1.9136253e-07 2.2068322e-08 6.280783e-08 0.00050493825
000260 ea e4 47 33 5c 98 a1 34 50 77 be 29 12 a6 4b 3a
       4.6541494e-08 3.0099443e-07 8.4583924e-14 0.0007768582
000270 51 bb 82 3a a7 bd d7 2d 33 1b 6a 2c 06 54 51 33
       0.0009974038 2.4526893e-11 3.3268499e-12 4.8738023e-08
000280 de c3 96 34 a1 99 05 34 a0 37 ae 30 01 26 4e 34
       2.808219e-07 1.244248e-07 1.2675976e-09 1.9199071e-07
000290 de 7f 04 35 97 ae 16 2d 84 62 cc 2c 82 e2 2a 39
       4.9359903e-07 8.5652796e-12 5.808966e-12 0.00016296844
0002a0 fd e2 53 2a d9 a4 e8 39 c3 fc 05 31 3a 1e 2f 28
       1.8819317e-13 0.0004437331 1.9497726e-09 9.721006e-15
0002b0 49 04 da 3a 62 b9 73 3a 6c 7e 4c 38 ba fc 83 3a
       0.0016633357 0.00092973385 4.875513e-05 0.0010069825
0002c0 ee f4 f7 3a 30 79 ad 3a 6e 53 b2 2f 5f d1 87 38
       0.0018917599 0.0013234969 3.2437292e-10 6.4763e-05
0002d0 35 60 82 2b 16 4e a5 38 3a b1 c0 39 45 01 2c 2c
       9.263758e-13 7.882358e-05 0.00036753138 2.4443375e-12
0002e0 23 03 47 3a 88 14 01 33 4b a6 8f 3a c9 d7 da 3b
       0.0007591715 3.0053826e-08 0.0010959593 0.0066785556
0002f0 f2 ed 93 3b 20 1e 6b 3a d0 10 2b 3a bf 52 ca 31
       0.0045144493 0.00089690275 0.00065256376 5.888381e-09
000300 9c 01 a3 34 72 4e ae 2d 65 62 24 2d 40 a4 d7 3d
       3.0362287e-07 1.9816346e-11 9.344169e-12 0.10529375
000310 db 87 c0 3b e8 e6 06 2f ca 70 5b 2d 73 80 08 2d
       0.0058755702 1.2269263e-10 1.2473753e-11 7.759226e-12
000320 a6 21 48 3c 09 4f 89 2c c4 4b 68 3a 64 53 f9 28
       0.012215054 3.902549e-12 0.00088613876 2.7680718e-14
000330 20 12 a0 2d 28 d5 b2 34 e5 86 9c 3c b8 26 eb 39
       1.8197943e-11 3.3310175e-07 0.019107291 0.0004485154
000340 94 dd 51 3d 65 bc 11 38 fb a1 10 3b 5b 65 9b 30
       0.051236704 3.474615e-05 0.0022069204 1.1306541e-09
000350 c6 42 3b 34 00 3d d8 31 5b 3f b3 32 69 e9 9e 3c
       1.7440024e-07 6.2933623e-09 2.0867153e-08 0.019398408
000360 0e 4a 27 38 50 c6 99 38 f0 66 38 2c ec 95 0f 3d
       3.988487e-05 7.332547e-05 2.6205114e-12 0.035055086
000370 41 91 11 3d 70 8f 30 2c 72 b5 08 2e 25 46 68 33
       0.035538916 2.5090728e-12 3.1083976e-11 5.4080505e-08
000380 f4 63 a9 37 e6 63 ff 33 ad e7 9c 31 1a 5c c9 33
       2.0192914e-05 1.1892534e-07 4.566536e-09 9.376545e-08
000390 74 26 56 36 78 35 3f 2d e9 49 95 2b bd 7b 2a 3c
       3.1910868e-06 1.08689654e-11 1.0607601e-12 0.010405478
0003a0 a0 65 3d 2c 6a 5a b2 3c 01 2b af 31 3e ea 00 2c
       2.6914929e-12 0.021771628 5.0980593e-09 1.8319925e-12
0003b0 14 a4 84 3d c5 49 38 3d d0 d3 79 3b 3e d5 ce 3c
       0.06476608 0.044992227 0.0038120635 0.025248166
0003c0 39 94 a8 3d 07 3b 1d 3d 36 2a 31 31 2d 1d 2c 3b
       0.08231396 0.03838637 2.5780884e-09 0.0026262507
0003d0 0a 4a 08 30 98 cc d1 3a 15 0c 3b 3c a8 e1 a3 27
       4.958173e-10 0.0016006408 0.011416455 4.5486245e-15
0003e0 ec dd 27 3d f5 3c 1b 33 98 13 21 3d cf 22 81 3e
       0.040983126 3.614419e-08 0.039325327 0.2522187
0003f0 33 d0 2b 3e 90 17 19 3d f5 20 5b 3c 89 08 36 2f
       0.1677864 0.037375987 0.013374557 1.6555836e-10

exp_avg f4 [6]
000000 f9 61 4e 37 b8 b6 1c 3a 30 e8 4f 3a 69 ad 9f ba
       1.2301368e-05 0.0005978155 0.0007931022 -0.0012182418
000010 a9 c2 29 b7 36 02 1d 39
       -1.0118508e-05 0.0001497351
