FinalModels/Sener/Data3Models/sener_dnn1-312-100-128-0.01-0.2999.pt (torch, 17831 bytes, 42 tensors)

dnn.0.weight f4 [6, 72]
000000 b3 3a 0e bb 7c 55 ca bc 2c e6 04 bb 64 54 8b 3d
       -0.0021702468 -0.024698965 -0.0020278795 0.068032056
000010 76 7a 87 bd 9a 70 b0 bc 2b 9c 4d bd 66 75 2b bd
       -0.066151544 -0.021538068 -0.05019776 -0.041860007
000020 a6 7a ca bc b7 05 dd bc e5 6d 00 bd 5d cb fb bc
       -0.024716686 -0.026980264 -0.031354804 -0.03073662
000030 54 84 31 bd 7d 62 13 bd 72 29 22 bd 92 11 1f bd
       -0.04333909 -0.035982598 -0.039590307 -0.038835116
000040 31 2f 81 b9 aa 5b eb bb d7 72 5c b6 21 62 9e bc
       -0.00024639958 -0.007182558 -3.28494e-06 -0.0193339
000050 68 2f 37 bd ae 5b 08 bd f4 b9 6c bd 8c 14 11 bd
       -0.044722944 -0.033290558 -0.057794526 -0.035419986
000060 4f ff 0b bd 6d 33 12 bd bc cf ff bc 4f 8e 12 bd
       -0.034179028 -0.035693575 -0.031226985 -0.035780247
000070 7d 62 c9 bc ec 42 4a bd c5 79 17 bd 48 fd 1c bd
       -0.024583096 -0.049380228 -0.036981363 -0.038327485
000080 e0 0c 5f b4 8a 6d a4 ba b0 b1 b1 b1 ea e6 33 bd
       -2.0773177e-07 -0.0012544852 -5.1715787e-09 -0.04392139
000090 b0 0e 94 bc 94 07 31 bd dd 86 01 bd c8 db 10 bd
       -0.01807341 -0.043220118 -0.031622756 -0.03536585
0000a0 60 fe 92 bc 58 d4 a3 bc 65 4b c8 bc 1f 1e e8 bc
       -0.017943561 -0.019998714 -0.024450013 -0.028334675
0000b0 3d 64 6a bc 48 71 be bc 3c c1 9f bc e2 44 84 bc
       -0.014306125 -0.023247376 -0.019501321 -0.016146127
0000c0 2f 26 b3 35 e8 59 6c ba 2d 5c 8b 33 6b 22 01 bd
       1.3347652e-06 -0.00090160826 6.4894586e-08 -0.031526964
0000d0 31 81 aa bc ac 5d cd bc 35 77 90 bc cb fd 5e bc
       -0.020813556 -0.02506908 -0.017634967 -0.013610314
0000e0 32 42 02 bc 5e d6 77 bb b0 46 ec bb 9e 5f b8 bb
       -0.0079503525 -0.0037816982 -0.007210575 -0.005626633
0000f0 fc f8 d3 bb f0 b5 35 bb d9 9b 9f bb 79 76 0e bb
       -0.0064688902 -0.0027726851 -0.0048708734 -0.0021738096
000100 32 d6 fc bc 50 39 08 bd 91 8a 7f bc 43 8b 53 bd
       -0.030863855 -0.033257782 -0.015597002 -0.051646482
000110 9b ec 7b bd ab da bb bc ed 17 e4 bc 83 79 3f bd
       -0.06150494 -0.022931417 -0.02784344 -0.046746742
000120 62 8e 27 b1 fa 96 a9 32 10 96 52 30 a9 1e 50 3d
       -2.4382634e-09 1.9742846e-08 7.6610807e-10 0.05081049
000130 f1 16 d8 b9 ea 81 31 b3 8d 79 06 b3 1d 2c d2 31
       -0.00041215823 -4.132918e-08 -3.1309856e-08 6.1168195e-09
000140 64 ec 98 31 5a cc 30 b1 0d 73 61 b2 08 ae 27 33
       4.4506567e-09 -2.5727531e-09 -1.3122883e-08 3.9040998e-08
000150 e5 04 88 b2 63 5d cf 32 b8 c6 54 32 50 99 84 b2
       -1.583471e-08 2.4140439e-08 1.23852075e-08 -1.5436541e-08
000160 78 0c 20 b2 7f 1c bd b1 9c 83 84 31 bc 37 33 ba
       -9.316061e-09 -5.5038636e-09 3.856668e-09 -0.0006836613
000170 63 81 98 b3 39 9d 01 b3 55 83 0a b3 3e df a8 b2
       -7.101587e-08 -3.0178146e-08 -3.2250075e-08 -1.9659293e-08
000180 52 a2 cb b2 37 90 05 33 41 9e db 32 80 6d 52 2f
       -2.3706125e-08 3.109764e-08 2.5566921e-08 1.9138291e-10
000190 e4 8b 1c b3 f3 d1 cb b2 47 cd 28 b3 59 23 c3 b2
       -3.644881e-08 -2.3727784e-08 -3.9302247e-08 -2.2717062e-08
0001a0 c9 b2 6b b2 38 80 34 2f 92 64 85 31 02 b8 0c b4
       -1.3719451e-08 1.6416457e-10 3.882243e-09 -1.3105458e-07
0001b0 d1 2f a2 32 c9 81 a0 b2 ec 5f f6 32 90 1e 91 31
       1.8881027e-08 -1.8685471e-08 2.868179e-08 4.22353e-09
0001c0 e6 8a 88 b2 9e b0 8a 32 21 b1 8f b2 33 68 60 b2
       -1.5895647e-08 1.614563e-08 -1.672794e-08 -1.3062208e-08
0001d0 3a a8 ef b1 29 c0 10 32 de 77 0a 32 1a 8d 28 32
       -6.9749406e-09 8.425595e-09 8.059912e-09 9.81097e-09
0001e0 3e 7b bf 31 39 a9 80 32 75 39 d3 b1 b5 29 36 b9
       5.5728426e-09 1.4978115e-08 -6.1474403e-09 -0.0001737241
0001f0 15 97 cb 32 9b a7 38 b1 fa c3 e7 32 f0 60 14 b2
       2.3701014e-08 -2.6870797e-09 2.698106e-08 -8.636775e-09
000200 cd e2 94 32 f7 42 e7 b1 88 f9 a6 b1 e6 f6 1e b2
       1.7332605e-08 -6.730598e-09 -4.8596043e-09 -9.252949e-09
000210 9e f2 14 32 f6 8b b7 b1 ac 72 76 b1 9d fb a2 b1
       8.669899e-09 -5.3419127e-09 -3.5862895e-09 -4.7434257e-09
000220 2f ed 45 32 fa 1e e8 bc 3e 06 7e b2 4e 7b 56 bd
       1.15208385e-08 -0.028335083 -1.4786165e-08 -0.052363686
000230 c0 6c 90 b4 ca 08 80 b1 b0 44 ce 31 10 3e b3 b2
       -2.6901216e-07 -3.7262895e-09 6.003198e-09 -2.0866565e-08
000240 28 cd b6 b2 2e c9 1f 32 20 56 a8 32 fe 84 10 3e
       -2.1280883e-08 9.300761e-09 1.959694e-08 0.14113232
000250 05 3a a9 bc 47 68 3e ba f4 4c 0d bc df b9 1f bc
       -0.020657549 -0.00072634633 -0.008624304 -0.009748905
000260 b8 85 9d bc 6b 70 84 bb 48 e0 53 bc bc 48 49 b6
       -0.019228801 -0.0040417216 -0.012931891 -2.999367e-06
000270 55 22 a4 b8 71 87 53 ba ae 4e fc ba 1c d0 72 35
       -7.826524e-05 -0.00080691936 -0.0019249523 9.0454864e-07
000280 1d a8 24 32 9f 85 bb b2 e8 07 6e 32 97 45 37 3b
       9.584281e-09 -2.1830429e-08 1.3855221e-08 0.0027965063
000290 34 26 e4 bb 84 e4 46 bc 4d 50 29 ba d2 17 60 3a
       -0.006962562 -0.012139443 -0.0006458804 0.00085484714
0002a0 b3 3b 1f ba f2 59 17 ba 2d 70 8c b9 b9 6e 6a b9
       -0.00060742645 -0.0005773596 -0.00026786458 -0.00022357226
0002b0 77 90 b2 b8 20 3b a5 b9 2a 4c c6 b8 1f ae 0e b9
       -8.51461e-05 -0.00031515304 -9.4555624e-05 -0.0001360704
0002c0 17 de ca b1 f2 19 ce 31 a4 c6 ce 31 a0 a4 86 3c
       -5.9042224e-09 5.9983387e-09 6.017972e-09 0.016435921
0002d0 e4 2e 25 bb 7a 01 2a bb 7c ad 14 36 da ab e6 b6
       -0.002520495 -0.0025940822 2.21547e-06 -6.8745403e-06
0002e0 9d 44 ee b4 ae 8e 05 b7 11 66 8e b8 fb e7 49 b2
       -4.4380877e-07 -7.960638e-06 -6.790099e-05 -1.1752486e-08
0002f0 03 31 f3 b4 67 5a 8d b9 72 8e 58 b8 b7 03 79 b6
       -4.5297938e-07 -0.0002696097 -5.1631076e-05 -3.7106054e-06
000300 b2 99 c3 31 1a 59 37 b2 39 9c 84 b2 cd 01 3b 3c
       5.69272e-09 -1.0672261e-08 -1.5437864e-08 0.011414004
000310 03 ee 11 b3 f3 18 d9 b4 d5 12 69 33 bc 9c f7 b1
       -3.3976914e-08 -4.0437553e-07 5.4266668e-08 -7.2064648e-09
000320 08 12 26 b2 d6 d4 6f 32 95 f8 ec b2 3d 53 fb b2
       -9.6665715e-09 1.3960024e-08 -2.7587058e-08 -2.9258098e-08
000330 54 fa 5b b1 32 59 fa 31 92 d8 f6 31 f0 4b 89 b2
       -3.201099e-09 7.286098e-09 7.1841635e-09 -1.5983431e-08
000340 1a 3b 20 32 29 41 4a 39 f5 47 2d b2 da b4 63 bd
       9.326664e-09 0.00019288495 -1.00862865e-08 -0.055592395
000350 ff 52 04 bd a0 d3 60 b2 fd ae 18 31 a0 f9 8a 33
       -0.032305714 -1.3086634e-08 2.221838e-09 6.471532e-08
000360 06 e3 12 3f 24 93 3d 3f cd fb ba 3e 98 02 3f bd
       0.5737766 0.74052644 0.36520234 -0.046633333
000370 b8 43 bd be 9c 68 1f bd 5f a3 a6 be 1d 80 9a 3d
       -0.36965728 -0.038918123 -0.32546517 0.07543967
000380 72 6c 8b 3e a0 8f 17 3e ac 4a 84 3e e2 a7 73 bd
       0.27231175 0.14800882 0.2583822 -0.059486277
000390 e6 a4 7f bd 67 f2 90 bd 76 fb 90 3a 46 b2 a4 bd
       -0.06241312 -0.070774846 0.0011061269 -0.080418155
0003a0 81 48 69 3e a0 d2 07 3f 57 ef 82 3e c7 da f6 bd
       0.22781564 0.53055763 0.25573227 -0.12053447
0003b0 f7 8b e8 3e 50 d6 07 3e 7c cb b7 3d f3 3e 4f 3e
       0.45419285 0.13265347 0.089743584 0.20238857
0003c0 5b af a0 3d 10 6f 43 3d aa 78 17 3e dd e6 19 3e
       0.078459464 0.04771334 0.14792123 0.15029474
0003d0 85 ea b0 3e dd f4 4a 3e 43 05 68 3e 8c a4 98 3e
       0.34553924 0.1981997 0.22658257 0.2981304
0003e0 c7 1c ab 3e af 4e 44 bd 1a 18 4c 3e 4c 30 07 bf
       0.33420393 -0.0479266 0.19931069 -0.5280807
0003f0 87 3a 80 3e c3 dc 04 bf 0b 58 fb be a7 a0 11 bf
       0.25044653 -0.51899356 -0.4909061 -0.5688576

dnn.0.bias f4 [6]
000000 1c db 1d bd 31 ae 0f 33 dd ff dc bb 79 38 9a 3e
       -0.038539037 3.3453208e-08 -0.0067443685 0.3012121
000010 31 c8 ba bc de 9e 95 3c
       -0.022800537 0.01826423

exp_avg f4 [6, 72]
000000 ad 96 8f b4 3b c7 2e b6 9d 5a 80 b4 d8 50 e4 36
       -2.6745457e-07 -2.6043988e-06 -2.3907788e-07 6.804341e-06
000010 43 9a de b6 51 87 13 b6 79 b8 a9 b6 3c 33 8f b6
       -6.634074e-06 -2.1983471e-06 -5.058068e-06 -4.2676966e-06
000020 61 ea 28 b6 94 23 39 b6 fd 41 57 b6 15 40 53 b6
       -2.5170377e-06 -2.7587857e-06 -3.2075907e-06 -3.147875e-06
000030 ec e8 94 b6 cd e0 77 b6 11 7b 88 b6 07 70 86 b6
       -4.4378594e-06 -3.693672e-06 -4.0674427e-06 -4.006553e-06
000040 fc 48 12 b3 3a b1 4c b5 6a f4 75 b0 d7 09 02 b6
       -3.4059653e-08 -7.625382e-07 -8.9477814e-10 -1.9377237e-06
000050 46 5a 97 b6 34 f4 61 b6 e0 76 c4 b6 2e 9b 71 b6
       -4.51066e-06 -3.3669758e-06 -5.855094e-06 -3.6002125e-06
000060 26 da 69 b6 10 8a 74 b6 0d 1e 56 b6 77 88 75 b6
       -3.4846685e-06 -3.6439196e-06 -3.1905977e-06 -3.6587278e-06
000070 43 c4 28 b6 fc b0 a9 b6 fc 62 7e b6 bf ed 83 b6
       -2.514819e-06 -5.057196e-06 -3.7906566e-06 -3.9317815e-06
000080 09 de 89 ad a1 f3 2a b4 12 45 06 2c 77 ec 93 b6
       -1.56737e-11 -1.5921115e-07 1.9080887e-12 -4.4084695e-06
000090 58 b0 f6 b5 d5 40 94 b6 83 f4 58 b6 7d ab 75 b6
       -1.8379751e-06 -4.418291e-06 -3.2328833e-06 -3.6607664e-06
0000a0 ef 8c fa b5 ed bb 0c b6 c6 8c 2b b6 6a ad 47 b6
       -1.8667469e-06 -2.0971013e-06 -2.5562927e-06 -2.975425e-06
0000b0 bf 39 c9 b5 63 19 24 b6 f4 8a 0a b6 0a 0d e6 b5
       -1.4992473e-06 -2.4452681e-06 -2.0644484e-06 -1.714013e-06
0000c0 58 46 75 2f e1 b5 fe b3 d8 4e b1 2e e6 35 54 b6
       2.2307611e-10 -1.186088e-07 8.0630336e-11 -3.1621835e-06
0000d0 2d 54 10 b6 a9 2f 31 b6 93 4a fb b5 10 8c c6 b5
       -2.150667e-06 -2.6402797e-06 -1.8722661e-06 -1.4792913e-06
0000e0 1a c0 6e b5 7d 06 e6 b4 45 75 5b b5 08 b3 2c b5
       -8.8941454e-07 -4.284556e-07 -8.175451e-07 -6.433552e-07
0000f0 63 e0 43 b5 e0 df ab b4 69 11 17 b5 27 f3 88 b4
       -7.2969686e-07 -3.2014123e-07 -5.627722e-07 -2.550889e-07
000100 f7 54 59 b6 6d 39 5f b6 b7 3b db b5 5b 4f ad b6
       -3.2384976e-06 -3.3263016e-06 -1.6334151e-06 -5.16504e-06
000110 b4 8f cf b6 e5 2f 1e b6 c1 7d 41 b6 d6 b5 9e b6
       -6.18581e-06 -2.3571713e-06 -2.883244e-06 -4.7299354e-06
000120 aa 3f 96 ab 1a 7b a2 2a b7 80 6e ab 81 c1 ac 36
       -1.0675811e-12 2.88624e-13 -8.4733213e-13 5.1485263e-06
000130 a2 21 71 b3 a3 68 b6 ab be fd 00 ad 48 f4 91 ac
       -5.6142774e-08 -1.296092e-12 -7.3323e-12 -4.1482685e-12
000140 9a 06 5a 2b f0 2c 06 2c 53 8b bf 2a 9e ca 86 ab
       7.745832e-13 1.906749e-12 3.402509e-13 -9.57751e-13
000150 20 d1 68 2b a1 71 2c ac a7 d4 b2 2b d5 5a f5 ab
       8.2713177e-13 -2.4505747e-12 1.2706684e-12 -1.7433508e-12
000160 21 9d 06 2a e4 96 34 ab 40 19 2a 2b 41 45 c6 b3
       1.1956106e-13 -6.415825e-13 6.0431174e-13 -9.232691e-08
000170 cd 08 6f ac c8 ed 20 ad b6 e3 d2 ac 54 ac 1a 2c
       -3.3968828e-12 -9.147745e-12 -5.99384e-12 2.1980378e-12
000180 15 13 83 ac 5a d2 b4 2b 9c 21 47 a9 bc ab 40 2c
       -3.7253625e-12 1.2848154e-12 -4.4216028e-14 2.7380173e-12
000190 5e 39 da ab a8 ee 74 ab 24 b1 0c ac 35 c7 e5 ab
       -1.5505754e-12 -8.7017416e-13 -1.999353e-12 -1.632672e-12
0001a0 7c e7 a8 a8 18 38 6c 2a 2b 34 f2 2a e6 f9 f3 2d
       -1.8752137e-14 2.0980472e-13 4.3024034e-13 2.7736879e-11
0001b0 c6 50 6f 2b e0 51 5f 2b c6 54 9b ab 65 a1 5f 2b
       8.502195e-13 7.933914e-13 -1.1036942e-12 7.9449495e-13
0001c0 41 48 96 a9 f3 59 2c 2b 1a 52 12 2b c6 9e 12 2b
       -6.673872e-14 6.1231505e-13 5.198356e-13 5.208996e-13
0001d0 88 19 b6 2a a6 83 5f 2a cb e4 c5 ab 5a ad 6b aa
       3.234741e-13 1.9852053e-13 -1.4061195e-12 -2.0932336e-13
0001e0 9a dd 4f 29 58 e3 91 29 a9 c0 10 2a 9d 1c db b2
       4.6155442e-14 6.4787314e-14 1.2856612e-13 -2.5507967e-08
0001f0 b5 52 d2 2b af e6 2a ab bf 8f 6c 2a 8d 0e f6 2a
       1.4944353e-12 -6.071627e-13 2.1010883e-13 4.3708475e-13
000200 1c 49 af aa c6 62 f3 2a f5 2b 4b 2b e6 10 81 2a
       -3.1136975e-13 4.323401e-13 7.218109e-13 2.292673e-13
000210 eb 5b 73 aa 16 2c 95 aa fe d8 e5 aa 2c 2b a7 2a
       -2.1614626e-13 -2.6498308e-13 -4.082914e-13 2.9695116e-13
000220 75 8b 5b ab 76 da 3f b6 5a cd 26 aa 75 7b b0 b6
       -7.7997965e-13 -2.858838e-06 -1.4815007e-13 -5.259581e-06
000230 74 3c 91 2d a3 56 44 aa 94 08 ca 2a 05 6f a4 ab
       1.6511438e-11 -1.7438355e-13 3.588836e-13 -1.1683715e-12
000240 f2 66 1d ab 9a ef 0f ab 03 22 bd 2a ff 2f 6d 37
       -5.592047e-13 -5.113632e-13 3.3596745e-13 1.4137476e-05
000250 2f e7 0e b6 1f 05 c9 b3 1f cb 79 b5 75 57 92 b5
       -2.1294215e-06 -9.3607234e-08 -9.305531e-07 -1.0903301e-06
000260 ad d5 10 b6 09 52 03 b5 c7 eb c5 b5 57 34 aa b0
       -2.1582048e-06 -4.892068e-07 -1.4746264e-06 -1.2384004e-09
000270 a4 fa 36 b2 39 a7 e0 b3 ec cf 7d b4 ce c4 5c 2d
       -1.0650783e-08 -1.04612305e-07 -2.3638103e-07 1.2549252e-11
000280 5b 84 0d aa 75 4e 47 2c 87 0e de aa e3 ea 9a 34
       -1.2569236e-13 2.8323153e-12 -3.9445202e-13 2.8855638e-07
000290 a7 b3 55 b5 d4 c1 ba b5 f7 5a ac b3 94 42 ea 33
       -7.961011e-07 -1.3914491e-06 -8.0259206e-08 1.09085846e-07
0002a0 62 bd b0 b3 d3 55 a4 b3 d5 af 25 b3 3a c4 09 b3
       -8.230087e-08 -7.6524564e-08 -3.8576975e-08 -3.2076265e-08
0002b0 62 01 50 b2 77 6f 3f b3 46 1f 80 b2 3b cf af b2
       -1.2107508e-08 -4.457203e-08 -1.4915383e-08 -2.0466919e-08
0002c0 1e 44 20 2b f9 f0 9b 2b 8d a1 b4 29 ea 56 e5 35
       5.693795e-13 1.1080296e-12 8.0216304e-14 1.7087125e-06
0002d0 17 d3 a4 b4 60 b4 ac b4 2a c9 bc af b5 05 22 b1
       -3.0700969e-07 -3.2168737e-07 -3.4339936e-10 -2.3577347e-09
0002e0 25 47 c1 ad 90 34 2d b1 1d 94 3c b2 2b 4b b1 ac
       -2.1973154e-11 -2.5204692e-09 -1.0976717e-08 -5.038988e-12
0002f0 b5 0b 8a ad 90 c7 22 b3 5c 24 19 b2 91 6f bd b0
       -1.5693983e-11 -3.7900065e-08 -8.914039e-09 -1.3783269e-09
000300 43 9d 0f ab 5d 0a 9e ac 70 9c ec aa 2e 2b 9e 35
       -5.102205e-13 -4.4917806e-12 -4.2030572e-13 1.1784484e-06
000310 f6 f1 b1 2d 44 8c b6 2b a0 c0 8c ab 21 09 21 2c
       2.0230023e-11 1.2970809e-12 -1.0001062e-12 2.2884544e-12
000320 67 0d 96 ab 6c ef 1b 28 69 3d 98 2a e8 c0 ed ab
       -1.0661861e-12 8.656145e-15 2.7043236e-13 -1.6893405e-12
000330 71 8a 3b ad b7 78 33 ab 40 be 59 ac 59 6f be ab
       -1.06604595e-11 -6.37611e-13 -3.0943165e-12 -1.3531217e-12
000340 70 ef 41 ab 3f dd a5 32 f3 ef a1 2a 07 a3 ba b6
       -6.889966e-13 1.930914e-08 2.8765843e-13 -5.562211e-06
000350 bc 9c 67 b6 28 e1 e5 aa 35 f7 84 ab a3 49 d9 2e
       -3.4512914e-06 -4.0834805e-13 -9.447778e-13 9.881098e-11
000360 8f df 44 b8 64 84 bc b9 8d 7c 01 b9 f9 2f 3e 3d
       -4.6938247e-05 -0.00035956793 -0.00012348797 0.04643247
000370 ad dc 36 bb 12 7b ce b9 bd 67 23 b9 2e aa 14 39
       -0.002790253 -0.00039383076 -0.00015583537 0.00014177777
000380 3c 77 b1 ba e9 73 89 ba 20 7f a7 39 76 c0 7d 3a
       -0.0013539563 -0.0010486814 0.00031947438 0.0009679863
000390 ac 4a 04 3a 50 77 93 3a 7e 3e cf b9 87 db b1 39
       0.00050465274 0.0011250768 -0.00039528677 0.0003392363
0003a0 70 a0 4f 38 70 3c 9e b9 0b f3 c2 b7 bf 6c f3 3a
       4.9502065e-05 -0.00030181138 -2.3239778e-05 0.0018571838
0003b0 b6 d6 28 bb 41 70 93 ba f0 44 1b ba 21 8b 23 ba
       -0.0025762743 -0.0011248664 -0.0005923053 -0.00062386884
0003c0 59 11 dc b9 c0 3d 39 b9 4d 6a 19 ba 58 6f 2a ba
       -0.00041974595 -0.00017665979 -0.0005852327 -0.0006501577
0003d0 b0 63 8f ba 83 5a 42 ba 4a 8e 40 ba 7b df 6a ba
       -0.0010939743 -0.0007414 -0.00073454215 -0.0008959693
0003e0 69 aa 12 b8 e5 f5 38 b8 61 71 3b b6 a5 c6 f6 b9
       -3.496782e-05 -4.4098026e-05 -2.7931167e-06 -0.00047068778
0003f0 18 29 13 bb c0 5d 11 b9 59 51 bd 38 ad 96 d9 39
       -0.0022454914 -0.00013863202 9.0273745e-05 0.00041501728

exp_avg_sq f4 [6, 72]
000000 41 8a 8a 30 23 ac 30 32 9b 37 c6 30 cd eb 6a 3a
       1.0080116e-09 1.0283688e-08 1.44222e-09 0.00089615287
000010 5e 7e 4f 36 dc a3 87 33 da 89 ed 34 5d a6 97 33
       3.091896e-06 6.316233e-08 4.424499e-07 7.061747e-08
000020 7d b5 aa 33 c1 4c 66 33 40 35 5d 33 04 89 49 33
       7.9492544e-08 5.3620855e-08 5.1504003e-08 4.6923574e-08
000030 70 1b 4c 33 0d 8c 28 33 7d 89 1e 33 a6 93 f0 32
       4.7522406e-08 3.9242924e-08 3.6912287e-08 2.800682e-08
000040 65 28 1c 30 8e 5f 0d 32 45 06 91 2f de 87 a8 36
       5.6809873e-10 8.229007e-09 2.63798e-10 5.022607e-06
000050 29 7b bc 34 5a 0d 58 34 81 ab 24 34 ae 70 d3 33
       3.510734e-07 2.0121425e-07 1.5336083e-07 9.8459495e-08
000060 32 62 97 33 f4 08 85 33 ba 56 76 33 19 9c 65 33
       7.049347e-08 6.194924e-08 5.7355216e-08 5.3460187e-08
000070 24 69 5d 33 03 b7 49 33 53 4f 3c 33 95 11 31 33
       5.1551197e-08 4.6965408e-08 4.3844306e-08 4.1227015e-08
000080 02 fd 06 2f 3f 3f 66 30 f9 3a 4e 2d a1 5f f6 35
       1.2277115e-10 8.376339e-10 1.1722839e-11 1.835626e-06
000090 5f 2b c7 33 0d 28 6b 33 48 1d 6a 33 f0 4d c6 32
       9.274549e-08 5.4751627e-08 5.4509e-08 2.3085676e-08
0000a0 91 11 99 32 78 1d 59 32 be fa 74 32 9c 89 4d 32
       1.7819533e-08 1.2637763e-08 1.4259681e-08 1.1963859e-08
0000b0 20 75 5e 32 16 1d 41 32 13 b9 1a 32 b4 bd 0d 32
       1.2948732e-08 1.1240692e-08 9.006061e-09 8.250414e-09
0000c0 b5 87 41 2f 2b 34 3f 30 97 52 22 2f e7 8d 3b 36
       1.760146e-10 6.955953e-10 1.4763156e-10 2.794777e-06
0000d0 b6 09 db 32 39 49 38 32 d5 44 0d 32 f8 5d 9b 31
       2.5499372e-08 1.07268585e-08 8.222931e-09 4.5217767e-09
0000e0 d5 58 39 31 23 d9 1a 31 e7 53 19 31 f7 bd 09 31
       2.6971538e-09 2.2533377e-09 2.2312123e-09 2.0044106e-09
0000f0 89 61 24 31 26 b9 f5 30 86 ed f3 30 21 57 cf 30
       2.3920583e-09 1.7878719e-09 1.7748085e-09 1.5085996e-09
000100 e2 c7 53 32 08 58 84 3a 16 a5 64 32 ae 2f 8e 3b
       1.23272645e-08 0.0010097036 1.3308883e-08 0.00433918
000110 c6 26 50 35 57 c7 18 33 ab 12 c2 32 3f eb 48 34
       7.754246e-07 3.5571556e-08 2.2593062e-08 1.8712034e-07
000120 6d 0f 7f 2b 61 6f 13 2c 25 bf 29 2b aa 0d 20 34
       9.0615606e-13 2.0951784e-12 6.030613e-13 1.4906132e-07
000130 87 e9 24 30 cb bd 2f 2d 3c b8 3b 2e a3 c8 98 2d
       5.9994715e-10 9.989741e-12 4.268251e-11 1.73695e-11
000140 22 63 68 2c 43 96 47 2d dc 74 94 2b 56 43 89 2d
       3.3024213e-12 1.1345205e-11 1.0548467e-12 1.5605e-11
000150 21 9b bb 2c b4 ca 8e 2d 0f e4 0a 2c 77 e8 1d 2d
       5.3320824e-12 1.623355e-11 1.9737577e-12 8.976034e-12
000160 58 5c b6 2a 28 25 2b 2c b6 56 c5 2a f0 9f 2a 30
       3.239377e-13 2.4321187e-12 3.5054398e-13 6.2072925e-10
000170 d0 8e 5e 2e 2c 89 38 2e 6e 4f 3d 2e 5c f2 d4 2d
       5.06038e-11 4.195859e-11 4.3044172e-11 2.4209239e-11
000180 e5 ee a4 2d a4 4d 7b 2d d6 32 82 2d a2 ac 4f 2d
       1.8750732e-11 1.4284938e-11 1.4801865e-11 1.180492e-11
000190 72 84 2c 2d c5 df 2a 2d dd bd 2a 2d 7a d1 26 2d
       9.806477e-12 9.713068e-12 9.705539e-12 9.482521e-12
0001a0 b6 2c 15 2b 29 73 e8 2a 27 2d 8e 2a 5d 55 19 2f
       5.299748e-13 4.1291387e-13 2.5255598e-13 1.3945596e-10
0001b0 fa 76 ed 2c 4a 56 37 2d ac 85 06 2d 86 d3 62 2c
       6.749154e-12 1.0421506e-11 7.646699e-12 3.223395e-12
0001c0 50 88 3c 2c 7d 8d 0d 2c 5f 9b 4b 2c 8c 6f f2 2b
       2.6792076e-12 2.0115847e-12 2.8934283e-12 1.7226095e-12
0001d0 f3 e8 e9 2b 63 e3 0e 2c f0 0f 26 2c 47 b5 14 2c
       1.6620302e-12 2.0305639e-12 2.3598866e-12 2.1132694e-12
0001e0 3d 47 c1 29 55 f7 98 2a 7c a5 09 2a 0a 97 01 30
       8.5832796e-14 2.7172245e-13 1.2225458e-13 4.7144566e-10
0001f0 0d 94 78 2c ff ed 33 2c 3c a4 12 2c e4 01 46 2b
       3.5325104e-12 2.5569544e-12 2.0839016e-12 7.0346355e-13
000200 5f 7f 20 2b a3 28 40 2b 2c b6 4f 2b 0b b8 ba 2a
       5.702018e-13 6.82685e-13 7.379399e-13 3.3167943e-13
000210 d8 40 9a 2a a7 40 71 2a 21 6d a9 2a 15 e8 85 2a
       2.740089e-13 2.1427531e-13 3.0096154e-13 2.3786585e-13
000220 a6 53 7a 2b cb ce ad 34 80 f0 af 2a c2 c5 ad 35
       8.893393e-13 3.2374223e-07 3.1253125e-13 1.294706e-06
000230 45 b4 14 2f 62 5f 4e 2b 52 a2 09 2c f6 e7 a5 2c
       1.3524566e-10 7.331827e-13 1.9558977e-12 4.715335e-12
000240 56 9f fd 2b ee 92 87 2d b6 26 85 2d 01 2d 0f 37
       1.8020956e-12 1.5412973e-11 1.513754e-11 8.5339425e-06
000250 d7 71 fd 32 97 ac 53 30 08 f7 b6 31 c5 18 3a 31
       2.9504845e-08 7.700662e-10 5.3249813e-09 2.7080642e-09
000260 45 89 30 31 e3 1a 9e 30 39 77 0e 31 93 fa 87 2f
       2.56894e-09 1.1503655e-09 2.073149e-09 2.47344e-10
000270 d6 86 25 30 b3 46 4d 30 0d 09 8e 30 55 26 69 2f
       6.0218264e-10 7.4679035e-10 1.0334432e-09 2.1204845e-10
000280 31 8f 6c 2b 56 e5 e1 2d a9 fa 2b 2c fa 41 ee 32
       8.404276e-13 2.5681384e-11 2.4439706e-12 2.773685e-08
000290 0a c1 09 31 77 b6 05 31 82 06 83 30 ce 40 5f 30
       2.0045854e-09 1.9457767e-09 9.533354e-10 8.121902e-10
0002a0 f2 65 28 30 e2 c4 38 30 ec c2 08 30 e8 4b 0a 30
       6.1262917e-10 6.72186e-10 4.975351e-10 5.0311977e-10
0002b0 83 18 0e 30 da 88 10 30 41 76 dc 2f cc f4 f3 2f
       5.169413e-10 5.258137e-10 4.010179e-10 4.437538e-10
0002c0 2a 10 f2 2b 06 46 55 2d 7f 95 63 2a 09 4b 9e 32
       1.7199621e-12 1.21231965e-11 2.0213517e-13 1.8427743e-08
0002d0 8f ab 96 30 d7 cf 84 30 0c b9 74 2f 98 db 8a 2f
       1.0962696e-09 9.663336e-10 2.2257413e-10 2.5258085e-10
0002e0 be 3e 0b 2f e6 90 8c 2f 0a e9 d2 2f 14 ce d6 2e
       1.2664267e-10 2.5568808e-10 3.8364362e-10 9.7682e-11
0002f0 1c 2a 0d 2f 3a 67 13 30 b9 41 bf 2f eb 76 89 2f
       1.2838836e-10 5.362498e-10 3.4789396e-10 2.500465e-10
000300 ae 33 d4 2b 19 1d a8 2d 6d 1b 32 2c 9d db e5 32
       1.507785e-12 1.911231e-11 2.5310546e-12 2.6758977e-08
000310 74 e4 1c 2f 71 02 11 2f 2e 93 20 2e fb 11 5a 2d
       1.426928e-10 1.318854e-10 3.651051e-11 1.2395858e-11
000320 01 37 a0 2d 68 72 83 2d 3c 60 d0 2d fc 5a be 2d
       1.821432e-11 1.4943782e-11 2.3689599e-11 2.1640904e-11
000330 5a 07 36 2e 23 14 18 2e df fb 9e 2d e7 f5 29 2d
       4.138854e-11 3.4578684e-11 1.8074374e-11 9.661139e-12
000340 bc b3 d9 2b 53 fc b7 37 40 d3 9c 2a 44 f9 b7 38
       1.5468664e-12 2.1932798e-05 2.785775e-13 8.772549e-05
000350 94 ac eb 31 23 c0 a1 2c e3 84 1b 2e d4 b0 81 2f
       6.85902e-09 4.5972267e-12 3.5360947e-11 2.3590607e-10
000360 91 e3 eb 34 9c 09 97 36 b0 7b 2b 35 1e 95 d2 3e
       4.3937737e-07 4.5012694e-06 6.3882453e-07 0.41129392
000370 c0 90 c2 3a 16 69 5e 38 8e 68 7e 39 63 05 24 38
       0.0014844164 5.3026793e-05 0.00024262277 3.9105664e-05
000380 6c 83 85 38 68 63 da 37 cb 37 fc 37 d2 56 c8 37
       6.3664134e-05 2.6033915e-05 3.0066722e-05 2.3882287e-05
000390 bb ff c8 37 99 36 c3 37 32 41 9c 37 de 14 a2 37
       2.3960942e-05 2.3271235e-05 1.8627008e-05 1.9321622e-05
0003a0 da 2a 89 34 a6 99 62 36 38 e7 fe 33 01 e5 06 3b
       2.5549417e-07 3.376606e-06 1.1869855e-07 0.0020583274
0003b0 48 e8 26 39 06 83 b3 38 53 bf 70 38 f4 51 23 38
       0.00015917525 8.55979e-05 5.7398644e-05 3.8938553e-05
0003c0 47 41 f4 37 e7 07 e0 37 38 ef cb 37 06 ec bc 37
       2.9117464e-05 2.670656e-05 2.431088e-05 2.2521253e-05
0003d0 8a 5f b5 37 ee 9b a3 37 e1 fb 9e 37 e0 9c 94 37
       2.162137e-05 1.9503725e-05 1.8952358e-05 1.7716025e-05
0003e0 47 b6 6a 33 cf 05 e2 34 fd 1d be 31 18 31 44 3a
       5.464815e-08 4.2100007e-07 5.533137e-09 0.0007484122
0003f0 42 28 47 38 59 3f f8 37 f7 5d a0 37 51 28 36 37
       4.748279e-05 2.9593402e-05 1.9117242e-05 1.0857432e-05

exp_avg f4 [6]
000000 e7 e2 82 b6 0a 9c 47 ab ac d2 51 b5 73 0c d6 ba
       -3.900717e-06 -7.091555e-13 -7.8165135e-07 -0.0016330614
000010 08 76 19 b6 1d e3 f5 35
       -2.286748e-06 1.8320021e-06

exp_avg_sq f4 [6]
000000 74 84 3e 34 99 12 18 2e 9d be eb 30 f7 a2 ab 38
       1.7743315e-07 3.4577317e-11 1.7152676e-09 8.18427e-05
000010 f8 f2 44 36 c2 13 36 36
       2.9347702e-06 2.7131614e-06

exp_avg f4 [2, 6]
000000 b5 36 5d 2c 1c 02 41 ac bc 91 51 ac 55 a3 24 3b
       3.1436357e-12 -2.742812e-12 -2.9781585e-12 0.0025121768
000010 ef b2 8f 37 fa 31 fa b7 80 3f d9 ab 2f 55 10 2d
       1.713025e-05 -2.9825595e-05 -1.5436402e-12 8.204367e-12
000020 ae 15 a2 ac 8a e0 23 bb 52 11 79 37 b7 d5 14 36
       -4.606724e-12 -0.0025005662 1.4845589e-05 2.2178117e-06

exp_avg_sq f4 [2, 6]
000000 91 c5 18 2e 31 6d 86 2c c0 64 f0 2c 57 a1 27 39
       3.4736273e-11 3.8206317e-12 6.8323958e-12 0.00015986465
000010 53 0b 33 38 cf db 3d 39 82 5d 0e 2e d1 a3 a7 2d
       4.2687472e-05 0.0001810633 3.2370114e-11 1.9058451e-11
000020 89 90 f9 2c eb 9e 27 39 87 1d 33 38 e4 d2 3d 39
       7.0930523e-12 0.00015985563 4.2704425e-05 0.00018103007

exp_avg f4 [2]
000000 32 fb 77 3a 3f 28 70 ba
       0.0009459733 -0.00091612706

exp_avg_sq f4 [2]
000000 0f 63 4f 38 3f af 4f 38
       4.94449e-05 4.9515857e-05

exp_avg f4 [2, 6]
000000 16 26 71 37 cd 46 25 ac 47 42 7c 2b 29 5d a2 ba
       1.4373587e-05 -2.3487213e-12 8.9620363e-13 -0.0012387383
000010 20 93 e2 b7 3d f1 9d 37 8d f0 1f 37 0d 75 d2 2a
       -2.700981e-05 1.8828194e-05 9.533146e-06 3.7384714e-13
000020 b0 c5 e4 29 7b fc a0 3a b1 75 34 37 0a fb 82 b7
       1.0159527e-13 0.0012282276 1.0756238e-05 -1.5614107e-05

exp_avg_sq f4 [2, 6]
000000 7d c6 94 32 64 8d c6 2c fa 83 a0 2b 57 7f 89 39
       1.731973e-08 5.643196e-12 1.1405315e-12 0.00026225552
000010 79 06 ca 37 df 2d 07 38 71 40 97 32 23 96 ba 2a
       2.408329e-05 3.222923e-05 1.7608018e-08 3.3144415e-13
000020 b2 ed 40 29 13 7f 89 39 a0 f6 c9 37 0a 2d 07 38
       4.2838732e-14 0.00026225354 2.4075911e-05 3.2228454e-05

exp_avg f4 [2]
000000 3d 30 24 3b 31 08 21 bb
       0.0025053166 -0.0024571533

exp_avg_sq f4 [2]
000000 0d 3d b2 38 f1 49 b2 38
       8.499073e-05 8.501474e-05

exp_avg f4 [2, 6]
000000 33 20 c5 b6 3b d1 25 2a 40 27 d4 2b 15 90 43 ba
       -5.874806e-06 1.4727535e-13 1.50744e-12 -0.00074601296
000010 48 34 6b b7 87 2e bc 37 14 eb 02 b7 2c af ce aa
       -1.4019264e-05 2.2433012e-05 -7.803337e-06 -3.67145e-13
000020 33 6d ac 2d 50 e9 48 3a a7 99 3f 37 d9 66 bc b2
       1.960263e-11 0.0007664161 1.1420262e-05 -2.193285e-08

exp_avg_sq f4 [2, 6]
000000 75 e6 97 31 f8 cb ca 2a 4b d1 e7 2d 46 ac a4 36
       4.4208783e-09 3.602394e-13 2.6354604e-11 4.907636e-06
000010 26 2b 52 36 aa f8 91 35 8d 19 92 31 fb a1 9d 2a
       3.1317554e-06 1.0875713e-06 4.252064e-09 2.80012e-13
000020 63 1e 45 2e 87 1d a5 36 bf 23 52 36 99 ac 91 35
       4.4819603e-11 4.9208206e-06 3.1313245e-06 1.0853574e-06

exp_avg f4 [2]
000000 53 c5 77 39 c4 e8 6e b9
       0.00023629265 -0.0002278416

exp_avg_sq f4 [2]
000000 93 fe 30 36 5b b6 30 36
       2.6374225e-06 2.6332189e-06

exp_avg f4 [2, 6]
000000 01 80 f0 b6 cd 8e 72 2c a4 ce 02 2d b1 80 58 b9
       -7.167459e-06 3.4469539e-12 7.435528e-12 -0.00020647307
000010 9a 6a 25 38 0e 5c e3 36 2e 41 41 b6 a5 a5 99 a8
       3.9438346e-05 6.7758438e-06 -2.879718e-06 -1.7058249e-14
000020 d6 63 22 2c df b2 3d 39 f0 8d c3 b7 e1 f0 f4 36
       2.3077005e-12 0.00018091079 -2.3311906e-05 7.2998087e-06

exp_avg_sq f4 [2, 6]
000000 fd 91 d3 32 74 cc b5 2c f0 1a 81 2d b8 e6 3c 36
       2.463002e-08 5.1670283e-12 1.4677565e-11 2.814848e-06
000010 e0 9b 29 35 8a b1 eb 37 9e f8 d1 32 48 fe 2c 29
       6.3184234e-07 2.8096856e-05 2.444386e-08 3.8412226e-14
000020 8b a1 46 2d 47 d8 3b 36 8f c5 29 35 ce c0 eb 37
       1.1290867e-11 2.7991061e-06 6.324489e-07 2.8103965e-05

exp_avg f4 [2]
000000 05 99 8d 39 09 bc 81 b9
       0.00027007624 -0.00024744894

exp_avg_sq f4 [2]
000000 0f a5 06 37 10 f2 06 37
       8.025453e-06 8.043382e-06

exp_avg f4 [2, 6]
000000 f8 15 31 b7 71 3c 3f ac ce 37 46 b2 32 be 14 ba
       -1.0555137e-05 -2.7176284e-12 -1.1537805e-08 -0.0005674093
000010 18 46 e9 36 74 c3 0c 38 be ba 37 b6 20 f3 02 ab
       6.952101e-06 3.356063e-05 -2.7377823e-06 -4.652268e-13
000020 ce fc 16 31 86 43 0b 3a b3 70 89 37 e7 f0 16 37
       2.1971576e-09 0.0005312491 1.6384152e-05 8.996786e-06

exp_avg_sq f4 [2, 6]
000000 60 f2 6c 34 af 26 b1 2c 93 b2 ac 2f 04 06 5f 38
       2.2067388e-07 5.0349373e-12 3.1413502e-10 5.3172946e-05
000010 47 88 2e 39 56 57 20 39 ea 74 6c 34 79 01 24 2b
       0.000166447 0.00015291324 2.2021746e-07 5.826655e-13
000020 d0 cd a1 2f 11 d3 5e 38 e2 8e 2e 39 4d 56 20 39
       2.9431968e-10 5.3125495e-05 0.00016647161 0.00015290939

exp_avg f4 [2]
000000 0a 28 a8 ba 96 0e a2 3a
       -0.0012829315 0.0012363966

exp_avg_sq f4 [2]
000000 87 af b0 38 4d 95 b0 38
       8.4250285e-05 8.4201434e-05

exp_avg f4 [2, 6]
000000 4d a3 95 36 5c 57 31 ac f2 5c 77 2c ac 53 00 3b
       4.4595567e-06 -2.5201707e-12 3.5152406e-12 0.0019581122
000010 9e b3 99 b7 e1 28 42 37 e1 b6 35 b3 4b cf 93 ac
       -1.8322662e-05 1.1572819e-05 -4.2308674e-08 -4.2010054e-12
000020 c3 8c 48 ad 6d 5b 01 bb b1 95 ed 37 f6 a1 93 b7
       -1.1399939e-11 -0.0019738332 2.8322307e-05 -1.7599185e-05

exp_avg_sq f4 [2, 6]
000000 86 dc a0 31 a7 68 a8 2c fb 4e 7a 2d ac 68 0f 39
       4.6816835e-09 4.786466e-12 1.4228392e-11 0.00013676536
000010 1a 56 d5 36 e6 84 64 37 da 0f a2 31 6b 3a f1 2c
       6.357918e-06 1.3620802e-05 4.7166226e-09 6.8561177e-12
000020 50 00 ff 2d 04 6d 0f 39 f6 69 d5 36 21 86 64 37
       2.8990282e-11 0.00013678154 6.36023e-06 1.3621088e-05

exp_avg f4 [2]
000000 51 da a8 ba aa 85 a5 3a
       -0.0012882446 0.0012628336

exp_avg_sq f4 [2]
000000 89 f5 45 38 d6 99 45 38
       4.7197133e-05 4.711173e-05

dnn.0.weight f4 [2, 6]
000000 58 ad be 32 8c 22 5a b2 21 a1 ae 31 26 4d 88 be
       2.2197739e-08 -1.2697125e-08 5.0823847e-09 -0.2662136
000010 86 47 2f 3e 78 a6 98 be 4a 3b 1d 32 d2 72 8f b2
       0.17117128 -0.29814506 9.1520835e-09 -1.6699605e-08
000020 bb 23 d5 b2 7f b9 c3 3e 04 e7 17 3e 97 9d b5 3c
       -2.4812712e-08 0.3822746 0.14834219 0.022169871

dnn.0.bias f4 [2]
000000 83 d6 8c 3f 63 53 4d bf
       1.1002964 -0.80205363

dnn.0.weight f4 [2, 6]
000000 89 64 0d 3e 24 a4 3f b3 c1 26 8c 32 36 49 b0 3d
       0.13807882 -4.4619938e-08 1.6315768e-08 0.08607714
000010 30 26 8a be 76 a1 40 3e d7 9e bb 3d 41 ba 62 b2
       -0.2698226 0.18811592 0.09161156 -1.3197281e-08
000020 de 91 e6 30 4a b7 43 be 22 10 dc 3d 5b bf 1f be
       1.677616e-09 -0.19112888 0.107452646 -0.1560034

dnn.0.bias f4 [2]
000000 58 09 0d 3f 76 6d 8e bd
       0.5509238 -0.06954472

dnn.0.weight f4 [2, 6]
000000 74 28 5d bd 78 9c a0 b1 2f 44 ff b2 79 1f 30 3f
       -0.053993657 -4.6744013e-09 -2.9716913e-08 0.68798023
000010 86 26 0f be 86 9b 64 3e 57 9a 92 bd 9c 6b dc 30
       -0.1397954 0.22324952 -0.07158344 1.6037691e-09
000020 54 86 aa 33 73 03 f8 be 62 39 e9 3d a5 df 64 b9
       7.940676e-08 -0.48440132 0.11387898 -0.00021827088

dnn.0.bias f4 [2]
000000 d9 cb c7 be df ef f2 3e
       -0.3902271 0.47448632

dnn.0.weight f4 [2, 6]
000000 39 f9 8d bd 7c 13 86 32 ee 8f 7d 33 9f 5c 13 3f
       -0.06932301 1.5608514e-08 5.9037056e-08 0.57563204
000010 83 a5 c8 3e 63 a3 8a 3d ec 22 e4 bc 51 84 ce b1
       0.39188775 0.06769445 -0.027848683 -6.0104317e-09
000020 4b ab 9c 33 02 9c 54 bf 3c 34 6d be e3 5b 95 3d
       7.295474e-08 -0.8305055 -0.23164457 0.072929166

dnn.0.bias f4 [2]
000000 c9 e3 97 3e 51 fa 90 bd
       0.29665974 -0.07078994

dnn.0.weight f4 [2, 6]
000000 74 d8 d5 bd e0 d3 08 32 1c a0 7e b8 fd 05 76 3e
       -0.10441676 7.964417e-09 -6.0707433e-05 0.24025722
000010 e8 52 8e 3d cc c2 ab 3e 9f dd dd bc 38 76 db 31
       0.06949407 0.33547056 -0.027083216 6.387179e-09
000020 2a 89 31 37 f6 02 1a bf 6c b5 27 3e fe 2d b8 3d
       1.0581958e-05 -0.6016077 0.163778 0.08993147

dnn.0.bias f4 [2]
000000 08 55 e6 bd 7d 8b b4 be
       -0.11246687 -0.3526267

dnn.0.weight f4 [2, 6]
000000 f2 54 28 3d b6 5b a7 32 9d 7c 49 32 fd 8e f8 be
       0.041096635 1.9483064e-08 1.1728074e-08 -0.4854659
000010 4e 40 3b be 93 b0 ec 3d 55 7c cc b9 1c c3 7c b1
       -0.18286249 0.11557116 -0.00039002547 -3.6781733e-09
000020 02 ae 9d b2 5e 1a a8 3e da b8 90 3e 9c f8 33 be
       -1.8356335e-08 0.32832617 0.2826603 -0.17575306

dnn.0.bias f4 [2]
000000 ad 3b 53 3f c9 1e 8a bf
       0.82512933 -1.0790645
