FinalModels/Sener/Data3Models/sener_dnn3-312-82-128-0.01-0.6033.pt (torch, 123035 bytes, 140 tensors)

dnn.0.weight f4 [64, 72]
0	0x397cb834	0.00024101214
1	0x3d3a6e40	0.0455153
2	0x3b090ae5	0.0020911035
3	0x3e2caf1d	0.16863675
4	0xbe2e5a5f	-0.17026661
5	0xbe075023	-0.13214163
6	0x3d1a1ebe	0.037626974
7	0xbdba5163	-0.090975545
8	0x3bc05b09	0.0058702272
9	0xbdc69149	-0.0969568
10	0xbcd14d93	-0.025549686
11	0xbd15083a	-0.0363848
12	0xbd953954	-0.07286325
13	0xbd2045db	-0.03912912
14	0xbda6ed0e	-0.08150683
15	0x3ceb162d	0.028697098
16	0xbaf98d2d	-0.0019039266
17	0x3cdf4bbb	0.02725779
18	0x3b2766a5	0.0025543359
19	0xbae65c6b	-0.001757515
20	0x3ca26c20	0.019826949
21	0x3d62032e	0.055178814
22	0xbca5eff5	-0.020256022
23	0xbca637a4	-0.020290203
24	0xbd531ada	-0.05153928
25	0xbd27fe36	-0.04101392
26	0x3bace337	0.0052761096
27	0xbbcc0d6e	-0.006227187
28	0xbc9b4312	-0.01895288
29	0xbd79d745	-0.060996313
30	0xbd596164	-0.053071395
31	0xbd10cfef	-0.03535455
32	0xb9dc324c	-0.00041999144
33	0x3b72dbe0	0.0037057325
34	0x390c2dbe	0.0001336848
35	0xbe432dff	-0.19060515
36	0xbde1e2f6	-0.110296175
37	0xbe299f50	-0.16564679
38	0xbd017c0c	-0.03161244
39	0xbdbdee20	-0.09273934
40	0xbdedbad8	-0.11607903
41	0xbda96f26	-0.08273153
42	0xbcbe5dc0	-0.023238063
43	0xbcc33214	-0.02382759
44	0xbe066ceb	-0.13127486
45	0xbcd304e0	-0.02575916
46	0xbdc86ed5	-0.097867645
47	0xbde55bc2	-0.11199142
48	0x3a7b304d	0.00095820875
49	0x3bd4670c	0.0064820107
50	0x390c5263	0.00013382132
51	0xbdc69b2e	-0.09697567
52	0xbda05add	-0.07829831
53	0xbd13cb9f	-0.03608286
54	0xbca48ace	-0.020085718
55	0xbb55bb1a	-0.0032612742
56	0xbb4d915e	-0.0031367163
57	0xbb9907bb	-0.004670111
58	0xbab29ef2	-0.0013627692
59	0xbcb85166	-0.022499751
60	0xbc069955	-0.008215268
61	0xbc5cce5c	-0.013476934
62	0xbc01f6ae	-0.007932348
63	0xbc967c65	-0.018369863
64	0x3d6e22d2	0.058138676
65	0xbdeeaae4	-0.116536885
66	0x3c96bbc7	0.018400086
67	0xbc19f764	-0.009397361
68	0xbda88d98	-0.08230132
69	0x3e030c86	0.12797746
70	0x3d8cff23	0.06884601
71	0x3e27bd16	0.16380724
72	0xbe59ab0f	-0.2125666
73	0xbe9f2186	-0.31080264
74	0xbe630ba2	-0.22172406
75	0x3d760568	0.06006375
76	0x3d7adb11	0.061244074
77	0x3e9a9f83	0.30199823
78	0x3c691d8a	0.014228234
79	0xbe569186	-0.2095395
80	0xbe587d86	-0.21141633
81	0x3c25578f	0.010091676
82	0x3d86f2b0	0.06589258
83	0x3dfe08fd	0.12404058
84	0x3dbb4afc	0.091451615
85	0x3e5eba29	0.21750702
86	0xbe5358af	-0.20639299
87	0x3e1a90ba	0.15094271
88	0x3a923699	0.0011155187
89	0xbe4a613a	-0.19763651
90	0xbda77995	-0.08177487
91	0xbdeae63b	-0.11469694
92	0xbe0bd818	-0.13656652
93	0xbed2dc77	-0.41183826
94	0xbdbd7d86	-0.09252457
95	0xbe956252	-0.29176575
96	0xbee1c02f	-0.44091937
97	0xbe4ef1a2	-0.20209363
98	0xbe828122	-0.25489146
99	0xbe8ed3a3	-0.2789584
100	0xbef26872	-0.4734531
101	0xbe7ed678	-0.24886501
102	0xbdd8b484	-0.105813056
103	0xbe8bd390	-0.27309847
104	0x3c71e221	0.014763386
105	0x3c848398	0.01617603
106	0xbd0471c9	-0.032335076
107	0x3d918381	0.071051605
108	0xbea2119b	-0.31654057
109	0x3ba42cb5	0.0050102123
110	0x3dc93689	0.09824855
111	0x3e6dd705	0.23226555
112	0x3e00a0e6	0.12561378
113	0x3d44ba7b	0.048029404
114	0x3e356559	0.17714442
115	0x3e88960f	0.26676986
116	0x3e37b257	0.17939125
117	0x3eb1cbbd	0.34725752
118	0x3ee92108	0.45533013
119	0x3ecba77d	0.3977622
120	0x3dbd8d97	0.09255522
121	0xbd95c57c	-0.07313058
122	0xbd196c44	-0.037456766
123	0xbd44c377	-0.048037972
124	0x3e898ffc	0.26867664
125	0x3e499185	0.19684418
126	0x3e104f97	0.14092861
127	0x3db7b9d5	0.089709915
128	0x3daac32f	0.083380096
129	0x3eb4fa74	0.3534733
130	0x3eaf2343	0.3420659
131	0x3e57c98e	0.21072981
132	0xbda2a6a0	-0.079419374
133	0x3e335f18	0.17516744
134	0x3e794d8b	0.24345987
135	0x3e620885	0.22073562
136	0xbc77d9e6	-0.015127635
137	0xbd0a2e56	-0.033735596
138	0x3d6e516c	0.05818312
139	0xbd8b7cdd	-0.06810925
140	0xbdbed35f	-0.093176596
141	0xbd41cf0f	-0.047316607
142	0xbeac1623	-0.3361064
143	0xbdeab989	-0.11461169
144	0xbcbd1451	-0.023080977
145	0x3dae55ef	0.08512484
146	0x3cd21153	0.025643026
147	0x3c4d3178	0.012524001
148	0xbe172447	-0.14759932
149	0xbbd8af27	-0.0066126767
150	0x3c2af00a	0.010433206
151	0x3e5d49ec	0.2161023
152	0x3e3aee47	0.18254958
153	0x3c5fd642	0.013661923
154	0xbdfa6086	-0.12225442
155	0xbe8cb00b	-0.2747806
156	0x3e35eddb	0.17766516
157	0x3dfdcdda	0.12392779
158	0x3cef0bc0	0.029180408
159	0x3e6c1e59	0.23058452
160	0xbb79b30f	-0.0038101112
161	0x3dd0fdc5	0.10204653
162	0xbd3ddeae	-0.046354942
163	0x3d8cebd0	0.06880915
164	0x3e1e4a59	0.15458049
165	0x3eba01a8	0.3632939
166	0x3ea6c979	0.32575586
167	0x3eb097fd	0.34490958
168	0x3edfd5a4	0.43717682
169	0x3e8f6efe	0.28014368
170	0x3e6442b0	0.22291064
171	0x3e321e44	0.17394358
172	0x3e6a9365	0.22907789
173	0x3e85a512	0.261025
174	0xbbd41a35	-0.0064728507
175	0xbdcb805f	-0.09936594
176	0xbd1adbfb	-0.037807446
177	0xbe80f022	-0.25183207
178	0x3c24d363	0.010060164
179	0xbe154ee9	-0.14580883
180	0x3e816702	0.252739
181	0x3caeaf40	0.0213238
182	0x3e1e3668	0.15450442
183	0x3cbe9b1b	0.02326732
184	0xbd638aae	-0.055552177
185	0xbeb3272f	-0.34990832
186	0xbde30f4b	-0.11086901
187	0xbd6dcf27	-0.058058884
188	0xbdd9965d	-0.10624383
189	0xbdee579a	-0.116378024
190	0xbe223bec	-0.15843171
191	0xbe476237	-0.1947106
192	0x3d3c4f2c	0.04597394
193	0xbe2056c9	-0.15658106
194	0xbac79f21	-0.0015229919
195	0xbe31f431	-0.17378308
196	0x3e01a477	0.12660395
197	0x3e4d1d0c	0.20030612
198	0x3e29d594	0.1658538
199	0x3e217875	0.15768607
200	0x3a626690	0.0008636499
201	0xbe0d9fe9	-0.13830532
202	0xbe41a448	-0.18910325
203	0xbb9f05b1	-0.0048529734
204	0xbe333e7f	-0.17504309
205	0xbddd58b4	-0.108079344
206	0xbdc8511f	-0.097810976
207	0xbe607a6e	-0.21921703
208	0xbe519bcb	-0.20469587
209	0xbd3f165a	-0.046652175
210	0xbdb19bf3	-0.08672323
211	0x3d86b3ba	0.06577249
212	0xbc43b9e3	-0.011946174
213	0xbeb2b767	-0.3490555
214	0x3df338dc	0.118760794
215	0xbe3a8584	-0.18214995
216	0xbe52ecec	-0.20598191
217	0xbe8ab6cb	-0.27092585
218	0xbe75715e	-0.23969027
219	0x3d2c1f71	0.042022172
220	0xbd2d6b15	-0.04233845
221	0x3d069e63	0.032865893
222	0xbd883fff	-0.06652831
223	0xbe5f686e	-0.2181718
224	0xbd60c02e	-0.054870777
225	0xbd7f24aa	-0.062290825
226	0xbd68dbd3	-0.056850266
227	0x3d100472	0.03516049
228	0x3e66fe0e	0.22557852
229	0x3e404c24	0.18779045
230	0xbe922759	-0.28545645
231	0x3e809727	0.2511532
232	0xbd3b3682	-0.04570628
233	0xbe41c540	-0.18922901
234	0xbe0c45fa	-0.13698569
235	0xbe2d250a	-0.1690866
236	0xbe9f1acd	-0.31075135
237	0xbe7ede1c	-0.24889416
238	0x3db80623	0.089855455
239	0xbda972b6	-0.082738325
240	0xbd8cb240	-0.06869936
241	0x3c8a313e	0.016869184
242	0x3bb590e5	0.0055409544
243	0x3b60c129	0.003429482
244	0xbed59e2c	-0.41722238
245	0xbe8cd075	-0.2750279
246	0xbe887587	-0.26652166
247	0xbe8ae575	-0.27128187
248	0xbd217330	-0.039416492
249	0xbd3ece76	-0.046583615
250	0x3b3dd5ec	0.0028966619
251	0xbe4eef90	-0.20208573
252	0xbe63edac	-0.22258633
253	0x3e419900	0.18906021
254	0x3e9b66a2	0.3035174
255	0x3e754a6d	0.23954172

dnn.0.bias f4 [64]
0	0xbda4e020	-0.08050561
1	0xbdd36736	-0.1032242
2	0x3a8f3099	0.0010924517
3	0xbe0b6bed	-0.13615389
4	0x3db07910	0.08616841
5	0xbd8274c0	-0.063699245
6	0x3d99044d	0.074715234
7	0xbcf29c33	-0.029615497
8	0xbd0a418a	-0.03375391
9	0x3d6bcd25	0.057568688
10	0x3d8a366e	0.06748663
11	0xbd1828ac	-0.037148163
12	0x3e08ae28	0.13347685
13	0x3d1690ee	0.03675931
14	0xbabb4a40	-0.0014289096
15	0xbc9f9779	-0.019481407
16	0xbd6fc892	-0.058540888
17	0x3b8fc789	0.0043878
18	0x3d70e159	0.05880866
19	0x3d6524dd	0.05594336
20	0xbd75c944	-0.060006395
21	0x3ab6482c	0.0013907007
22	0xbcc3294b	-0.023823401
23	0x3d65f024	0.05613722
24	0xbb2c45f8	-0.0026286822
25	0x3e04f93f	0.12985705
26	0xb9f438cb	-0.0004658162
27	0xbcb7e7ea	-0.022449452
28	0xbb66306f	-0.0035124084
29	0x397796c2	0.00023611917
30	0xbc33697f	-0.010950445
31	0x3dd6db6a	0.10491069
32	0x3de8315b	0.11337539
33	0xbd42286e	-0.047401838
34	0xba38b4a0	-0.0007045958
35	0x3d264c9f	0.040600415
36	0xbd96404b	-0.07336482
37	0xbd443107	-0.04789832
38	0x3d54cbcd	0.051952172
39	0x3d2b1462	0.041767485
40	0x3dfecd55	0.12441508
41	0x3d23fb4e	0.040034585
42	0xbd2238c2	-0.03960491
43	0x3dd7ea7b	0.105427705
44	0xbd775791	-0.060386244
45	0x3d61b020	0.055099607
46	0x3d663410	0.056201994
47	0xbdc5584c	-0.09635982
48	0x3d5f34ee	0.054493837
49	0xbdb6710d	-0.089082815
50	0x3d7d2ded	0.061811376
51	0x3a322e55	0.0006797065
52	0x3dc4849a	0.09595604
53	0x3c666cff	0.014064073
54	0x3d41fe0a	0.04736141
55	0xba946bc9	-0.0011323626
56	0x3b161f7c	0.002290695
57	0xbc4ba7da	-0.012430156
58	0x3c6da621	0.01450494
59	0xbd322c37	-0.043499198
60	0x3d6b0a1d	0.05738269
61	0xbd66b3b1	-0.05632371
62	0xbdab664e	-0.083691224
63	0x3d490229	0.049074326

dnn.2.weight f4 [64]
0	0x3f7bb113	0.9831707
1	0x3f836032	1.0263731
2	0x3f4a44b6	0.79011095
3	0x3f7e2382	0.9927293
4	0x3f8712b4	1.0552583
5	0x3f5c900e	0.8615731
6	0x3f6e76bf	0.9314994
7	0x3f38f672	0.72251046
8	0x3f2694c1	0.6507073
9	0x3f4c8d8c	0.79903483
10	0x3f791d73	0.9731056
11	0x3f36856f	0.71297354
12	0x3f83911e	1.0278661
13	0x3f72f75f	0.9490871
14	0x3f2f3772	0.6844398
15	0x3f5b7c3b	0.85736436
16	0x3f37bb62	0.717703
17	0x3f7fbd28	0.99898005
18	0x3f61063d	0.87900144
19	0x3f8d911e	1.1059911
20	0x3f49b133	0.7878601
21	0x3f453226	0.77029645
22	0x3f440ef1	0.765853
23	0x3f71e42b	0.9448878
24	0x3f7bfa75	0.9842904
25	0x3f6f053a	0.9336735
26	0x3f6f2bf4	0.9342644
27	0x3f58f220	0.84744453
28	0x3f51bd73	0.819297
29	0x3f3e0cab	0.7423808
30	0x3f3d5248	0.73953676
31	0x3f740b27	0.9532952
32	0x3f72c493	0.948312
33	0x3f109e27	0.5649132
34	0x3f875fc1	1.0576097
35	0x3f83481b	1.025638
36	0x3f257fb4	0.64647985
37	0x3f4335bf	0.76253885
38	0x3f9dde70	1.2333508
39	0x3f81ad14	1.0130944
40	0x3f670ef1	0.90257174
41	0x3f349f5d	0.7055567
42	0x3f3f4714	0.7471783
43	0x3f7305a5	0.9493049
44	0x3f81c621	1.0138589
45	0x3f569511	0.8382121
46	0x3f5de19b	0.8667237
47	0x3f7b846c	0.98248935
48	0x3f4f4e9c	0.80979323
49	0x3f527b21	0.8221913
50	0x3f7e8314	0.9941876
51	0x3f60f2ee	0.8787068
52	0x3f6b679d	0.91954976
53	0x3f699fa6	0.9125923
54	0x3f4f28bd	0.80921537
55	0x3f249d25	0.64302284
56	0x3f829a4c	1.0203338
57	0x3f3f0e41	0.74631125
58	0x3f528aad	0.8224285
59	0x3f48e5d5	0.78475696
60	0x3f59353b	0.8484685
61	0x3f5502a3	0.8320715
62	0x3f6ffd41	0.9374581
63	0x3f5b223c	0.8559911

dnn.2.bias f4 [64]
0	0x3d9b9329	0.07596428
1	0x3d65b64f	0.056082066
2	0xbd8436f6	-0.064557955
3	0xbd8c8edd	-0.068631865
4	0xbd953e75	-0.07287303
5	0xbe61a466	-0.2203537
6	0x3d86dce5	0.06585101
7	0xbc631c9a	-0.0138618
8	0xbe27e203	-0.1639481
9	0x3a309bf8	0.00067371083
10	0x3dab9791	0.083785184
11	0x3d8f1e0b	0.06988152
12	0x3c88ebaa	0.016713936
13	0xbe01a6d7	-0.126613
14	0x3d6718f4	0.05642028
15	0x3dcf1b06	0.10112576
16	0x3ddbdd34	0.107355505
17	0x3dac382d	0.08409152
18	0x3d018006	0.031616233
19	0xbd258326	-0.040408276
20	0x3d9a064a	0.07520731
21	0x3d6e06d7	0.05811199
22	0x3bcc62b0	0.0062373504
23	0x3d713d45	0.05889632
24	0x3e226d18	0.15861928
25	0xbdad5c11	-0.08464826
26	0xbd6fdda0	-0.058560967
27	0xbe073887	-0.13205157
28	0xbdc51c4b	-0.09624537
29	0x3c1ea434	0.009682704
30	0x3dc79750	0.097456574
31	0x3da3c27c	0.07996079
32	0x3d157066	0.036484145
33	0x3d3e3c15	0.046444017
34	0xbdf4d477	-0.11954587
35	0x3e0fceaf	0.14043687
36	0xbd408680	-0.04700327
37	0x3ce5c8e3	0.028049892
38	0xbe08e3ae	-0.13368103
39	0xbd388ec3	-0.045058023
40	0xbc549422	-0.012974771
41	0x3de1cc3f	0.11025285
42	0xbe301c50	-0.171983
43	0xbe53e82d	-0.20694037
44	0xbd8e714c	-0.069552034
45	0x3ca155e2	0.019694272
46	0xbd8a2241	-0.06744815
47	0xbd8bcc35	-0.06826059
48	0xbcb0b4c9	-0.02157058
49	0xbce8926e	-0.028390136
50	0xbd58b8f8	-0.052910775
51	0xbd4c40e8	-0.049866587
52	0x3e09ba47	0.13449965
53	0x3d261a7e	0.04055261
54	0x3d1aa6f2	0.037756868
55	0xbcde2d4e	-0.027121212
56	0xbd39b3af	-0.045337375
57	0x3cf4210c	0.029800914
58	0xbc9da9ad	-0.019245947
59	0xbd168d70	-0.03675598
60	0x3c837549	0.016047137
61	0x3d1c2678	0.038122624
62	0xbdad30c6	-0.084565684
63	0x3ceaa4fc	0.028643124

dnn.2.running_mean f4 [64]
0	0x34119dab	1.3561537e-07
1	0x3bdcd483	0.0067392006
2	0x40a4fc4d	5.1557984
3	0x3a4e5fd2	0.00078725547
4	0x40c9d0d0	6.30674
5	0x36156ff0	2.2267886e-06
6	0x40bfc372	5.992608
7	0x3162ce01	3.3004428e-09
8	0x2c9f15b6	4.521462e-12
9	0x418372f7	16.431135
10	0x4156a75d	13.41586
11	0x30d3dbbe	1.5414725e-09
12	0x414b52a9	12.707681
13	0x4135f2e1	11.371797
14	0x2fc8d8a4	3.653372e-10
15	0x312af0d4	2.487515e-09
16	0x2e21adae	3.676142e-11
17	0x3c22d46e	0.0099383425
18	0x41072fdd	8.449185
19	0x4092b13d	4.5841355
20	0x323dcbe3	1.1047606e-08
21	0x40f004eb	7.5006003
22	0x31191382	2.227552e-09
23	0x4128d8f8	10.552971
24	0x3b4d83f2	0.0031359163
25	0x40a2481a	5.0713015
26	0x40fa440a	7.8208055
27	0x4089420d	4.289313
28	0x4146dad1	12.428422
29	0x30b3a09d	1.3069613e-09
30	0x33ad517d	8.070763e-08
31	0x409fc321	4.9925694
32	0x407948cf	3.895069
33	0x315859ce	3.1483185e-09
34	0x408f3a44	4.4758625
35	0x3f1bcd3b	0.6086003
36	0x300e5f70	5.1794924e-10
37	0x2fd56868	3.881866e-10
38	0x4080704d	4.0137086
39	0x354568ef	7.354092e-07
40	0x4127e4e3	10.493381
41	0x41730e86	15.191046
42	0x3cba04a0	0.022707283
43	0x410c3b25	8.76444
44	0x4100e74c	8.056469
45	0x415ac7fa	13.673822
46	0x409c8974	4.891779
47	0x3c42c438	0.0118876025
48	0x41388e0f	11.534682
49	0x306c0a7e	8.587121e-10
50	0x40e067dd	7.0126786
51	0x41834a1a	16.411182
52	0x40808b96	4.0170393
53	0x40da53cc	6.822729
54	0x41997b2a	19.185139
55	0x2fd767bb	3.9181977e-10
56	0x367f4dc8	3.8043236e-06
57	0x30cd5d29	1.4942191e-09
58	0x4156f1d2	13.434038
59	0x3122672d	2.3632751e-09
60	0x4128e561	10.556001
61	0x31a5487e	4.8103734e-09
62	0x37bffc95	2.2886592e-05
63	0x41547bba	13.280207

dnn.2.running_var f4 [64]
0	0x34223931	1.5108232e-07
1	0x3b818394	0.003952453
2	0x400cd6e4	2.200616
3	0x39ba832c	0.00035574415
4	0x3fcd3969	1.6033145
5	0x35fbe6ed	1.8768166e-06
6	0x3f62e622	0.88632405
7	0x32b7d6cf	2.1401688e-08
8	0x32b07f9a	2.0547123e-08
9	0x409d9b28	4.92519
10	0x3fb32ec5	1.3998648
11	0x32b55a7d	2.1112323e-08
12	0x4069ca1a	3.6529603
13	0x40c1d3c9	6.0571027
14	0x32b2eec2	2.0830502e-08
15	0x32b95ada	2.1578149e-08
16	0x32b0bd72	2.0575246e-08
17	0x3cba68e2	0.02275509
18	0x3f42287a	0.7584301
19	0x3f322d05	0.69599944
20	0x32dfe5c2	2.6065099e-08
21	0x3fd69e53	1.6767067
22	0x32b7cd7c	2.1397447e-08
23	0x3f6441b2	0.89162743
24	0x3b149669	0.002267266
25	0x3f5b8065	0.8574279
26	0x3fce9897	1.6140317
27	0x3fec0ba9	1.8441058
28	0x40a2319c	5.068556
29	0x32c239d2	2.2610866e-08
30	0x331e3875	3.683859e-08
31	0x3f9f781a	1.2458527
32	0x3f89070e	1.0705278
33	0x32b2d1a9	2.081727e-08
34	0x3fb59b22	1.4187968
35	0x3ef00c92	0.4688459
36	0x32b41a63	2.0966757e-08
37	0x32b4190c	2.0966148e-08
38	0x3f4e0165	0.8047088
39	0x3494dc2e	2.772735e-07
40	0x409ffd8f	4.999702
41	0x408657d8	4.198223
42	0x3d0ce4cd	0.03439789
43	0x4035b050	2.8388863
44	0x3f9ecf60	1.2407036
45	0x4034e8b2	2.8267026
46	0x3f86a687	1.051957
47	0x3b8a6c77	0.004224356
48	0x40c6b818	6.2099724
49	0x32b7dfc1	2.1405755e-08
50	0x4082c101	4.08606
51	0x40a73241	5.2248845
52	0x3faad4fa	1.3346245
53	0x404de9fc	3.2174063
54	0x40e9a58f	7.30146
55	0x32b39cda	2.090967e-08
56	0x35833426	9.775438e-07
57	0x32c884d3	2.3343466e-08
58	0x3fe86274	1.8155046
59	0x32b568d5	2.1118845e-08
60	0x40dea067	6.9570804
61	0x32c11f8c	2.2482503e-08
62	0x37d26dba	2.5085046e-05
63	0x40a19752	5.0497217

dnn.3.weight f4 [16, 64]
0	0xbd245006	-0.04011538
1	0x3e09580e	0.13412496
2	0xbb5cd464	-0.003369593
3	0x3d70b793	0.05876882
4	0x3e4b8715	0.19875748
5	0x3db6cf52	0.08926262
6	0xbdc39ab7	-0.09550994
7	0xbd4af308	-0.04954818
8	0x3dc3dd14	0.09563652
9	0xbded5a49	-0.11589486
10	0xbdd30871	-0.103043444
11	0xbd53d059	-0.051712368
12	0x3d1ac336	0.037783824
13	0x3d8fc09e	0.07019161
14	0xbe3edbf3	-0.18638591
15	0xbe0c1a9d	-0.13682027
16	0xbe759e38	-0.23986137
17	0xbe0be82d	-0.13662787
18	0xbcc3fbf4	-0.023923852
19	0xbe306cd4	-0.17229015
20	0xbcb2d007	-0.02182771
21	0xbd1ab4b0	-0.037769973
22	0xbda16282	-0.07880117
23	0xbdb3f82b	-0.08787569
24	0xbd99d9a8	-0.07512218
25	0x3a45b2bc	0.0007541587
26	0x3de5d89d	0.11222956
27	0x3d30bd6a	0.04314939
28	0x3d9d97bb	0.07694956
29	0xbe103ace	-0.14084932
30	0xbd95b506	-0.07309918
31	0xbda0d657	-0.07853382
32	0x3d90c31e	0.07068466
33	0x3d1a1307	0.037615802
34	0x3e520487	0.2050954
35	0xbdb04571	-0.08606995
36	0xbcf76f86	-0.030204546
37	0xbd95cb71	-0.07314194
38	0x3e4fb07d	0.20282169
39	0x3e284158	0.16431177
40	0x3d55fbed	0.05224221
41	0xbe210cd4	-0.1572755
42	0x3d38cf77	0.04511973
43	0x3dc5a497	0.09650534
44	0x3c4c6b50	0.012476757
45	0x3c183fb0	0.009292528
46	0x3c81d60e	0.01584914
47	0x3c8d7861	0.017269315
48	0xbd60916a	-0.054826178
49	0xbca8e157	-0.020615263
50	0xbe04d914	-0.12973434
51	0x3ccd22c6	0.025040995
52	0x3dd39c0a	0.103324965
53	0xbd443d70	-0.047910154
54	0xbdf31cf8	-0.1187076
55	0xbc31e0b2	-0.010856794
56	0xbd38da06	-0.0451298
57	0xbe34bc08	-0.17649853
58	0xbd57a110	-0.052643836
59	0xbc096aad	-0.00838725
60	0x3d3ebd28	0.046567112
61	0x3d5c801b	0.05383311
62	0xbd8470bb	-0.06466814
63	0xbd041235	-0.032243926
64	0xbd1e853e	-0.03870129
65	0x3de4ba9e	0.11168407
66	0x3c884242	0.016633157
67	0x3dfaf96b	0.12254604
68	0x3e0cad19	0.13737907
69	0xbdab78a9	-0.083726235
70	0xbe03696f	-0.12833188
71	0xbba1ed2c	-0.004941603
72	0x3d9818cc	0.07426605
73	0x3cc8727c	0.024468653
74	0xbce6c646	-0.028170716
75	0xbe18d285	-0.14924057
76	0x3e02c4f0	0.12770438
77	0x3cc6b011	0.024253877
78	0xbd0bae43	-0.034101736
79	0xbdfc0183	-0.12304976
80	0xbe09428d	-0.13404293
81	0xba8bda24	-0.0010669869
82	0x3d96289f	0.073319666
83	0xbe22fb29	-0.15916122
84	0x3c755f2e	0.014976306
85	0xbcc3349f	-0.023828803
86	0xbc899415	-0.016794244
87	0x3d252e0a	0.04032711
88	0xbe048cfb	-0.12944405
89	0x3ddb390f	0.107042424
90	0xbd4a1747	-0.049338605
91	0xbd5f2630	-0.054479778
92	0xbdd46064	-0.103699476
93	0xbb9e0ffe	-0.0048236838
94	0xbdc99ce1	-0.098443754
95	0xbcecbb17	-0.028897805
96	0x3dcfca55	0.10146014
97	0xbcb1fdaf	-0.021727411
98	0xbcdb7d52	-0.026793156
99	0xbe2994a5	-0.1656061
100	0xb9b0e4ef	-0.00033739905
101	0x3d0d0bb5	0.034434993
102	0x3d5f09a1	0.054452542
103	0x3dee0f30	0.116239905
104	0xbe080169	-0.13281788
105	0xbd283abf	-0.04107165
106	0xbda77b8e	-0.08177863
107	0x3d6cf3dc	0.05784975
108	0x3e9149f2	0.28376728
109	0x3da8f0c2	0.08249046
110	0x3dbbc69b	0.0916874
111	0xbdbec9c5	-0.09315828
112	0xbdd62eb7	-0.10458129
113	0x3d714479	0.05890319
114	0xbe7f2ce9	-0.24919476
115	0xbe220701	-0.15822984
116	0xbcd061d0	-0.025437266
117	0xbe2a7ae4	-0.16648442
118	0xbd03fdf2	-0.032224603
119	0x3db4bb0f	0.08824741
120	0xbd0d67d1	-0.034522835
121	0xbc492af2	-0.012278305
122	0x3bdf7ee3	0.006820546
123	0xbdb177b0	-0.08665407
124	0xbe48038f	-0.19532607
125	0xbc6de86f	-0.0145207485
126	0xb965d1a7	-0.00021917243
127	0xbddd5869	-0.108078785
128	0x3e4a92d3	0.19782571
129	0xbdce908d	-0.100861646
130	0x3e142859	0.14468516
131	0xbda21a52	-0.079151765
132	0xbe272cf9	-0.1632575
133	0x3e1b99b1	0.15195347
134	0xbdea7189	-0.11447436
135	0xbda5f817	-0.0810396
136	0x3c09601e	0.0083847325
137	0x3df2ba3f	0.1185193
138	0xbde23c11	-0.11046613
139	0xbcad4e2a	-0.021155436
140	0xbd8999d5	-0.06718794
141	0x3e2bb44a	0.16767994
142	0xbc0f747e	-0.008755801
143	0x3e0f672e	0.14004204
144	0x3c731f76	0.014839044
145	0xbce4ba2c	-0.027920805
146	0xbe2a31b0	-0.16620517
147	0x3dd86f9b	0.10568162
148	0x3c1cc009	0.009567269
149	0xbdbb9e46	-0.09161048
150	0xbcb2fc2f	-0.021848766
151	0x3d170f49	0.03687981
152	0xbe257e9e	-0.16161582
153	0x3e125843	0.14291482
154	0x3dcf13d4	0.10111204
155	0x3d8d389a	0.068955615
156	0xbca409fd	-0.020024294
157	0x3de130a1	0.10995603
158	0x3d9eb3b2	0.07749118
159	0x3db6a5e0	0.08918357
160	0xbe790486	-0.24318132
161	0xbceb365c	-0.028712444
162	0xbdc8c4e8	-0.09803182
163	0x3e0f70fb	0.14007942
164	0x3bd61889	0.0065336865
165	0x3d3f29ce	0.046670727
166	0xbe768474	-0.24073964
167	0x3ce3690f	0.027760057
168	0x3d2ad98a	0.041711368
169	0x3ca80712	0.020511184
170	0xb7da1ab0	-2.6000052e-05
171	0x3d7b826c	0.061403677
172	0xbce380b6	-0.027771335
173	0x3d7bcaa6	0.061472557
174	0xbe219d95	-0.15782769
175	0xbd78b900	-0.060723305
176	0x3d540e58	0.05177149
177	0x3dfe72a1	0.124242075
178	0x3ddbe552	0.10737099
179	0xbd815b9b	-0.063163005
180	0xbd001263	-0.031267535
181	0xbe4832d2	-0.19550636
182	0xbbc2d16a	-0.0059453743
183	0x3cfad838	0.03062068
184	0xbda2b46e	-0.079445705
185	0x3cdd54f5	0.02701805
186	0xb914d718	-0.00014194509
187	0xbd98fb5a	-0.074698165
188	0xbdd4ebdc	-0.10396549
189	0x3da41595	0.08011929
190	0xbd5db372	-0.05412621
191	0xbe055192	-0.13019398
192	0x3d71a647	0.058996465
193	0xbdbf479b	-0.093398295
194	0x3d00957f	0.03139257
195	0xbcbe0dfc	-0.023200028
196	0xbd2f6a57	-0.042826023
197	0x3bd3b9e6	0.00646137
198	0xbdce70df	-0.10080122
199	0xbceb75b4	-0.028742649
200	0x3e029b7c	0.12754625
201	0x3db0706a	0.08615191
202	0x3da9e980	0.0829649
203	0xbbec74dc	-0.007216079
204	0xbbbb4a27	-0.0057156268
205	0x3d646d05	0.05576803
206	0xbdf96aed	-0.121785976
207	0x3cd57a94	0.026059426
208	0xbd879cd6	-0.06621711
209	0xbdc97600	-0.0983696
210	0xbc679c3f	-0.014136373
211	0xbc997c57	-0.018736048
212	0xbd9047c4	-0.07044938
213	0x3db8f304	0.090307266
214	0xbc008509	-0.007844218
215	0x3c98055c	0.018557243
216	0xbdc8fab2	-0.09813441
217	0x3d5fc289	0.054628883
218	0xbdaee985	-0.08540634
219	0x3d9a9123	0.07547214
220	0x3da2197f	0.07915019
221	0x3b508f63	0.0031823746
222	0x3d929c8e	0.07158767
223	0x3d53f778	0.051749676
224	0xbc0d6e93	-0.00863232
225	0x3c6ea234	0.014565039
226	0xbda99dec	-0.08282074
227	0xbb7ab9dc	-0.0038257753
228	0x3d968b92	0.0735084
229	0xbb1e9d45	-0.0024202627
230	0xbd85269d	-0.065015055
231	0xbda7fe9b	-0.08202859
232	0x3dc9f4bd	0.09861133
233	0x3b03028d	0.0019990534
234	0x3d8027eb	0.06257614
235	0x3d679e60	0.056547523
236	0xbc99a3a8	-0.018754795
237	0xbdc62524	-0.09675053
238	0x3d26f1e5	0.040758032
239	0xbc5563fd	-0.013024327
240	0xbd0a8221	-0.033815507
241	0x3ddb7b89	0.10716922
242	0x3e72de81	0.23717691
243	0x3bd549c3	0.006509037
244	0x3c2f7de9	0.010711172
245	0xbcd1ca46	-0.025609147
246	0xbdef4ec4	-0.11684945
247	0x3e05a8c7	0.13052665
248	0x3e6466e1	0.2230487
249	0xbd0e8741	-0.034796957
250	0x3d20035d	0.039065707
251	0x3e05c61d	0.13063855
252	0x3e15becd	0.14623566
253	0xbdd81b66	-0.10552101
254	0x3d89435a	0.067022994
255	0x3d928313	0.07153907

dnn.3.bias f4 [16]
0	0xbe0668c0	-0.13125896
1	0xbd5d6bd9	-0.05405793
2	0xbe11e0ad	-0.14245863
3	0xbe240036	-0.16015705
4	0xbd3ffca8	-0.04687181
5	0x3e4ba683	0.19887738
6	0x3df73ff7	0.12072747
7	0x3e2cfe02	0.16893771
8	0x3d0a96ad	0.033835102
9	0x3d1edf46	0.03878715
10	0xbe867e40	-0.26268196
11	0xbe445f03	-0.19176869
12	0xbe28feba	-0.1650342
13	0x3e26cd7f	0.16289328
14	0xbd488c3f	-0.048961874
15	0xb9c91988	-0.0003835673

exp_avg f4 [64, 72]
0	0x342598f7	1.5422471e-07
1	0x36abe443	5.1227703e-06
2	0x343e0234	1.769593e-07
3	0x374d22ce	1.2227056e-05
4	0xb78a25a7	-1.6468415e-05
5	0xb760aa83	-1.3391141e-05
6	0x36846107	3.945202e-06
7	0xb727f0d3	-1.0010047e-05
8	0x35374b2d	6.828221e-07
9	0xb735166e	-1.0793663e-05
10	0xb636f007	-2.7259828e-06
11	0xb68273e8	-3.887795e-06
12	0xb7032242	-7.816185e-06
13	0xb690bab0	-4.3132677e-06
14	0xb7172b5d	-9.010398e-06
15	0x366b03ea	3.5020007e-06
16	0x34d4cf3c	3.963886e-07
17	0x3651d575	3.1267675e-06
18	0x33e04e50	1.0445058e-07
19	0xb49cd403	-2.9211523e-07
20	0x36090f29	2.0423415e-06
21	0x36c44a67	5.8499168e-06
22	0xb61323a0	-2.1925443e-06
23	0xb615ff5d	-2.2351371e-06
24	0xb6c45cbf	-5.8520523e-06
25	0xb69c1fcd	-4.6528644e-06
26	0x352cd9a6	6.4391713e-07
27	0xb533d7d6	-6.699678e-07
28	0xb60e6231	-2.1216804e-06
29	0xb6e8d985	-6.9394614e-06
30	0xb6ce5487	-6.1491187e-06
31	0xb6885d95	-4.06401e-06
32	0x333403fd	4.1913143e-08
33	0x34d0ba66	3.8878642e-07
34	0x2fc2d21e	3.5437692e-10
35	0xb79dee2c	-1.8826766e-05
36	0xb73f8a00	-1.1416618e-05
37	0xb794cf56	-1.7739523e-05
38	0xb6677b9c	-3.4493632e-06
39	0xb72c6c9a	-1.0277285e-05
40	0xb7609703	-1.3386601e-05
41	0xb71d81ef	-9.388182e-06
42	0xb62afaa8	-2.5477875e-06
43	0xb62ac381	-2.5445772e-06
44	0xb77bf744	-1.5018337e-05
45	0xb639dd18	-2.7695842e-06
46	0xb732978c	-1.06449115e-05
47	0xb74e4271	-1.2294026e-05
48	0xb3a747f4	-7.789632e-08
49	0x343bf139	1.7503488e-07
50	0xb3eb670c	-1.09617844e-07
51	0xb71f5613	-9.497179e-06
52	0xb7117074	-8.668856e-06
53	0xb696bed8	-4.4925655e-06
54	0xb6497f6e	-3.0025508e-06
55	0xb59c035d	-1.1623885e-06
56	0xb561a7ee	-8.40634e-07
57	0xb55c5269	-8.207631e-07
58	0xb59a5ec5	-1.1501476e-06
59	0xb6820609	-3.8750045e-06
60	0xb5f6678e	-1.8358567e-06
61	0xb61fd9b8	-2.3819575e-06
62	0xb5a9994e	-1.2636099e-06
63	0xb65edd91	-3.3209546e-06
64	0x36cd627c	6.120941e-06
65	0xb6c62331	-5.9049567e-06
66	0x35f52734	1.8265332e-06
67	0x37318ed0	1.0583273e-05
68	0xb70c8578	-8.375726e-06
69	0x376212b5	1.3475005e-05
70	0x36f15715	7.1924974e-06
71	0x378becec	1.6680417e-05
72	0xb75b8823	-1.3085114e-05
73	0xb77934aa	-1.4853818e-05
74	0xb7810dfa	-1.5384507e-05
75	0xbb4ad8c7	-0.0030951963
76	0x39946e58	0.00028310972
77	0xb8faecb0	-0.000119650154
78	0x38e2c14b	0.000108125234
79	0xb814b7dd	-3.5457186e-05
80	0x3905a48f	0.00012745171
81	0x36de3734	6.622542e-06
82	0x38d25c9e	0.000100308316
83	0x38488b45	4.781342e-05
84	0x384754f8	4.752443e-05
85	0x3812d35f	3.5005967e-05
86	0x37027d0b	7.777718e-06
87	0x38163a01	3.5816807e-05
88	0x36055fad	1.9874235e-06
89	0xb78ef849	-1.7043336e-05
90	0xb6ce0546	-6.1398923e-06
91	0x391601f5	0.00014305844
92	0x382f6aa6	4.1822575e-05
93	0x37f1b3a7	2.8813096e-05
94	0x3831e32d	4.2411662e-05
95	0x37a5162e	1.9679861e-05
96	0xb5470d28	-7.415242e-07
97	0x379ce021	1.8701017e-05
98	0xb65dbaf0	-3.3040378e-06
99	0x36723c09	3.6095755e-06
100	0xb60ab88f	-2.067103e-06
101	0x36ed2af6	7.0681517e-06
102	0x37bba5dd	2.2369373e-05
103	0x37775dc7	1.47441815e-05
104	0x3689818f	4.0980008e-06
105	0x3617f8f6	2.2645668e-06
106	0xb6b6c52f	-5.446978e-06
107	0x382ca8ba	4.1165134e-05
108	0x39073961	0.00012895979
109	0x38ac7c21	8.22472e-05
110	0x38b8db98	8.814706e-05
111	0x37ad901b	2.0690311e-05
112	0x37cef17c	2.4669564e-05
113	0x38404244	4.5838082e-05
114	0x380c2d2a	3.3420663e-05
115	0x385b1077	5.2229003e-05
116	0x37fcc8aa	3.0134182e-05
117	0x383f4850	4.5605295e-05
118	0x3839ca85	4.4296048e-05
119	0x381ede83	3.7877366e-05
120	0x374f6891	1.2362508e-05
121	0xb5ba41d7	-1.3877242e-06
122	0xb598beac	-1.1380375e-06
123	0x3977dae2	0.00023637296
124	0x384363fe	4.6584748e-05
125	0x38046e02	3.1573705e-05
126	0x37d2a0dd	2.5108859e-05
127	0x379e9f43	1.890923e-05
128	0x378a46ea	1.6483904e-05
129	0x382b11d1	4.078617e-05
130	0x380caf3f	3.354181e-05
131	0x37d09c14	2.4868212e-05
132	0x3697a2fa	4.5191236e-06
133	0x37ddc971	2.6439056e-05
134	0x37e09259	2.677103e-05
135	0x380e2f6e	3.389961e-05
136	0x38019625	3.089583e-05
137	0x3b6394ca	0.0034726136
138	0x34daabef	4.0730762e-07
139	0x3c316341	0.010826887
140	0x394541ba	0.00018811869
141	0x37d8a304	2.5825117e-05
142	0x373accc5	1.1134141e-05
143	0x37df3322	2.6607482e-05
144	0xb5a5c73b	-1.2351442e-06
145	0xb646e858	-2.963954e-06
146	0x36120c58	2.176288e-06
147	0xbaad289e	-0.0013210957
148	0x3a35870a	0.00069247244
149	0xb8cb5d07	-9.697122e-05
150	0xb9abda9b	-0.00032778535
151	0x396482ea	0.00021792544
152	0xb9233ed1	-0.00015568292
153	0x38834317	6.259063e-05
154	0x3892a4cc	6.992518e-05
155	0x38b24da1	8.502161e-05
156	0xb936fdbc	-0.00017451396
157	0xb8c490ef	-9.373004e-05
158	0xb932b1a0	-0.00017041573
159	0xb89243a4	-6.9744216e-05
160	0xb67c783f	-3.7620919e-06
161	0x366d2552	3.5337475e-06
162	0x359dc573	1.1754877e-06
163	0x397cb846	0.0002410124
164	0xb82613b7	-3.9595845e-05
165	0xb95d32a1	-0.00021095063
166	0xb8d10235	-9.966308e-05
167	0xb8e6d327	-0.00011006585
168	0xb88e9f71	-6.800786e-05
169	0x36a94939	5.0451167e-06
170	0x3811849c	3.4694196e-05
171	0x37f0e3f5	2.871638e-05
172	0x37a8b9b1	2.011363e-05
173	0x376fa548	1.4283993e-05
174	0x38986685	7.2670206e-05
175	0x37ef3a99	2.8518307e-05
176	0xb697127e	-4.5023035e-06
177	0x371e635a	9.440666e-06
178	0xb325c73a	-3.859825e-08
179	0xba6c0397	-0.00090032205
180	0xb9a6f806	-0.0003184678
181	0xb8cf6655	-9.88959e-05
182	0xb9292645	-0.00016131352
183	0xb8849a47	-6.322987e-05
184	0x37c2de02	2.3229983e-05
185	0x38b5e864	8.674039e-05
186	0xb6df3e9c	-6.6532066e-06
187	0x38106b4d	3.4432207e-05
188	0x3790c889	1.725952e-05
189	0x379eb542	1.8919472e-05
190	0x38169029	3.5897046e-05
191	0x382e5c35	4.1570707e-05
192	0xb5c0aacc	-1.4354823e-06
193	0x37a3fada	1.9547926e-05
194	0x34d7bb32	4.0183073e-07
195	0x38e31f2d	0.000108300104
196	0xb8d19271	-9.9931734e-05
197	0xb8c055ce	-9.171256e-05
198	0xb80240e3	-3.1054846e-05
199	0xb783b3d1	-1.570015e-05
200	0x351bfad3	5.8106997e-07
201	0x3744948c	1.1717097e-05
202	0x372e4eca	1.0389553e-05
203	0x380faa4d	3.425246e-05
204	0x37ea0ad9	2.7900025e-05
205	0x37abd771	2.0485111e-05
206	0x3792b228	1.7487517e-05
207	0x370fb455	8.565451e-06
208	0x381ff59a	3.813729e-05
209	0xba48606c	-0.00076437625
210	0xb8b9aaec	-8.853324e-05
211	0x3a72cd4e	0.000926216
212	0x3829edb3	4.0514115e-05
213	0x3942e098	0.0001858495
214	0xb9bc43c2	-0.00035908638
215	0x37d341ca	2.5183796e-05
216	0xb79b83ee	-1.8538874e-05
217	0xb7bfb0f4	-2.2851375e-05
218	0xb7bb5891	-2.233338e-05
219	0xbb009400	-0.0019619465
220	0x390c31dd	0.00013370016
221	0xb733aed8	-1.070994e-05
222	0x3890b529	6.900199e-05
223	0x379d5c82	1.8758936e-05
224	0x38031a9f	3.1257627e-05
225	0x3732a2de	1.0647547e-05
226	0x379c3525	1.8621397e-05
227	0x36c42f1d	5.84674e-06
228	0x37fcfb75	3.0157835e-05
229	0x37b95c59	2.2096721e-05
230	0xb7812c8d	-1.5398744e-05
231	0x37acc35d	2.0594971e-05
232	0xb65fe146	-3.3360716e-06
233	0xb78f3780	-1.7072773e-05
234	0xb77daa10	-1.5119571e-05
235	0x3888a805	6.5162814e-05
236	0x3761d974	1.3461675e-05
237	0x372ef151	1.0427394e-05
238	0x37f48840	2.9150513e-05
239	0x378bed9c	1.6680737e-05
240	0x37669e1d	1.3745882e-05
241	0x37c2686d	2.317523e-05
242	0x378f9ca4	1.711987e-05
243	0x37a3c642	1.9523435e-05
244	0xb78dfac0	-1.6925274e-05
245	0xb7207751	-9.564524e-06
246	0xb6d2b94b	-6.2800586e-06
247	0xb702bb87	-7.792266e-06
248	0xb65fc16a	-3.3342171e-06
249	0xb6a33b98	-4.864716e-06
250	0xb63df55a	-2.8306008e-06
251	0x3880801a	6.1273764e-05
252	0x381050a0	3.4407363e-05
253	0x3833d82c	4.287825e-05
254	0x380757cb	3.226827e-05
255	0x3805d22c	3.190541e-05

exp_avg_sq f4 [64, 72]
0	0x2e1e6ad9	3.601994e-11
1	0x302b3b95	6.229411e-10
2	0x2d8f168f	1.6267236e-11
3	0x3730a4fd	1.0528832e-05
4	0x3468d522	2.1684221e-07
5	0x324aaa04	1.1796605e-08
6	0x3211d4fa	8.488536e-09
7	0x30722bc5	8.810129e-10
8	0x315e1459	3.2316818e-09
9	0x304732d8	7.246803e-10
10	0x30ad264a	1.2598289e-09
11	0x30a87dee	1.22594e-09
12	0x30b71ad7	1.3322631e-09
13	0x3068e220	8.472245e-10
14	0x307235d1	8.8115565e-10
15	0x2f9f748f	2.900475e-10
16	0x2e09a98e	3.130079e-11
17	0x2ffe06a4	4.620705e-10
18	0x2cb7c375	5.222873e-12
19	0x33cfbc56	9.673447e-08
20	0x31a1d3ba	4.7097872e-09
21	0x31165c71	2.188042e-09
22	0x30a706ab	1.2152744e-09
23	0x3070831c	8.749781e-10
24	0x301da13d	5.73454e-10
25	0x3018ac6d	5.554231e-10
26	0x300e02df	5.166338e-10
27	0x30105e77	5.252114e-10
28	0x3024bda6	5.993236e-10
29	0x3016f45d	5.4916943e-10
30	0x2ff0f52a	4.3829945e-10
31	0x2ffa6ec9	4.5553453e-10
32	0x2c3357a1	2.5486074e-12
33	0x2d800e50	1.4558271e-11
34	0x2a6bc423	2.0940241e-13
35	0x33d57730	9.9402655e-08
36	0x31a0fc92	4.685327e-09
37	0x30d5a221	1.554387e-09
38	0x306c8d1d	8.6056834e-10
39	0x30514e88	7.6145357e-10
40	0x30016966	4.7079707e-10
41	0x30158185	5.438994e-10
42	0x30318bcf	6.4590905e-10
43	0x3079892d	9.078061e-10
44	0x300d2ff5	5.136365e-10
45	0x30711d9d	8.771737e-10
46	0x3090433c	1.0496488e-09
47	0x307a656a	9.109359e-10
48	0x2c05179b	1.891354e-12
49	0x2db96ea3	2.1081198e-11
50	0x2c051295	1.8910752e-12
51	0x33282829	3.9152074e-08
52	0x3057094e	7.8229767e-10
53	0x2f835071	2.3885918e-10
54	0x2ee71bfb	1.0509634e-10
55	0x2e3e6803	4.329338e-11
56	0x2e4190d8	4.4011766e-11
57	0x2e873018	6.1476324e-11
58	0x2e25ca13	3.7696134e-11
59	0x2ead6526	7.885097e-11
60	0x2e780ee8	5.640191e-11
61	0x2e9fce4e	7.26713e-11
62	0x2eab411f	7.7877475e-11
63	0x2e9fa66e	7.260047e-11
64	0x311c024d	2.2702296e-09
65	0x37d14b23	2.494973e-05
66	0x31adfd7d	5.063781e-09
67	0x38969098	7.17949e-05
68	0x32031950	7.630959e-09
69	0x31375c9c	2.6682647e-09
70	0x3154a1e5	3.0942087e-09
71	0x32783827	1.44482675e-08
72	0x30818d42	9.426133e-10
73	0x3240fbc5	1.1233117e-08
74	0x30024602	4.739321e-10
75	0x39a4fd46	0.0003146922
76	0x361a115e	2.2957897e-06
77	0x35aeeca1	1.3032878e-06
78	0x34cc3cb4	3.8042128e-07
79	0x34677aa2	2.1558165e-07
80	0x346c1fad	2.1990736e-07
81	0x33f42549	1.13689175e-07
82	0x344b8ed6	1.8957812e-07
83	0x34274d94	1.558131e-07
84	0x33ae11d7	8.1057514e-08
85	0x33d81004	1.0061197e-07
86	0x337499dc	5.695061e-08
87	0x335d164b	5.1475848e-08
88	0x300da9d2	5.153683e-10
89	0x321b95ff	9.056293e-09
90	0x2f111019	1.3193392e-10
91	0x3651184f	3.1157576e-06
92	0x34578a46	2.0073739e-07
93	0x33b2953e	8.315918e-08
94	0x33882657	6.3399675e-08
95	0x3320a7ce	3.740552e-08
96	0x32d2b2b7	2.4528488e-08
97	0x32bfbe07	2.2321741e-08
98	0x32aef2b1	2.036663e-08
99	0x3296d816	1.7560563e-08
100	0x32a060aa	1.867041e-08
101	0x32942673	1.7246952e-08
102	0x328b762b	1.6235466e-08
103	0x32792729	1.4502612e-08
104	0x2e7a1aea	5.6867323e-11
105	0x309999b3	1.1175899e-09
106	0x2d2444ac	9.337569e-12
107	0x366ebc5a	3.5574399e-06
108	0x34bdd6af	3.5360196e-07
109	0x3394f600	6.936534e-08
110	0x3403c911	1.2273473e-07
111	0x32ef92a2	2.7889943e-08
112	0x3315f1af	3.4911576e-08
113	0x330cf242	3.2816622e-08
114	0x32e1d753	2.6291366e-08
115	0x32db8494	2.5555245e-08
116	0x3316ca24	3.5108442e-08
117	0x32e741f2	2.6921928e-08
118	0x3311393e	3.3812505e-08
119	0x33034629	3.0564625e-08
120	0x2ebe9137	8.665995e-11
121	0x30abcece	1.2500665e-09
122	0x2e6b6b8b	5.352833e-11
123	0x359235c4	1.0893496e-06
124	0x32640653	1.3272785e-08
125	0x32005aca	7.471224e-09
126	0x3212aeec	8.538091e-09
127	0x31abc2d7	4.9989057e-09
128	0x312b75bd	2.4950702e-09
129	0x3168a11e	3.3852028e-09
130	0x311897ec	2.2205269e-09
131	0x3108d285	1.9910271e-09
132	0x3160c69b	3.2709184e-09
133	0x312445a3	2.3904725e-09
134	0x314d94ae	2.991594e-09
135	0x31b51b51	5.270899e-09
136	0x338907bb	6.380966e-08
137	0x3a32f7ef	0.0006827106
138	0x33d0d11b	9.723791e-08
139	0x3b1fb6a9	0.0024370349
140	0x34da7825	4.069308e-07
141	0x33b503fb	8.429193e-08
142	0x33cf1331	9.6426795e-08
143	0x34ae9d0b	3.252429e-07
144	0x2f265a2d	1.5129649e-10
145	0x3115cd0e	2.1798914e-09
146	0x2d8ff15b	1.6364401e-11
147	0x36cbe2b6	6.076264e-06
148	0x3504eb5f	4.951634e-07
149	0x343299c1	1.6633477e-07
150	0x334c9197	4.7629864e-08
151	0x32e40fe5	2.6549921e-08
152	0x328e1ddd	1.6544556e-08
153	0x325ff4c1	1.3035959e-08
154	0x321c5ead	9.101922e-09
155	0x323d1190	1.1005241e-08
156	0x3220cb6e	9.35948e-09
157	0x31ee4479	6.934496e-09
158	0x320825c2	7.924827e-09
159	0x31a4199b	4.775939e-09
160	0x2f217434	1.4684148e-10
161	0x31076cdc	1.9706965e-09
162	0x2d8422f2	1.5022181e-11
163	0x34d6728b	3.9943947e-07
164	0x32a8a771	1.9633918e-08
165	0x325bdd0c	1.2797738e-08
166	0x31b7f179	5.3534532e-09
167	0x3187ef61	3.9562313e-09
168	0x311d87b1	2.2923639e-09
169	0x3090498c	1.0498282e-09
170	0x30bed2a8	1.3884192e-09
171	0x30a27b65	1.1822122e-09
172	0x30a19c7e	1.175877e-09
173	0x309593fc	1.0883237e-09
174	0x30724535	8.8137436e-10
175	0x305bee8a	8.001072e-10
176	0x2d6c55cf	1.34341e-11
177	0x2f0c936d	1.2785302e-10
178	0x2b0b5d84	4.95125e-13
179	0x3515abd3	5.575686e-07
180	0x32daa032	2.5451389e-08
181	0x32215635	9.391035e-09
182	0x31ac5966	5.0160223e-09
183	0x3160ca1e	3.271118e-09
184	0x315c1efc	3.2031826e-09
185	0x31306066	2.5666167e-09
186	0x311987a8	2.2341542e-09
187	0x316b98db	3.428389e-09
188	0x312cc4b8	2.5141116e-09
189	0x313122e6	2.5776727e-09
190	0x314a4d96	2.9438971e-09
191	0x316d64f6	3.4545429e-09
192	0x2ce9f48e	6.6494093e-12
193	0x2f185654	1.385499e-10
194	0x2b24b9f2	5.8522555e-13
195	0x32fd4085	2.9482417e-08
196	0x3151d290	3.0533194e-09
197	0x30c7235f	1.4489209e-09
198	0x303faeb1	6.9733647e-10
199	0x30369b0e	6.643156e-10
200	0x2f82eae2	2.3813757e-10
201	0x2f4d18e5	1.8653486e-10
202	0x2f751e4d	2.2293385e-10
203	0x2fa179a6	2.9372166e-10
204	0x2fa4dcf3	2.998842e-10
205	0x2f7b5a05	2.2860298e-10
206	0x2f97cdbe	2.7612929e-10
207	0x30069e99	4.8974297e-10
208	0x32ac8da9	2.0087855e-08
209	0x3833f4bd	4.2904856e-05
210	0x32d6c8d1	2.50042e-08
211	0x38be73ef	9.0815e-05
212	0x321b8042	9.05135e-09
213	0x32e0b4de	2.6159281e-08
214	0x32e6a59e	2.6850838e-08
215	0x33c597b8	9.201125e-08
216	0x30f54bf1	1.784768e-09
217	0x32f3f2d8	2.8399356e-08
218	0x306ba429	8.572579e-10
219	0x39c511a6	0.00037587917
220	0x369268bb	4.3633313e-06
221	0x35557a04	7.952624e-07
222	0x353a079d	6.930148e-07
223	0x3492998d	2.7306342e-07
224	0x34810db2	2.4038087e-07
225	0x3403cdf1	1.2275247e-07
226	0x344e190b	1.9194356e-07
227	0x3418a2c4	1.4215317e-07
228	0x3418c9e6	1.4229553e-07
229	0x340b67a5	1.298309e-07
230	0x3349c431	4.6977394e-08
231	0x334f54a2	4.8272916e-08
232	0x30f2a1d2	1.765381e-09
233	0x32b231bb	2.0744542e-08
234	0x2f617843	2.0506356e-10
235	0x36b1962f	5.2924947e-06
236	0x34c0d2db	3.5916204e-07
237	0x346270f0	2.1088977e-07
238	0x342ba869	1.5986883e-07
239	0x33da9e29	1.0180185e-07
240	0x3388657a	6.351452e-08
241	0x3380df52	6.001086e-08
242	0x330c2ca2	3.2636883e-08
243	0x330b60bd	3.2451442e-08
244	0x331fc7b3	3.7201698e-08
245	0x32f70aee	2.8759555e-08
246	0x3304d964	3.093136e-08
247	0x32ed0560	2.7592876e-08
248	0x2f03540f	1.1944244e-10
249	0x30a2dae0	1.1849259e-09
250	0x2d4f2ad4	1.17760975e-11
251	0x363919d0	2.7582173e-06
252	0x349125f9	2.7035983e-07
253	0x33d1d0d1	9.7703044e-08
254	0x33af8338	8.172941e-08
255	0x33077339	3.153693e-08

exp_avg f4 [64]
0	0xb70ef5ac	-8.5210595e-06
1	0x3872f439	5.7924746e-05
2	0x32a211b6	1.8867336e-08
3	0x3786ccde	1.6069444e-05
4	0x36f1cebc	7.2064267e-06
5	0xb6c0bce1	-5.7440343e-06
6	0xb6ba3785	-5.5496953e-06
7	0xb649e9f8	-3.0087522e-06
8	0xb66e521f	-3.5512564e-06
9	0x36bb3ba3	5.579977e-06
10	0x36f20571	7.2127955e-06
11	0xb663a7a9	-3.3923227e-06
12	0x37555c41	1.2717269e-05
13	0x35bb27ee	1.3944207e-06
14	0xb4bc9faa	-3.51339e-07
15	0xb61687ae	-2.2430718e-06
16	0xb69df211	-4.707145e-06
17	0x3504360c	4.925248e-07
18	0x36c90449	5.9907657e-06
19	0xb6c4e23a	-5.8675914e-06
20	0xb681eb85	-3.8719177e-06
21	0x342f279e	1.6312558e-07
22	0xb6417bd6	-2.8831323e-06
23	0x36c39e41	5.829876e-06
24	0x33300e2f	4.0991093e-08
25	0xb792f2a1	-1.751754e-05
26	0xb21d2cc5	-9.148782e-09
27	0x38079526	3.2325413e-05
28	0xb4e4b919	-4.2602986e-07
29	0xb3b2f38d	-8.3330725e-08
30	0xb59de1ac	-1.1763091e-06
31	0xb84d3376	-4.8923735e-05
32	0xb805bdfd	-3.188661e-05
33	0xb6833010	-3.9096994e-06
34	0xb137ac26	-2.672786e-09
35	0x383e296d	4.533811e-05
36	0xb6bc1d0d	-5.6062186e-06
37	0xb6a2800d	-4.8428833e-06
38	0xb3a84491	-7.835582e-08
39	0x369196f9	4.3389123e-06
40	0x37d246d1	2.5066927e-05
41	0x368aa4c5	4.131902e-06
42	0x3730d4d9	1.0539975e-05
43	0x36c02ffb	5.7276316e-06
44	0xb6d24ee4	-6.267672e-06
45	0x36b1c960	5.298454e-06
46	0x36c70f55	5.932447e-06
47	0x38799b53	5.9510883e-05
48	0x366711bc	3.4432005e-06
49	0xb7184e38	-9.078118e-06
50	0x36ba78c8	5.5572928e-06
51	0x31f82254	7.2216526e-09
52	0x360ac666	2.0679086e-06
53	0xb89ed7c7	-7.574219e-05
54	0x36a25a48	4.8384863e-06
55	0xb3ab3a37	-7.973397e-08
56	0x34cc6a1d	3.807517e-07
57	0xb5b33ff7	-1.3355155e-06
58	0x35c6f71f	1.4824071e-06
59	0xb67c012c	-3.7551608e-06
60	0xb652218a	-3.131196e-06
61	0xb6c064d9	-5.733786e-06
62	0xb6c15323	-5.7615266e-06
63	0x36a0ffe9	4.7981634e-06

exp_avg_sq f4 [64]
0	0x310669b2	1.9559647e-09
1	0x337860af	5.7829933e-08
2	0x2d95a786	1.7013734e-11
3	0x33bf2293	8.9004196e-08
4	0x2f9f5a82	2.898624e-10
5	0x311ae512	2.254016e-09
6	0x302f534a	6.378299e-10
7	0x31730a61	3.5367054e-09
8	0x3115d1a1	2.1801514e-09
9	0x329a7d9f	1.7985085e-08
10	0x30c9b48a	1.4675987e-09
11	0x32cf4d18	2.413303e-08
12	0x32f40f59	2.8412318e-08
13	0x33d70544	1.00126755e-07
14	0x2e393177	4.2108064e-11
15	0x2ff67bd1	4.4835116e-10
16	0x35b4fdca	1.3484907e-06
17	0x31d3c925	6.1637757e-09
18	0x31a4fd2f	4.801812e-09
19	0x32c2a0d7	2.2657714e-08
20	0x374533aa	1.1754144e-05
21	0x2d806047	1.4594671e-11
22	0x2f9e227e	2.876454e-10
23	0x3124499a	2.3906979e-09
24	0x2e1600c6	3.410674e-11
25	0x3288c1f9	1.5920692e-08
26	0x29ce0195	9.148512e-14
27	0x2f8df958	2.582492e-10
28	0x307c7749	9.184658e-10
29	0x2b7d5317	8.9998966e-13
30	0x306e528c	8.67012e-10
31	0x30bd92af	1.379325e-09
32	0x32013d0e	7.5226705e-09
33	0x34851cb8	2.4794076e-07
34	0x2a437e2c	1.7363254e-13
35	0x329aac17	1.8006217e-08
36	0x3568fa84	8.6791283e-07
37	0x31e3b976	6.627654e-09
38	0x32f7e9e0	2.8860939e-08
39	0x3117b0b0	2.2073827e-09
40	0x319125dd	4.22436e-09
41	0x31188563	2.2194733e-09
42	0x312c2dd0	2.5055336e-09
43	0x323b176d	1.0890159e-08
44	0x339c298d	7.271874e-08
45	0x32a81b34	1.9570145e-08
46	0x3101c5d6	1.8884427e-09
47	0x33cb835d	9.476819e-08
48	0x2f9e6f2e	2.881903e-10
49	0x321d49f2	9.155416e-09
50	0x31db6381	6.385051e-09
51	0x2a3defc6	1.686976e-13
52	0x31e20b5a	6.578756e-09
53	0x31db96e4	6.390893e-09
54	0x31c59511	5.7504015e-09
55	0x2c1a140e	2.1895849e-12
56	0x300a17b2	5.023778e-10
57	0x308ef551	1.0401583e-09
58	0x30ed0234	1.7244646e-09
59	0x33e408e2	1.0618693e-07
60	0x2e836bad	5.9763174e-11
61	0x32070a8e	7.860434e-09
62	0x339d64bf	7.329208e-08
63	0x32b6ea85	2.1294236e-08

exp_avg f4 [64]
0	0x38d0bc9f	9.953346e-05
1	0x3905ae7d	0.0001274887
2	0x3a4b6321	0.0007758607
3	0x390751d8	0.00012905092
4	0xbac7c361	-0.0015240723
5	0x38b70816	8.727626e-05
6	0x3a663aeb	0.0008782583
7	0x389ddf7b	7.52797e-05
8	0x38912d7d	6.922612e-05
9	0x3a2e8de9	0.00066587195
10	0xb986385b	-0.0002560046
11	0x389bcf40	7.429579e-05
12	0xb93fcdc4	-0.00018291833
13	0x3a7b3c32	0.000958386
14	0x3899b6a4	7.329628e-05
15	0x38b8d95b	8.814289e-05
16	0x389d7285	7.507674e-05
17	0xb9283d22	-0.00016044502
18	0x39b1f14c	0.0003393985
19	0xba7da3e7	-0.00096756074
20	0x38aae7eb	8.14943e-05
21	0x3a08abb0	0.0005213572
22	0x38a8ee0f	8.055206e-05
23	0x3a47abd9	0.0007616855
24	0x398d782e	0.00026983157
25	0xb9390c2d	-0.0001764751
26	0x3a0c98d4	0.00053633493
27	0xb985c85c	-0.00025517016
28	0x3a1c5949	0.0005964232
29	0x38a13f4e	7.68887e-05
30	0x38a20c0a	7.7270044e-05
31	0x3a0d3efe	0.000538811
32	0xb99dec1a	-0.00030121283
33	0x387e9f41	6.0706636e-05
34	0xba3d0fe1	-0.0007212144
35	0xb9939fb3	-0.0002815701
36	0x388e8e69	6.7976136e-05
37	0x38a48209	7.84435e-05
38	0xb7000d9e	-7.632565e-06
39	0x38d506c6	0.00010157893
40	0xba3b5d4e	-0.00071473874
41	0x3a5792f4	0.0008223497
42	0x3880e623	6.146382e-05
43	0x39b57b69	0.00034614958
44	0xb9901d5c	-0.00027487695
45	0x3a2a659b	0.0006500126
46	0x39aa4534	0.00032476487
47	0x38e0b49f	0.00010714796
48	0xb8f22f7f	-0.00011548306
49	0x38b048d9	8.405903e-05
50	0xb9732014	-0.00023186236
51	0xb9d75ce6	-0.0004107721
52	0xba4f7c07	-0.0007914905
53	0xb9a65a4d	-0.00031729267
54	0x3a104125	0.00055028714
55	0x388dfe5e	6.7707835e-05
56	0x38d68189	0.00010228443
57	0x38a2dbc3	7.765696e-05
58	0x3a57ac9d	0.00082273205
59	0x38a878a6	8.033337e-05
60	0xb90ef662	-0.0001363396
61	0x38b23d00	8.4990636e-05
62	0x38c60c9c	9.4437244e-05
63	0xb9886c4d	-0.00026020632

exp_avg_sq f4 [64]
0	0x331e23c3	3.6819767e-08
1	0x34c50f61	3.67053e-07
2	0x356d5414	8.841173e-07
3	0x356787c7	8.625179e-07
4	0x35fcd406	1.883717e-06
5	0x33ad0358	8.0565485e-08
6	0x35c2e749	1.4521439e-06
7	0x31aab7c4	4.968543e-09
8	0x3119c5c4	2.2376847e-09
9	0x35bb9afc	1.3977692e-06
10	0x35a9e7a3	1.2658896e-06
11	0x31b1a2e1	5.169895e-09
12	0x36a5f235	4.94558e-06
13	0x360dd3fd	2.113403e-06
14	0x30f73ace	1.7988329e-09
15	0x322aa3fd	9.932589e-09
16	0x318b99da	4.0629233e-09
17	0x33da2ef9	1.015996e-07
18	0x35248dbc	6.130101e-07
19	0x359edf6b	1.183694e-06
20	0x31ef6935	6.967776e-09
21	0x350f3b5b	5.3358025e-07
22	0x315863c2	3.1488843e-09
23	0x35febff0	1.8980336e-06
24	0x3434164d	1.677192e-07
25	0x35b9fe13	1.385752e-06
26	0x35a4311d	1.2233246e-06
27	0x356b77e0	8.7718763e-07
28	0x351705b7	5.62602e-07
29	0x31ed3d7d	6.9045982e-09
30	0x3191541f	4.229619e-09
31	0x365e94fc	3.3167298e-06
32	0x35a33d12	1.216222e-06
33	0x30ee8e8f	1.7357297e-09
34	0x35885388	1.01571e-06
35	0x35f3b6fd	1.8158167e-06
36	0x316faebf	3.487841e-09
37	0x32495b01	1.1720432e-08
38	0x36200e15	2.3850055e-06
39	0x33b708e6	8.52322e-08
40	0x35967d06	1.1212258e-06
41	0x34b6c293	3.4041713e-07
42	0x34fe94f6	4.741957e-07
43	0x3580aac2	9.58644e-07
44	0x35697389	8.696739e-07
45	0x35ffdfea	1.9064148e-06
46	0x351f89bd	5.943255e-07
47	0x3593a635	1.1000726e-06
48	0x350c4acc	5.226291e-07
49	0x329b5f09	1.8087592e-08
50	0x35aa7ced	1.2702345e-06
51	0x357aba59	9.340343e-07
52	0x3646dda5	2.9633313e-06
53	0x358da4dd	1.05533e-06
54	0x358127b8	9.622809e-07
55	0x315ddbbc	3.2284637e-09
56	0x3332221e	4.1474884e-08
57	0x31b08116	5.1369495e-09
58	0x35811b75	9.61924e-07
59	0x32a1ab20	1.8820685e-08
60	0x35162aad	5.5941456e-07
61	0x32af4bb1	2.0407102e-08
62	0x33e420a2	1.0623013e-07
63	0x35da8910	1.6282156e-06

exp_avg f4 [64]
0	0x3acf0794	0.0015795105
1	0xba514fa5	-0.0007984585
2	0x38399328	4.4244487e-05
3	0xbade5e72	-0.0016965403
4	0x3a23991a	0.00062407705
5	0xb9c84d2a	-0.00038204464
6	0xb9a576f9	-0.00031559894
7	0xba82431d	-0.0009938214
8	0xba53b567	-0.0008076042
9	0x3a330b71	0.0006830013
10	0xb90d17b5	-0.0001345564
11	0x39fa2b33	0.00047715902
12	0x3a95a255	0.0011416177
13	0xb99bf5ae	-0.0002974695
14	0x39417915	0.00018451021
15	0xb8410d8b	-4.60274e-05
16	0x3a086bcd	0.0005204052
17	0xbab230f6	-0.0013594914
18	0x3a508bae	0.0007955384
19	0x3a942203	0.001130164
20	0x3a582d6a	0.00082465133
21	0xb9950237	-0.00028421145
22	0x3abce1ee	0.0014410594
23	0x3817baf0	3.6175305e-05
24	0xbaa44901	-0.0012533964
25	0xb9567544	-0.00020452315
26	0xbabe7ea3	-0.001453359
27	0x3a4c6a9a	0.00077978673
28	0xba7a84fc	-0.00095565594
29	0xb9a405a7	-0.0003128473
30	0x39075649	0.00012906747
31	0x3a8130ce	0.0009856464
32	0xba4fa928	-0.00079216296
33	0x3a990530	0.001167452
34	0xbb0f72fd	-0.0021888607
35	0x3b1db749	0.0024065545
36	0x38f517ba	0.0001168693
37	0x3a039ef1	0.00050209375
38	0xbaea0bde	-0.001785632
39	0xba26ccbb	-0.00063629047
40	0x3ab21d47	0.0013589048
41	0xb9059968	-0.00012741017
42	0x38d54bd9	0.00010170759
43	0xba96680e	-0.0011475103
44	0xba0bf9b9	-0.0005339641
45	0xbaa3cd3e	-0.001249708
46	0xba080888	-0.00051892595
47	0xba3aa235	-0.00071195076
48	0x374ecd0c	1.2326298e-05
49	0x3956acbb	0.00020472977
50	0xb6a30393	-4.8581946e-06
51	0xb98e667d	-0.0002716071
52	0x3ab86bae	0.0014070177
53	0xb923cf44	-0.00015622104
54	0xba0ced47	-0.0005375933
55	0xb9cfd131	-0.00039637976
56	0xba1a4fac	-0.0005886506
57	0x3a3b5cf9	0.0007147338
58	0xba102e0c	-0.00055000256
59	0x39c24c39	0.00037059354
60	0xba0397cd	-0.00050198735
61	0xb9badc3e	-0.00035640778
62	0x36cf51e5	6.1786145e-06
63	0x3a3512b0	0.00069073867

exp_avg_sq f4 [64]
0	0x35cafe03	1.51241e-06
1	0x364ff3d2	3.0987326e-06
2	0x34989890	2.842321e-07
3	0x36065520	2.0017105e-06
4	0x3623f589	2.4431813e-06
5	0x34b66ec9	3.3980749e-07
6	0x35d30d24	1.572455e-06
7	0x34a4a578	3.0667775e-07
8	0x34b90304	3.446113e-07
9	0x355c4d0e	8.2068516e-07
10	0x353ce2df	7.03656e-07
11	0x34c24539	3.6185682e-07
12	0x35a4b52d	1.2271681e-06
13	0x356de025	8.8615553e-07
14	0x355b845f	8.177648e-07
15	0x35801cc8	9.54512e-07
16	0x35923521	1.089331e-06
17	0x352c809a	6.4262133e-07
18	0x34e6087e	4.2847017e-07
19	0x360d5e6a	2.1065594e-06
20	0x34fa2a24	4.659679e-07
21	0x3505e34c	4.987712e-07
22	0x35110ca7	5.403512e-07
23	0x35c0b940	1.435903e-06
24	0x359f04a5	1.1847775e-06
25	0x3509bde2	5.1312793e-07
26	0x358a9222	1.0324331e-06
27	0x35530125	7.860529e-07
28	0x34c32076	3.63452e-07
29	0x3519e0c3	5.7324013e-07
30	0x35193592	5.7074897e-07
31	0x35a2c9e3	1.2128697e-06
32	0x358ae2f4	1.0347853e-06
33	0x35bb810b	1.3970142e-06
34	0x36652cc6	3.414972e-06
35	0x3616f38b	2.2493502e-06
36	0x3519e630	5.733191e-07
37	0x3531c6b0	6.6226767e-07
38	0x36eb4fd1	7.0128376e-06
39	0x360c8c71	2.0943373e-06
40	0x35120b62	5.44058e-07
41	0x343eb29d	1.7760108e-07
42	0x3485d647	2.4929088e-07
43	0x34f4d11c	4.560069e-07
44	0x3581d1ae	9.672274e-07
45	0x351d505f	5.8604013e-07
46	0x354bae9f	7.58775e-07
47	0x35f4d184	1.8240394e-06
48	0x356860fd	8.656787e-07
49	0x351ac966	5.7662544e-07
50	0x35269e7f	6.207046e-07
51	0x3581e691	9.678353e-07
52	0x359f89f4	1.1886573e-06
53	0x355ba28c	8.1820394e-07
54	0x3517fe5a	5.6622014e-07
55	0x34816460	2.4101155e-07
56	0x3537ff4f	6.8544335e-07
57	0x34e9895d	4.3499577e-07
58	0x34e357ac	4.2345835e-07
59	0x34e2880d	4.219477e-07
60	0x34f907ff	4.6385682e-07
61	0x3518e7c6	5.696169e-07
62	0x3579ee98	9.310693e-07
63	0x350277be	4.860302e-07
