FinalModels/BR/Data1Models/br-0-10000-91-128-0.0001-0.6590.pt (torch, 1511 bytes, 1 tensors)

dnn.0.weight f4 [1, 100]
00000000: 02eb 19be 345e 62bd 9f09 e9bb 7c06 1f3d
00000010: 6170 48bd 40d7 3ebb aa4d dcbd 6594 493c
00000020: 3331 aa3d 8726 35bd 38f3 373d 4e09 7c3d
00000030: 6e44 f1bd 5deb 823d 4e22 cebc 24e3 23be
00000040: cdeb 09be 1443 5e3d 2708 44bc 668c a4bd
00000050: 668b b3bc 80c1 f23c 6863 373d c1f1 59bd
00000060: af7c 8c3b 2cd3 ae3d 835c 92bc 9fc4 89bd
00000070: c459 8cbd 8a7e 0e3d 36ba ba3d e262 c0bd
00000080: af92 80bd 9f18 48ba 3382 6dbb 9c02 ab3d
00000090: 0db2 2bbc c8bc 0ebe 7a56 a2bc 297a 2cbc
000000a0: 3c3f 1f3d 1836 803d 8169 aa3c f4bc b6bd
000000b0: 8bba 2c3d 3bdc d43c b243 853d 26b0 263d
000000c0: 5748 dfbc 38ba e9bd faed 673c ef08 e1bc
000000d0: c0c5 0a3d c7f5 7e3d 5fac 47bc 8b04 4cbd
000000e0: 4f06 81bd 96c0 36bd e6f7 0a3c 86f6 aabd
000000f0: a606 8d3e 90f6 cebc ba7e bebd d9e6 1abd
00000100: 0d2f 603d a1d4 433c d677 733d d9c4 c13d
00000110: 95f0 1fbd 9776 063e be0e 99bd 65ce 3e3b
00000120: 07c2 1fbc 6be0 e0bc c3cd e73c 7a2c af3d
00000130: 5b9f bfbd e12c a33d adfd 5fbd c557 84bd
00000140: b282 58bd 803b 95bd 533f 693d fb64 7abd
00000150: 2fd3 8ebd ca51 3b3d 2fa8 e7bd c011 64bd
00000160: 94a2 aa3c 0946 823d 2c6e 98bd f44a 6fbd
00000170: 12af f83c 3c76 01be 7ba4 ff3c d1e1 13bd
00000180: b457 bcbd f889 43bd e8b9 9b3c 380c 3c3d
-0.15031055 -0.05526562 -0.0071117426 0.038824543 -0.048935298 -0.0029119998 -0.10757001 0.012303446
0.08310165 -0.044226196 0.044909686 0.06153231 -0.1178063 0.06392548 -0.025162842 -0.16004616
-0.13468857 0.05426319 -0.011964834 -0.080345914 -0.021917056 0.029633284 0.044772536 -0.05320907
0.0042873244 0.085363716 -0.017866379 -0.067269556 -0.06853059 0.034788646 0.09117548 -0.093938604
-0.06277978 -0.00076330634 -0.0036240935 0.08350107 -0.010479462 -0.13939202 -0.019816626 -0.010527172
0.038878664 0.062603176 0.020802261 -0.08922759 0.04217009 0.02598392 0.065070525 0.040695332
-0.027256174 -0.114124715 0.014155859 -0.02747008 0.033879995 0.06224611 -0.012187093 -0.04980902
-0.063000314 -0.044617258 0.008481955 -0.08347802 0.27544135 -0.025264055 -0.09301515 -0.03781781
0.05473237 0.01195255 0.059440456 0.09461374 -0.039047796 0.13131176 -0.07473515 0.002911472
-0.00975085 -0.02745076 0.028296357 0.08553405 -0.093565665 0.07967544 -0.054685283 -0.06462053
-0.052859016 -0.07286739 0.056945156 -0.06113146 -0.06973874 0.045732297 -0.11311375 -0.05568099
0.020829476 0.063610144 -0.074428886 -0.05842109 0.030356918 -0.12642759 0.03120636 -0.036104027
-0.091964155 -0.047739 0.019009545 0.04591009
