FinalModels/BR/Data1Models/br-1-10000-91-128-0.0001-0.7059.pt (torch, 1511 bytes, 1 tensors)

dnn.0.weight f4 [1, 100]
0	0x3a1c7e16	0.0005969716
1	0x3db49e48	0.08819252
2	0x3a4619d1	0.00075569475
3	0xbdc3f8be	-0.09568928
4	0x3c8531b4	0.016259052
5	0xbe12c555	-0.14333089
6	0x3d708ca3	0.05872787
7	0x3d25fa36	0.040521823
8	0x3c0a2f87	0.008434183
9	0xbd3590a8	-0.044327408
10	0x3ccaaf57	0.024741812
11	0xbd9e28eb	-0.07722648
12	0xbdc1f2e0	-0.09470153
13	0x3c9eafe2	0.019370977
14	0x3d9e18f5	0.07719604
15	0x3c8080f3	0.015686488
16	0x3d1980cb	0.037476342
17	0xbd52a3d3	-0.051425766
18	0xbd27987e	-0.040916912
19	0xbc2c5943	-0.0105193285
20	0xbddcf65e	-0.10789178
21	0xbd948721	-0.07252336
22	0x3b7aaec5	0.0038251143
23	0x3da4649e	0.08027004
24	0xbddb13da	-0.10697146
25	0x3ba40040	0.0050049126
26	0xbd44660a	-0.047948875
27	0x3dc95238	0.09830135
28	0x3cdfd66a	0.02732392
29	0xbd06feac	-0.032957718
30	0xbc04a463	-0.0080958335
31	0x3d871686	0.06596093
32	0x3d71f4ce	0.059071355
33	0xbd997681	-0.07493306
34	0x3c86ec7f	0.016470192
35	0x3d0530be	0.032517187
36	0xbd88f226	-0.06686811
37	0x3d846ae0	0.06465697
38	0xbde8635f	-0.113470785
39	0x3da8d1a9	0.082431145
40	0xbd36faa2	-0.044672616
41	0xbc72d4b5	-0.014821221
42	0x3d8a65f5	0.06757728
43	0x3d85cf44	0.065336734
44	0xbb51cb05	-0.0032011878
45	0xbc8b5866	-0.017009925
46	0x3d0e4ba3	0.0347401
47	0x3db2a7f0	0.08723438
48	0x3d71e6e7	0.059058096
49	0xbd0a7778	-0.03380534
50	0x3d689b0c	0.05678849
51	0x3d096c79	0.033550713
52	0xbc124996	-0.008928677
53	0x3d04a80a	0.032386817
54	0x3d10b3c6	0.035327695
55	0x3d35f8fd	0.044426907
56	0xbd3b2ede	-0.045698993
57	0x3db12ea5	0.08651475
58	0x3d508200	0.050905228
59	0x3de1a30a	0.11017425
60	0x3e258f85	0.1616803
61	0x3d818a25	0.06325177
62	0xbc27ae94	-0.010234494
63	0x3d62c241	0.055361036
64	0xbd532a7e	-0.051554196
65	0xbe4cdab0	-0.20005298
66	0x3c1ad574	0.009450305
67	0x3d0671bf	0.03282332
68	0x3d7a0ad5	0.061045486
69	0x3db76c07	0.089561515
70	0x3d9255ab	0.07145246
71	0xbd5f207a	-0.05447433
72	0x3bb41ec9	0.005496834
73	0x3d09d91b	0.033654314
74	0x3bee3d14	0.0072704647
75	0xbcde2355	-0.027116457
76	0x3d84f6c7	0.064923815
77	0xbbfdd07d	-0.007745801
78	0x3e02940b	0.12751786
79	0x3d5069ee	0.050882272
80	0x3e014845	0.12625225
81	0xbd3efc9f	-0.046627637
82	0xbc03ca60	-0.008043855
83	0x3d61b53a	0.05510447
84	0xbc2a5a25	-0.010397469
85	0x3ccbf2f4	0.024896123
86	0x3c17e615	0.009271164
87	0xbd7ca57b	-0.061681252
88	0xbd0a0761	-0.033698443
89	0xbc3e87f9	-0.011629098
90	0xbd0e4795	-0.034736235
91	0x3db1e6c1	0.08686591
92	0xbdd4b6ab	-0.10386404
93	0xbd88e041	-0.06683398
94	0x3da6b94e	0.08140813
95	0x3dcc5be7	0.099784665
96	0x3d9e94b1	0.077432044
97	0xbde536a6	-0.11192064
98	0x3afea5d0	0.0019428078
99	0x3d2f73a8	0.042834908
