FinalModels/BR/Data1Models/br-2-10000-100-128-0.0001-0.5783.pt (torch, 1511 bytes, 1 tensors)

dnn.0.weight f4 [1, 100]
0	0x3cbca954	0.02302996
1	0xbdb17d72	-0.08666505
2	0xbc5cd18a	-0.013477692
3	0x3dc43d99	0.09582061
4	0xbcbfd555	-0.023417154
5	0x3e0bfe52	0.13671234
6	0x3c388b93	0.011263746
7	0xbc4b482e	-0.012407346
8	0xbd234d6b	-0.039868753
9	0xbd342e5c	-0.043989524
10	0x3d3efa3d	0.046625365
11	0x3d29504a	0.041336335
12	0x3e248342	0.16065696
13	0xbd5cc696	-0.053900324
14	0xbd950400	-0.072761536
15	0x3de75035	0.11294595
16	0xbdab4617	-0.08362978
17	0xbab172c0	-0.0013538226
18	0xbc20121f	-0.009769945
19	0xbcae4854	-0.021274723
20	0x3b9efa5e	0.0048516234
21	0xbd2541a9	-0.04034582
22	0x3e330d62	0.17485574
23	0x3d044093	0.032288145
24	0xbd80f62e	-0.06296955
25	0x3dd49c72	0.10381402
26	0xbcee2da0	-0.02907449
27	0x3d114575	0.03546663
28	0xbdbcfff4	-0.09228507
29	0xbd8705ff	-0.065929405
30	0x3db72b47	0.089438014
31	0xbdb1e4d0	-0.08686221
32	0x3d65b0d8	0.056076854
33	0x3d7b5d75	0.061368424
34	0xbd9c0b9b	-0.07619401
35	0xbdc669e5	-0.096881665
36	0x3d7eff83	0.062255394
37	0x3d2a706d	0.041611124
38	0xbcb7ceb2	-0.022437427
39	0x3d458d32	0.048230357
40	0xbd9a7278	-0.075413644
41	0xbd8bdadd	-0.06828854
42	0xbc1ac2a3	-0.009445819
43	0xbd911069	-0.07083208
44	0x3c7e2471	0.015511618
45	0x3d232bb9	0.03983662
46	0x3cda4ce8	0.026648
47	0x3dbd6186	0.09247117
48	0xbd1bc419	-0.03802881
49	0x3cfaea2a	0.030629236
50	0xbd69216e	-0.056916647
51	0x3cbda93a	0.023151983
52	0x3c064b0b	0.008196603
53	0xbd2fe373	-0.04294152
54	0x3db5034f	0.08838522
55	0x3cf7a213	0.03022865
56	0x3ded5d1e	0.11590026
57	0xbd0321ce	-0.03201466
58	0xbdb5024b	-0.08838328
59	0x3874d64c	5.8373713e-05
60	0x3d690764	0.056891814
61	0xbc38c34a	-0.011277029
62	0xbd8ceb6b	-0.0688084
63	0xbd951ed6	-0.07281272
64	0x3da2c901	0.07948495
65	0xbda5c713	-0.08094611
66	0xbdc48222	-0.09595133
67	0x3d08d4d5	0.033406097
68	0xbd525303	-0.051348697
69	0xbccf43c8	-0.025300875
70	0xbb8159b9	-0.0039474634
71	0xbd3d9ff2	-0.046295114
72	0x3d83f91e	0.06444
73	0xbce1d7f7	-0.0275688
74	0xbd69cc0b	-0.057079356
75	0xbda53195	-0.08066098
76	0xbdf51889	-0.1196757
77	0x3de79f86	0.113097236
78	0xbdb0cc6d	-0.08632741
79	0xbd44f4c9	-0.048085008
80	0xbd682eb4	-0.056685165
81	0x3d26e8d9	0.040749405
82	0x3d10bfea	0.035339274
83	0x3d941d82	0.07232191
84	0xbd6d8318	-0.05798635
85	0x3cedb81d	0.029018456
86	0x3d00658b	0.03134684
87	0x3dbebf62	0.09313847
88	0x3bb42049	0.0054970128
89	0x38d110c5	9.96902e-05
90	0xbd257e31	-0.04040355
91	0x3b60081d	0.0034184523
92	0x3dcd54db	0.100259505
93	0x3d0b0962	0.033944495
94	0x3d44470e	0.047919326
95	0x3dacfd4f	0.08446752
96	0xbe1ee690	-0.1551764
97	0x3aa29f81	0.0012407155
98	0xbc671616	-0.014104387
99	0xbbf5c517	-0.0075003016
