FinalModels/Sener/CleanData1Models/sener_dnn3-5000-91-128-0.01-0.6847.pt (torch, 126915 bytes, 54 tensors)

dnn.0.weight f4 [64, 100]
000000 5c 2e d3 2e c0 4b 2f 2d 36 60 c9 30 c0 88 d4 ae
       9.603404e-11 9.964418e-12 1.465202e-09 -9.6649355e-11
000010 72 a6 96 af 0e 15 2f ae ac 76 72 af 83 88 41 32
       -2.7403108e-10 -3.9809094e-11 -2.2051933e-10 1.1265118e-08
000020 4d 78 2b af d4 0f c4 2d c8 77 fa 2c a0 04 22 ab
       -1.5595099e-10 2.228965e-11 7.1187257e-12 -5.756038e-13
000030 a4 75 87 ae 7e df ea 2d a3 0a cb ae 35 a8 09 af
       -6.1599864e-11 2.670197e-11 -9.233261e-11 -1.2519837e-10
000040 8e a1 06 ad dd 0c 2d 2f 30 5a b6 36 37 f7 18 af
       -7.6528905e-12 1.5738828e-10 5.434522e-06 -1.3912148e-10
000050 cb c4 c1 2e 95 f8 86 ac 70 f3 f5 2e cd 6c f5 2e
       8.811581e-11 -3.836107e-12 1.1184553e-10 1.1160637e-10
000060 c8 60 1b af 1e f8 42 af 4b 65 9b 2d 30 38 df 2d
       -1.4131551e-10 -1.7732346e-10 1.7666443e-11 2.5377117e-11
000070 dd 8f 85 2e 4d 6f dc af fb 5e 26 2f fc fc e5 ac
       6.073695e-11 -4.009685e-10 1.5131356e-10 -6.5366584e-12
000080 81 18 dc 2d e4 5e 98 ae de c8 b4 2e 29 08 fa ac
       2.5021986e-11 -6.929016e-11 8.2211335e-11 -7.1063333e-12
000090 ee 8a 12 af cf 21 77 2e 8f a0 46 2f d6 8b 32 ae
       -1.332798e-10 5.6191326e-11 1.8065037e-10 -4.0596713e-11
0000a0 48 ab 75 2e 42 b2 f3 ae 3f 84 18 af 5d 57 1a 30
       5.585868e-11 -1.10820256e-10 -1.3871303e-10 5.6149024e-10
0000b0 74 d0 70 2f f7 b2 cb ae e1 fd e5 ae 8a bc 8e 2e
       2.190193e-10 -9.263162e-11 -1.0458812e-10 6.4909036e-11
0000c0 86 1e 4b 2f 28 9c 3a 2f bd 1e d9 2d 2d b6 b8 2e
       1.8473587e-10 1.6972079e-10 2.4683694e-11 8.399712e-11
0000d0 22 1b d2 af 5c 51 17 af f5 ef 87 2e cb 47 6f 2e
       -3.8218056e-10 -1.3762275e-10 6.181714e-11 5.4406073e-11
0000e0 5c 3d 88 2a 84 b6 a6 2d 64 de 9d 2e 47 cb c6 af
       2.420103e-13 1.8953068e-11 7.179038e-11 -3.6160427e-10
0000f0 16 70 b4 2e d2 d4 f9 ab 9b 3e ab ae d9 76 30 af
       8.205363e-11 -1.7751584e-12 -7.787301e-11 -1.604933e-10
000100 f5 89 35 2e e5 5f 73 ae 0a 85 14 af 95 f3 8e ac
       4.1277166e-11 -5.5336975e-11 -1.3507787e-10 -4.0629258e-12
000110 1c d0 80 2e 16 cc 93 ad 0d bb 46 2e f5 cf 86 31
       5.857734e-11 -1.6802598e-11 4.5186122e-11 3.9235553e-09
000120 94 dc 69 35 ee 20 00 2f 99 61 9a af ba 8d 83 ad
       8.712025e-07 1.1653231e-10 -2.8081784e-10 -1.4955915e-11
000130 cd c3 11 ae d6 c4 de ae 1e 80 8c af 64 48 2e 2f
       -3.314309e-11 -1.0130356e-10 -2.5556884e-10 1.5850926e-10
000140 f4 92 9d af 2a 27 85 ae 3e 68 9b 2f 84 ea 24 ae
       -2.866255e-10 -6.055097e-11 2.8268404e-10 -3.7497574e-11
000150 88 93 72 2b 7a 91 48 ac 97 db 78 ad 11 f4 80 af
       8.618041e-13 -2.8502465e-12 -1.4145927e-11 -2.3456484e-10
000160 cc 1c 3c 2e 52 40 47 af 62 be 14 ae 36 b4 3a 2d
       4.2771828e-11 -1.8121796e-10 -3.3820398e-11 1.0612891e-11
000170 3d 67 f5 2e 62 89 e2 ad 53 a6 eb ae 18 91 24 2f
       1.1159649e-10 -2.5754236e-11 -1.0716108e-10 1.4967261e-10
000180 05 f6 a0 af a8 0b 84 2e 6c 8a 98 af da f6 b3 34
       -2.9278638e-10 6.0047356e-11 -2.7746994e-10 3.3520956e-07
000190 37 d6 ba b3 8a 51 b9 33 72 b2 f0 b3 47 8e cd 33
       -8.7002654e-08 8.629566e-08 -1.120833e-07 9.5719365e-08
0001a0 00 a1 73 32 14 8c 13 b2 29 be 75 33 c0 69 49 34
       1.4181069e-08 -8.588376e-09 5.7216457e-08 1.8758055e-07
0001b0 c3 14 8a b3 d0 a5 a1 b3 4d 27 72 b3 d4 06 23 34
       -6.429902e-08 -7.527308e-08 -5.638076e-08 1.5183042e-07
0001c0 31 a8 23 b3 32 bf cb b0 9c b2 c4 33 1d 0f 88 b3
       -3.8104364e-08 -1.4824535e-09 9.15945e-08 -6.3357426e-08
0001d0 28 03 5e 33 50 fc d0 33 26 47 fa 33 c3 b2 8c 33
       5.1691273e-08 9.73165e-08 1.1654474e-07 6.5517746e-08
0001e0 60 51 b8 b2 33 fb 31 34 3c 16 a7 31 0c 16 f3 b3
       -2.1457424e-08 1.6575795e-07 4.8628674e-09 -1.13195796e-07
0001f0 68 bb d1 b3 d2 8d 22 33 82 63 3e b3 2f 25 b4 b3
       -9.76641e-08 3.784755e-08 -4.4328324e-08 -8.388667e-08
000200 ca 59 9e b2 a3 c6 21 b4 a6 32 ae 32 74 fa 7a 33
       -1.8434452e-08 -1.5066557e-07 2.0279298e-08 5.8435447e-08
000210 5f 6d 8e 33 77 b0 7d 33 45 89 60 33 64 ed 06 b3
       6.632285e-08 5.9066647e-08 5.227891e-08 -3.141521e-08
000220 26 27 f5 33 76 33 1e 32 37 23 ae 33 da 01 4a b1
       1.14158226e-07 9.208511e-09 8.108912e-08 -2.9395921e-09
000230 b4 70 11 34 2c 55 0e b4 20 d0 09 b4 48 3a 05 b4
       1.3545178e-07 -1.3255766e-07 -1.2834835e-07 -1.2407793e-07
000240 ed 56 e2 33 6e b7 b4 b3 af a7 7e 32 7d b7 d2 b3
       1.0539757e-07 -8.415269e-08 1.4822873e-08 -9.8122634e-08
000250 63 2f 8d b2 e2 47 d3 b1 07 4d 73 b3 f0 f5 ff af
       -1.643611e-08 -6.1490804e-09 -5.6647902e-08 -4.655898e-10
000260 51 28 75 34 e5 13 41 32 21 a7 ef 33 9c ff 26 b3
       2.283207e-07 1.1238602e-08 1.1159705e-07 -3.8882362e-08
000270 d1 e7 c1 b2 35 a1 20 34 6e b2 e7 32 5a 8b 43 34
       -2.2573575e-08 1.4959808e-07 2.697308e-08 1.8211486e-07
000280 40 d7 5d 33 28 9e 9d 33 a0 75 0d b3 fa 33 8b 33
       5.165134e-08 7.339651e-08 -3.29361e-08 6.4821464e-08
000290 30 15 a3 30 ac ad 7d 33 37 59 b3 32 a5 4d 7f b2
       1.1865833e-09 5.9064106e-08 2.0878913e-08 -1.4860608e-08
0002a0 73 1a 83 33 9a 02 af 33 ed fd 7d 33 2c 6f a0 33
       6.104974e-08 8.149546e-08 5.9137097e-08 7.4708026e-08
0002b0 ed 0c 5d 34 59 25 b5 b3 b3 5a d4 b3 25 26 9a b3
       2.0586931e-07 -8.435263e-08 -9.8885174e-08 -7.178122e-08
0002c0 09 9e be 33 44 36 f3 b1 5b ff 4f b3 3b d8 18 b3
       8.876311e-08 -7.0784e-09 -4.8428188e-08 -3.558692e-08
0002d0 8a 6e 25 b4 22 c1 06 31 ae 64 9c 33 f6 a0 93 b2
       -1.5407036e-07 1.960935e-09 7.2826296e-08 -1.7186249e-08
0002e0 95 0a 90 b3 80 c7 ea b3 ce dd 99 b3 e9 2e 51 b2
       -6.7074474e-08 -1.0932763e-07 -7.164964e-08 -1.2176067e-08
0002f0 16 8f 01 33 d6 72 e8 b3 bb fd d3 33 33 8c be 33
       3.016529e-08 -1.08242304e-07 9.8716065e-08 8.8730665e-08
000300 35 a3 9a b3 79 88 1e 33 63 b3 2a 30 9b f1 1e b2
       -7.200871e-08 3.6911363e-08 6.2100564e-10 -9.251745e-09
000310 78 c7 79 b3 a9 cd 82 33 5c 05 06 b4 4b 08 49 34
       -5.8156246e-08 6.091006e-08 -1.2481672e-07 1.8722601e-07
000320 bd 42 04 18 61 29 66 16 79 d1 93 98 19 89 89 97
       1.7094294e-24 1.8592309e-25 -3.8210123e-24 -8.888026e-25
000330 97 30 ef 96 10 32 6d 17 f9 e7 3d 16 aa b1 c1 18
       -3.8643197e-25 7.664202e-25 1.5340496e-25 5.0068726e-24
000340 e3 7e 24 97 5b 05 37 96 5b 7d 9e 17 ec f6 47 18
       -5.315141e-25 -1.4784312e-25 1.0242155e-24 2.584481e-24
000350 a0 42 3b 96 81 60 47 18 0f 73 f2 96 e7 c5 92 17
       -1.5126763e-25 2.576887e-24 -3.916982e-25 9.484986e-25
000360 c0 a9 38 17 41 ab a7 a2 52 de 30 29 3b 42 08 97
       5.966786e-25 -4.5446763e-18 3.9272683e-14 -4.4027565e-25
000370 05 49 23 16 5c 60 a2 16 8b b3 89 97 d5 07 c7 17
       1.3190076e-25 2.6233323e-25 -8.898741e-25 1.2862051e-24
000380 37 a8 57 97 a6 bb 39 97 58 2e 48 17 73 2b 84 18
       -6.9682564e-25 -6.001357e-25 6.468198e-25 3.4165073e-24
000390 51 ab b7 17 b5 fd 0f 19 18 84 40 95 03 8b ef 96
       1.1869344e-24 7.4441625e-24 -3.8878295e-26 -3.870026e-25
0003a0 29 fe da 97 e0 ac 8c 96 bb 66 aa 17 fb b6 18 17
       -1.4152079e-24 -2.272732e-25 1.1011925e-24 4.9344803e-25
0003b0 5b c3 82 18 32 bd 75 17 61 47 38 17 b6 92 c7 17
       3.380147e-24 7.940257e-25 5.95437e-25 1.2897109e-24
0003c0 1d 11 1f 96 10 14 c1 17 9e ec 86 16 b9 6d 4e 9c
       -1.2849318e-25 1.2477397e-24 2.1798194e-25 -6.8301496e-22
0003d0 94 9c 14 96 2d 1b 6b 98 6a 0a 3f 17 79 f3 37 18
       -1.2004752e-25 -3.0386758e-24 6.1728573e-25 2.3775118e-24
0003e0 b4 85 95 96 df 7c d8 17 98 21 1b 96 7b 68 8f 17
       -2.4156627e-25 1.3990195e-24 -1.25314e-25 9.267533e-25
0003f0 49 39 80 18 aa a1 bf 17 6e 35 65 17 bb b6 c5 16
       3.3145068e-24 1.2383895e-24 7.406133e-25 3.1942386e-25

dnn.0.bias f4 [64]
000000 2b b1 c9 ae f3 6b 19 b4 83 d9 46 17 fc 2d 5e 20
       -9.171893e-11 -1.4288507e-07 6.425179e-25 1.8819346e-19
000010 58 24 df b8 c5 5e a9 ad 26 f4 fd bb 78 0b b7 b9
       -0.00010640238 -1.9255162e-11 -0.007750052 -0.00034913025
000020 5a c7 ae bb a3 56 47 b4 aa af 01 00 0b 0b d8 3c
       -0.005333823 -1.8564837e-07 1.54852e-40 0.026372453
000030 d0 4a 93 bb 55 27 bd bd 62 a1 48 b8 54 d5 03 a6
       -0.0044950023 -0.092360176 -4.7834015e-05 -4.573887e-16
000040 5c cf 6b 32 46 53 99 bc 72 f5 e1 33 f4 e2 a5 bb
       1.3725948e-08 -0.018716466 1.0522025e-07 -0.0050624553
000050 56 68 09 b4 d9 b3 cb bc 72 19 5f b5 88 8a 3f 35
       -1.2797076e-07 -0.024866031 -8.3111e-07 7.1354634e-07
000060 dd 3e fe 96 c0 23 d1 9d 44 93 10 1f ea 68 b3 ae
       -4.1075586e-25 -5.5358804e-21 3.0615e-20 -8.158614e-11
000070 23 bc da bc e2 3c 08 38 d1 5f a9 bb d7 22 42 3c
       -0.026701039 3.248163e-05 -0.005168893 0.011849127
000080 ab e6 8b bb 68 5c 02 bb b8 94 25 b5 7f b2 91 ba
       -0.004269441 -0.0019891504 -6.1683704e-07 -0.0011115818
000090 77 a6 d7 32 af f1 93 38 42 dd f0 95 e6 cb db aa
       2.5104994e-08 7.054523e-05 -9.728431e-26 -3.9043698e-13
0000a0 ba 3e ae b4 57 6c 9a 38 04 36 aa 3b 84 0d 7c 3b
       -3.2455665e-07 7.363472e-05 0.0051944274 0.0038460204
0000b0 b5 97 04 3e d2 b6 5e ba 2f 43 b1 b7 b5 da dd 04
       0.12948497 -0.000849587 -2.1131329e-05 5.21577e-36
0000c0 32 cf 00 39 63 97 5d b8 7d f8 31 a6 4b 2a 8c 39
       0.00012284218 -5.2831496e-05 -6.1745975e-16 0.00026734392
0000d0 f4 75 41 b9 2c f6 0c b9 14 30 51 bd da 57 07 bd
       -0.00018449855 -0.00013443147 -0.05107124 -0.033042766
0000e0 d2 7f 0f 38 38 b9 f2 bb 08 cc 2e ba e1 63 95 b6
       3.42129e-05 -0.0074073337 -0.0006667976 -4.4521735e-06
0000f0 bf 4c 43 bc ac 7f c0 bd 8c f6 52 bb aa e6 b7 bc
       -0.011920153 -0.093993515 -0.003219041 -0.022448856

dnn.2.weight f4 [32, 64]
000000 80 f1 b4 18 38 4e b2 8e a4 84 ab 88 aa 08 90 1e
       4.6772762e-24 -4.395571e-30 -1.0322872e-33 1.5250176e-20
000010 13 ed 06 80 49 3c 01 00 16 13 07 8e 3c b7 df 93
       -6.36059e-40 1.13462e-40 -1.6649224e-30 -5.6473797e-27
000020 ad 25 c2 af 50 12 02 80 96 30 05 80 f7 09 9c 98
       -3.5315165e-10 -1.9024e-40 -4.76607e-40 -4.0335117e-24
000030 63 ed 95 96 c8 b3 e7 8e 4c 04 be 08 94 98 b2 04
       -2.422206e-25 -5.711902e-30 1.1436219e-33 4.198772e-36
000040 32 e6 00 80 ae e2 93 8a 88 1c 9e 1a 80 4f 1c 11
       -8.2579e-41 -1.4240853e-32 6.539336e-23 1.2330728e-28
000050 17 b4 01 00 c4 4d e6 8a 56 88 14 00 09 b0 05 88
       1.5644e-40 -2.2177447e-32 1.885618e-39 -4.023016e-34
000060 f7 0a 01 00 07 af 8b 1e c4 3e 51 15 fe fa e5 92
       9.5769e-41 1.4789587e-20 4.2256727e-26 -1.4513806e-27
000070 e0 f2 3f 06 b2 a7 52 91 d0 42 3c 18 92 3a 32 8c
       3.6101544e-35 -1.6617754e-28 2.4332162e-24 -1.3730247e-31
000080 08 11 82 81 0c a5 11 80 e0 4e 0e 96 ef bd cd 1a
       -4.7778897e-38 -1.620411e-39 -1.1495557e-25 8.509287e-23
000090 2c f3 7c 9c de 49 bb 9a bf 48 59 00 7a a5 03 80
       -8.36941e-22 -7.7460726e-23 8.199456e-39 -3.34868e-40
0000a0 fc f5 27 1b a6 24 2d bc 61 f6 ce 9f 67 81 a5 8d
       1.3893398e-22 -0.01056782 -8.7651993e-20 -1.0200063e-30
0000b0 5a 82 b5 9b 85 b2 83 0d 88 13 48 8c 9c 42 04 00
       -3.0028176e-22 8.116475e-31 -1.5413317e-31 3.91237e-40
0000c0 9e d1 d6 10 da 42 c2 bb d5 b2 3c 80 ed a4 94 0c
       8.4731083e-29 -0.0059283795 -5.574283e-39 2.2902272e-31
0000d0 9e f2 1d 15 bc 7e fb 1a 14 c4 a6 0b 14 31 12 98
       3.189729e-26 1.0401592e-22 6.42359e-32 -1.8894836e-24
0000e0 83 39 aa 08 b0 59 a4 15 26 a1 2f 91 b0 c0 d8 16
       1.0245024e-33 6.6380574e-26 -1.3854724e-28 3.5018285e-25
0000f0 e6 62 9a 96 b6 aa d7 b7 03 4b c2 1c d8 f8 77 1a
       -2.4942456e-25 -2.570949e-05 1.2857233e-21 5.1279417e-23
000100 8a 80 b7 96 0d fa f5 1a 65 6e 23 0f 49 b2 b0 ad
       -2.9646364e-25 1.01733604e-22 8.057782e-30 -2.0088058e-11
000110 fd 80 f0 a7 12 ce 82 08 64 39 28 03 de aa 09 ae
       -6.675323e-15 7.872537e-34 4.9436644e-37 -3.1301954e-11
000120 4e b6 ab 1c ff 92 84 39 85 fc f4 1e b0 18 ea 96
       1.1362955e-21 0.00025286523 2.5938945e-20 -3.782032e-25
000130 52 6c 2d 91 3e 24 d3 9d f5 90 34 a2 91 30 4d 00
       -1.3680672e-28 -5.588871e-21 -2.4471288e-18 7.088756e-39
000140 9d 24 30 a7 d5 97 e1 a9 cc 00 e8 0a e0 b8 03 a1
       -2.4444755e-15 -1.0018346e-13 2.2341087e-32 -4.4629206e-19
000150 82 12 11 0c 3e ae 8b 97 85 20 02 00 d8 da b2 8d
       1.1175963e-31 -9.026649e-25 1.95337e-40 -1.1022782e-30
000160 4b 7f e6 80 0b 54 60 99 fc 16 aa 98 ca 5f be 0f
       -2.1167828e-38 -1.1597501e-23 -4.396718e-24 1.8772343e-29
000170 bf de 90 03 77 3a 68 2d 71 e4 24 91 2a 72 b7 ae
       8.514699e-37 1.3200655e-11 -1.3007713e-28 -8.342156e-11
000180 ce 8b ab 07 45 2a 80 02 69 f0 aa 9b cd bc 33 27
       2.581139e-34 1.8832171e-37 -2.8279502e-22 2.494359e-15
000190 bc 28 0e ab 68 5d 68 96 f3 e6 22 86 7b 03 64 0f
       -5.0505065e-13 -1.8770285e-25 -3.0638488e-35 1.1241938e-29
0001a0 d6 03 83 95 9a 18 72 9c 39 bc ea b7 2d 9d 96 8a
       -5.291653e-26 -8.010288e-22 -2.7982622e-05 -1.4503598e-32
0001b0 f1 7e 83 a5 1c ad 8b 13 57 99 4f 23 62 16 a1 80
       -2.2810896e-16 3.5259232e-27 1.12539635e-17 -1.4793544e-38
0001c0 94 32 8c 15 80 6b f6 9b 62 d0 00 00 2a 2b 66 0f
       5.662535e-26 -4.0766756e-22 7.4754e-41 1.13481886e-29
0001d0 b4 6b c0 0d 71 16 93 15 61 81 0d 13 a4 48 7b 98
       1.1858842e-30 5.9408233e-26 1.786049e-27 -3.2477664e-24
0001e0 cd f3 8e 90 76 5a c8 22 46 96 cf 9f 57 d9 aa 92
       -5.638476e-29 5.4305888e-18 -8.7916517e-20 -1.0782087e-27
0001f0 70 6d 6e 25 50 7a d9 32 aa f3 23 b0 1d b4 5f 17
       2.0680288e-16 2.5317746e-08 -5.964532e-10 7.228252e-25
000200 dc 6b 01 23 b4 ca 00 a2 43 15 35 80 2c fd 37 1d
       7.015944e-18 -1.7454545e-18 -4.874909e-39 2.4350735e-21
000210 78 69 a8 2c 6a 90 fb 1e ba 82 1f 2e c5 45 e0 ae
       4.7865566e-12 2.6635387e-20 3.6268523e-11 -1.0198734e-10
000220 bc ce 40 9b 08 b1 00 80 b7 c0 1e 80 4e 7a 80 29
       -1.5948667e-22 -6.3507e-41 -2.824198e-39 5.7055584e-14
000230 27 3d 17 2c 2a eb ce 2e f1 da 72 a8 8c b2 ce 13
       2.1492337e-12 9.409569e-11 -1.3481174e-14 5.217777e-27
000240 80 b8 8f a3 c0 15 ae 2e 80 0b 04 9e a1 b1 1b 30
       -1.558223e-17 7.9164675e-11 -6.9904e-21 5.66411e-10
000250 6e 74 8a a7 53 17 3e a7 46 26 02 28 0c 7a 61 2c
       -3.8428928e-15 -2.638044e-15 7.224749e-15 3.2042173e-12
000260 3e 99 21 00 bf 80 23 1a 0c c8 39 8c 7c d3 2b 20
       3.085544e-39 3.381161e-23 -1.4312081e-31 1.4554238e-19
000270 99 c8 a3 30 aa ac cb a8 26 2b 89 a9 42 6f a2 ad
       1.1916824e-09 -2.2612409e-14 -6.091507e-14 -1.8466676e-11
000280 49 37 19 a8 96 5b 29 ae 7c 5e 24 a4 00 a0 12 29
       -8.505194e-15 -3.8507496e-11 -3.5641863e-17 3.255729e-14
000290 c8 e8 05 28 2f 2f ee ae 24 1b ca 06 ad 26 51 9c
       7.4334595e-15 -1.08313684e-10 7.6023834e-35 -6.9202286e-22
0002a0 8c db ce a1 62 b4 91 b1 90 e6 aa a9 e4 d1 37 2d
       -1.4017217e-18 -4.2405626e-09 -7.589513e-14 1.0448951e-11
0002b0 94 56 3a 2f 0d eb 31 80 49 bf 43 24 03 dc 03 80
       1.694736e-10 -4.58426e-39 4.244591e-17 -3.54432e-40
0002c0 8c a4 3d 25 21 8b 17 ad 3f be 8e 14 80 15 9d 2a
       1.6448887e-16 -8.614249e-12 1.4413375e-26 2.790372e-13
0002d0 cc 64 2d ab 70 de 2b 2b 12 c6 13 b2 18 a2 0d 2b
       -6.160183e-13 6.10601e-13 -8.601562e-09 5.0318213e-13
0002e0 3a 8d 31 00 ec 88 94 ab 78 84 47 28 67 e4 bd ab
       4.550602e-39 -1.0554036e-12 1.1075444e-14 -1.3492652e-12
0002f0 2b f7 16 af 57 fc 35 b1 0b 12 88 2f d6 6c f2 31
       -1.3730232e-10 -2.6482405e-09 2.4751076e-10 7.0555e-09
000300 44 a0 a0 9a 77 60 90 2d d0 d3 c6 94 1e 13 2c 39
       -6.643337e-23 1.6413744e-11 -2.0076436e-26 0.0001641032
000310 16 38 b6 37 62 a8 95 27 84 ad 9a 36 64 1e 4f b8
       2.1722208e-05 4.153837e-15 4.6097575e-06 -4.938095e-05
000320 2b e0 d0 b9 4f 04 02 00 aa 1a 06 00 f2 88 bf 34
       -0.0003983987 1.85217e-40 5.60578e-40 3.5676163e-07
000330 52 f0 70 32 69 99 65 b0 82 c5 50 b1 8e 52 15 9a
       1.4024481e-08 -8.3527724e-10 -3.0380254e-09 -3.0879165e-23
000340 e0 a6 e7 a8 d8 b7 54 b6 4a 26 ff b3 76 01 ce 31
       -2.5718522e-14 -3.1697473e-06 -1.18813276e-07 5.995555e-09
000350 c1 b0 c1 00 1f 2e b0 36 ab 11 06 80 36 2a 06 00
       1.7787658e-38 5.250578e-06 -5.57351e-40 5.66155e-40
000360 6d ab 8b 8a 83 91 23 9f 37 5b 97 19 0a 88 78 a3
       -1.3449696e-32 -3.4636957e-20 1.5649875e-23 -1.3472914e-17
000370 7c 90 db 31 26 d5 56 36 fc bc f0 38 05 1e 10 32
       6.390165e-09 3.2012554e-06 0.00011479293 8.388729e-09
000380 78 55 ea 0a 8f 98 1e 2f 8e 21 18 2d 78 7f 66 b4
       2.256553e-32 1.4424216e-10 8.64765e-12 -2.1466792e-07
000390 26 30 e6 9a 28 22 8b 37 fb 08 fa 13 74 9f dc 20
       -9.520356e-23 1.6585996e-05 6.3117728e-27 3.7374967e-19
0003a0 fb 7b 2d 1b b9 4d 8e b9 a6 24 3f b2 72 eb 86 bd
       1.4350285e-22 -0.00027142258 -1.1125996e-08 -0.065878764
0003b0 14 5d e4 31 0e 72 a1 30 96 05 a0 14 38 4d 16 00
       6.646255e-09 1.1746708e-09 1.6158075e-26 2.048082e-39
0003c0 54 34 22 37 6d 48 05 b4 43 c8 01 9a 8a 27 7a 0f
       9.668136e-06 -1.2412939e-07 -2.6838345e-23 1.23335666e-29
0003d0 27 0a ac 96 9a 47 ff 33 f0 f4 cf b5 04 df 39 32
       -2.7794506e-25 1.1887387e-07 -1.5493988e-06 1.0819125e-08
0003e0 f0 59 a0 32 d1 60 96 37 5c 77 8d b2 72 d6 69 96
       1.866735e-08 1.7926477e-05 -1.6468839e-08 -1.8889257e-25
0003f0 41 9d 0f ba 50 d6 a6 bd d3 b2 6c 1c 3c 49 ff 37
       -0.000547845 -0.081463456 7.8316975e-22 3.0432471e-05

dnn.2.bias f4 [32]
000000 d4 da e1 b4 b3 54 26 b5 a3 e4 97 b0 fd 88 a5 bc
       -4.2068734e-07 -6.196307e-07 -1.1051678e-09 -0.020206923
000010 b0 5d 7d b8 57 a8 b3 b4 83 bb 5c b5 68 6f 9b bd
       -6.0407154e-05 -3.3463832e-07 -8.222925e-07 -0.075896084
000020 f8 ad b5 b2 80 e5 e1 ba 32 36 f3 99 d6 b9 e0 bd
       -2.1150285e-08 -0.0017234534 -2.51475e-23 -0.109729454
000030 c2 1d 08 af 04 6f 64 a4 e3 ed 05 a1 09 45 98 b1
       -1.23797e-10 -4.9533653e-17 -4.5376993e-19 -4.4316306e-09
000040 b3 cc b2 ae 9b bf ad bc f3 7d 1f af 60 ab 26 a5
       -8.130865e-11 -0.021209529 -1.4505712e-10 -1.4456269e-16
000050 a3 a2 e4 a9 73 83 0b be d0 df 10 ab 7a 4d 1f be
       -1.0153447e-13 -0.13624363 -5.146968e-13 -0.15556899
000060 54 20 81 be b3 cc f5 b3 e3 51 04 bd 04 71 08 bd
       -0.25219977 -1.1445936e-07 -0.032304656 -0.033310905
000070 f9 25 c8 ba 6e 66 8b af 9f b3 fa bb a6 21 84 b8
       -0.0015270106 -2.5356733e-10 -0.007650807 -6.300518e-05

dnn.4.weight f4 [16, 32]
000000 6b ff 06 80 1e 9b 01 00 49 8a 00 80 3a c8 03 80
       -6.4264e-40 1.47481e-40 -4.9607e-41 -3.47334e-40
000010 7e c9 04 00 8b 8b 03 80 a7 3c 00 00 cf 6b 20 80
       4.39624e-40 -3.25565e-40 2.1758e-41 -2.97741e-39
000020 3e 7c 01 80 71 15 01 00 37 89 04 80 61 1c 3c 80
       -1.36405e-40 9.9527e-41 -4.16565e-40 -5.52031e-39
000030 74 82 00 80 5b c6 03 80 10 fb 01 80 5c 2c 03 80
       -4.6798e-41 -3.46663e-40 -1.819e-40 -2.9142e-40
000040 66 aa 5f 8c eb 9d 01 00 f8 40 06 80 0c 63 a8 90
       -1.7230573e-31 1.48486e-40 -5.7432e-40 -6.641692e-29
000050 3e e1 04 80 63 3b 04 80 b6 b9 05 00 c4 49 7a 99
       -4.48144e-40 -3.88646e-40 5.25798e-40 -1.2939594e-23
000060 a9 b8 04 00 6a 34 01 00 9b ff 02 00 f7 54 04 80
       4.33586e-40 1.10638e-40 2.75365e-40 -3.97822e-40
000070 9d 2b 00 00 f0 47 03 00 9b 20 02 80 99 8d 00 80
       1.5645e-41 3.01313e-40 -1.95368e-40 -5.0796e-41
000080 2b 27 02 00 54 06 f5 b3 22 f3 01 80 b0 69 07 00
       1.97722e-40 -1.14098526e-07 -1.79055e-40 6.80762e-40
000090 82 03 06 80 96 3f 77 11 25 6e 07 00 ae e6 03 80
       -5.52271e-40 1.9504458e-28 6.82361e-40 -3.58259e-40
0000a0 1e 9f f2 a3 b2 d6 03 80 d8 8f 14 ac 27 fa 00 00
       -2.6305081e-17 -3.52525e-40 -2.1111914e-12 8.9738e-41
0000b0 44 ea 1c a3 0e 0f 02 00 cf 81 52 a6 99 65 85 02
       -8.506385e-18 1.89072e-40 -7.303431e-16 1.9600908e-37
0000c0 84 a6 a1 37 38 2d 07 00 b4 74 7b af 18 21 f7 ae
       1.9270235e-05 6.5907e-40 -2.2869778e-10 -1.1238138e-10
0000d0 fe 76 91 b3 e6 b9 04 00 aa 10 cd 85 3a af b9 b8
       -6.773733e-08 4.3403e-40 -1.9284229e-35 -8.854126e-05
0000e0 34 f0 03 80 b9 18 06 00 40 e3 99 00 b6 c7 d8 01
       -3.61675e-40 5.59882e-40 1.4132353e-38 7.963244e-38
0000f0 0b 71 ad 0b 25 2a 01 80 60 78 05 00 0e 51 00 80
       6.6807264e-32 -1.06954e-40 5.0236e-40 -2.9077e-41
000100 5e 0f 05 00 f8 17 07 80 d4 81 68 ab 6e cd be 8c
       4.6469e-40 -6.51447e-40 -8.260313e-13 -2.9397774e-31
000110 07 f9 04 00 9c 0e be 33 e8 2d 04 80 bc 7b 43 b9
       4.56676e-40 8.850222e-08 -3.8381e-40 -0.00018642744
000120 08 22 84 ac 0e 03 62 15 78 0a 00 00 40 0a 68 3b
       -3.755444e-12 4.5642746e-26 3.755e-42 0.00354065
000130 c0 f2 06 80 05 c7 05 80 1c 4f 07 00 96 59 00 80
       -6.38095e-40 -5.30572e-40 6.71228e-40 -3.2137e-41
000140 2f 6e 06 80 72 49 24 b7 b2 8c 01 00 48 21 01 80
       -5.9054e-40 -9.792262e-06 1.42307e-40 -1.03775e-40
000150 06 68 03 00 d4 4a 79 38 7f db 03 00 54 f5 ae bd
       3.12823e-40 5.9435915e-05 3.54247e-40 -0.085428864
000160 19 be a1 bc 73 32 02 80 76 ea 03 00 03 83 7f a9
       -0.019743966 -2.01769e-40 3.59615e-40 -5.673501e-14
000170 3a ac 9f 1b db 07 03 80 22 7a 83 1c 6e 73 4f 00
       2.6415642e-22 -2.78324e-40 8.700423e-22 7.296413e-39
000180 75 22 66 80 14 8a 05 80 a5 a8 a5 01 1a c1 26 00
       -9.379581e-39 -5.0871e-40 6.085342e-38 3.55902e-39
000190 9a fd 04 80 0d fb 05 80 14 1c 05 00 c7 8c 1c 80
       -4.58317e-40 -5.49238e-40 4.6925e-40 -2.621895e-39
0001a0 13 9c 05 80 95 74 06 80 32 b6 0d 80 0a a7 24 80
       -5.15166e-40 -5.92835e-40 -1.259221e-39 -3.366e-39
0001b0 3c 0e d1 92 7c 2b 46 00 2e 72 14 00 00 7c 01 00
       -1.3193263e-27 6.444084e-39 1.87767e-39 1.36318e-40
0001c0 09 d8 01 80 bc a8 ad a7 8f 0d 05 80 f7 8c 02 80
       -1.69334e-40 -4.820009e-15 -4.64041e-40 -2.3424e-40
0001d0 58 f2 01 80 d9 39 41 00 d4 9e 11 00 a8 60 38 b2
       -1.78772e-40 5.990059e-39 1.61818e-39 -1.0732187e-08
0001e0 99 28 05 00 32 30 06 00 de c8 37 80 80 91 ca 80
       4.73741e-40 5.68302e-40 -5.12301e-39 -1.8602966e-38
0001f0 ff 37 00 80 80 4f 17 ad 93 e7 01 80 75 11 51 82
       -2.0088e-41 -8.601009e-12 -1.74909e-40 -1.5359905e-37
000200 a5 25 ff bc e2 37 1e 36 bd 5c 3f 31 00 9f bf bd
       -0.03114588 2.3576363e-06 2.7846874e-09 -0.09356499
000210 a9 2f 1f b8 c4 e1 cc 35 ba a7 f3 bd c4 c1 85 be
       -3.795294e-05 1.5264891e-06 -0.11897226 -0.26124394
000220 a2 24 b4 b0 65 e7 9c 3b 8a 9b aa ad 57 15 8b 3e
       -1.3107135e-09 0.0047883266 -1.9395836e-11 0.27164719
000230 c0 4e f0 b6 e0 7b ca 07 f5 5e ba 29 2c 02 ed 38
       -7.161725e-06 3.046639e-34 8.276532e-14 0.00011301445
000240 88 6e a5 b6 53 e1 53 3c be ac 9b b6 ac e3 10 34
       -4.9302507e-06 0.012932139 -4.63947e-06 1.3493872e-07
000250 11 ad 45 34 de 66 4e 3d 80 45 d3 35 08 84 88 be
       1.8410016e-07 0.05039107 1.5740952e-06 -0.26663232
000260 0b 48 58 bc b2 c6 c1 ba ac 76 74 3d a8 2a 96 3c
       -0.01320077 -0.0014783947 0.059683487 0.018330887
000270 5e 09 84 bb 84 5c f1 b5 71 c2 81 bb 91 29 ce 3c
       -0.004029437 -1.7982825e-06 -0.003959947 0.025166305
000280 89 d6 01 80 b4 96 9e a4 1c 1b 04 00 6c 72 05 80
       -1.68796e-40 -6.877688e-17 3.77067e-40 -5.00224e-40
000290 81 54 43 b0 0f a1 80 a4 a2 c3 03 80 b4 1b 06 80
       -7.1060674e-10 -5.5783995e-17 -3.45686e-40 -5.60951e-40
0002a0 1f e4 c4 15 f5 71 00 80 c0 13 a5 93 40 68 03 80
       7.952368e-26 -4.088e-41 -4.167133e-27 -3.12904e-40
0002b0 33 e7 0f 35 2f ac 03 00 0f 42 00 80 b5 7e 1e af
       5.360809e-07 3.37274e-40 -2.3697e-41 -1.4415032e-10
0002c0 6a e0 49 35 69 11 07 00 c5 c2 37 37 da 13 bd 32
       7.52049e-07 6.49094e-40 1.0952998e-05 2.2011523e-08
0002d0 b2 e1 4f 36 db 4b 06 80 55 da 05 00 c0 bf 58 b6
       3.0976776e-06 -5.78225e-40 5.375e-40 -3.2298121e-06
0002e0 8e e3 02 00 81 5c 04 00 7c 4b 93 9e 9f d3 03 80
       2.65302e-40 4.00526e-40 -1.559545e-20 -3.51422e-40
0002f0 9a 0d 02 21 6a 65 b2 80 8d ed 04 80 0b da 81 82
       4.4063715e-19 -1.6383099e-38 -4.52559e-40 -1.9079997e-37
000300 b0 4d d6 83 09 26 72 1e c0 53 0d 98 3a da 39 82
       -1.2595626e-36 1.2819239e-20 -1.8266106e-24 -1.3654281e-37
000310 53 23 03 00 55 88 06 80 2d aa 4b 04 f8 4d da 82
       2.88178e-40 -5.9992e-40 2.3940676e-36 -3.2076973e-37
000320 b7 62 4d 10 3e 31 20 84 b3 f4 03 80 10 f5 00 80
       4.050517e-29 -1.883052e-36 -3.63288e-40 -8.7912e-41
000330 b8 7e 04 80 66 1a 04 00 87 2c 07 80 d0 2e 08 00
       -4.128e-40 3.76812e-40 -6.58822e-40 7.51477e-40
000340 2b 15 01 80 f0 8c 14 28 f4 a3 05 00 d8 63 05 00
       -9.9429e-41 8.246211e-15 5.17993e-40 4.94995e-40
000350 28 86 04 00 24 79 03 00 a5 4a 06 80 47 99 11 be
       4.15468e-40 3.18964e-40 -5.7779e-40 -0.14218627
000360 03 b9 25 12 0d a1 01 00 cf 6b 06 1e 0f 04 05 80
       5.2292864e-28 1.4961e-40 7.116195e-21 -4.60633e-40
000370 2e a1 ac 9d 59 f4 02 80 a2 c2 a3 96 3a 6b 02 bb
       -4.5694677e-21 -2.71326e-40 -2.64569e-25 -0.0019900338
000380 d5 7f 05 80 a5 0b 02 80 33 30 01 80 e5 56 03 00
       -5.05035e-40 -1.87848e-40 -1.09126e-40 3.06678e-40
000390 f3 0b 05 80 be 16 07 80 d5 9e 05 80 89 8e 2f 80
       -4.63464e-40 -6.51007e-40 -5.16156e-40 -4.3674e-39
0003a0 e5 82 00 00 fb 11 05 80 1b 3e 07 80 39 4b 00 00
       4.6956e-41 -4.65628e-40 -6.65128e-40 2.6985e-41
0003b0 0a 77 06 00 83 91 00 00 fa ba 15 00 2a 60 01 80
       5.93716e-40 5.22e-41 1.99562e-39 -1.26333e-40
0003c0 0f de 04 00 a5 7b 03 80 a8 ff 00 80 c1 20 02 80
       4.47002e-40 -3.19862e-40 -9.1712e-41 -1.95421e-40
0003d0 92 e7 05 22 19 41 03 80 2a 4d 04 80 0d 35 00 80
       1.8147453e-18 -2.98859e-40 -3.95023e-40 -1.9031e-41
0003e0 88 4c 00 00 a4 82 07 80 fa ce 01 80 16 75 01 80
       2.7454e-41 -6.89713e-40 -1.66085e-40 -1.33838e-40
0003f0 a7 5f 00 00 3a 80 01 00 04 11 00 80 ab da 02 80
       3.4314e-41 1.37835e-40 -6.104e-42 -2.62114e-40

dnn.4.bias f4 [16]
000000 92 ff 98 b4 59 03 b4 b9 a2 8d 76 bd b7 db 06 b4
       -2.8498158e-07 -0.0003433477 -0.060193665 -1.2559654e-07
000010 22 d0 ca 3e a1 8f 33 ba d9 e8 7e bd a9 8a 1b a6
       0.39611918 -0.00068497105 -0.06223378 -5.3964347e-16
000020 79 e1 a1 be 7b c3 12 aa 98 f0 8d b7 80 0f 37 bd
       -0.31617334 -1.3035226e-13 -1.6920545e-05 -0.044692516
000030 b8 1e 82 b8 b6 1d 00 ba 27 de 40 bd e1 2e 75 b6
       -6.204605e-05 -0.000488724 -0.04708686 -3.6535132e-06

exp_avg f4 [64, 100]
000000 2e ed a7 a6 74 05 1b 29 f0 46 6d 29 a5 ab aa 26
       -1.165224e-15 3.4421644e-14 5.26861e-14 1.1842644e-15
000010 4d 3f ff a8 30 3c 1f 28 cc 27 13 a8 3c 63 31 2c
       -2.833814e-14 8.839324e-15 -8.168769e-15 2.52083e-12
000020 e2 81 d2 a7 56 fc 9f 27 74 cb b5 26 82 fd 05 28
       -5.842753e-15 4.440495e-15 1.2614544e-15 7.437954e-15
000030 8b 89 e9 a7 ac 03 8e 27 f6 21 d5 27 a9 a4 fc 27
       -6.4819616e-15 3.94169e-15 5.9156197e-15 7.0122575e-15
000040 c0 9e 8e a7 72 22 9f a6 3a ee 50 30 18 d8 91 a8
       -3.9585034e-15 -1.1042178e-15 7.60085e-10 -1.619195e-14
000050 fc 37 96 28 c9 eb dc a5 09 07 89 28 20 b3 34 29
       1.6677625e-14 -3.832369e-16 1.5213106e-14 4.0123395e-14
000060 aa 6d 53 27 8e 53 8d a8 f0 fa 49 27 b3 fd 8f a7
       2.9341581e-15 -1.569038e-14 2.8030387e-15 -3.9965534e-15
000070 ae 7f 3a a7 11 59 10 a9 98 18 da a6 19 37 2b a7
       -2.58819e-15 -3.2051676e-14 -1.5133455e-15 -2.3760886e-15
000080 97 3d 07 27 35 b5 0b a8 e7 d0 f4 a7 85 cb cd a7
       1.8768401e-15 -7.755343e-15 -6.7950097e-15 -5.7119586e-15
000090 f9 bb 49 a8 ab 35 a5 27 38 2a 63 25 13 80 3e a8
       -1.11985015e-14 4.5854887e-15 1.9703416e-16 -1.057489e-14
0000a0 34 2a dd 28 02 9a 92 a8 3e e7 ea 28 16 ec 9a 29
       2.4554232e-14 -1.6276046e-14 2.6079504e-14 6.879928e-14
0000b0 ef c1 3a 28 ca 6f 04 29 44 cf 2a 26 b0 54 46 a8
       1.0367127e-14 2.940685e-14 5.9261495e-16 -1.1009572e-14
0000c0 00 b1 05 28 25 8d 0b 29 82 24 b6 28 d8 ad d4 27
       7.421364e-15 3.0986623e-14 2.0221892e-14 5.90303e-15
0000d0 a2 35 37 a9 90 2a 0a a9 9a e9 28 28 0c 43 d0 27
       -4.0680682e-14 -3.0679073e-14 9.376528e-15 5.780429e-15
0000e0 40 7a 14 27 e9 96 75 a6 f6 e4 1b 27 e8 22 e8 a9
       2.0605398e-15 -8.520597e-16 2.1634691e-15 -1.0308925e-13
0000f0 88 6c 6a 28 e3 b1 7e a7 1a e1 9f 27 11 55 fc 27
       1.3013143e-14 -3.5346014e-15 4.437542e-15 7.003628e-15
000100 cd 61 50 a8 a4 93 0c 27 7d 49 33 a9 50 f2 c3 23
       -1.1567527e-14 1.950894e-15 -3.9809725e-14 2.1244566e-17
000110 71 83 25 29 45 a8 b3 a7 aa 30 65 27 11 da 90 2b
       3.6751367e-14 -4.986492e-15 3.1806515e-15 1.0292341e-12
000120 8e cd 14 2f 87 d0 32 29 e1 d1 2e a9 59 a7 cc a7
       1.3533549e-10 3.970481e-14 -3.8817802e-14 -5.6802813e-15
000130 1d 6c 31 a8 af 96 d1 a8 e0 98 f5 a8 b4 0a 05 a7
       -9.848917e-15 -2.326901e-14 -2.7266763e-14 -1.846326e-15
000140 fc 2e 91 a9 2b 3a 24 a6 c2 52 2b 28 90 61 bc a7
       -6.447444e-14 -5.697776e-16 9.510352e-15 -5.228626e-15
000150 0f 09 f6 a7 b7 da 72 27 5c 29 0e a8 53 8e 03 a9
       -6.8288537e-15 3.3702812e-15 -7.891552e-15 -2.921129e-14
000160 04 a7 3d a8 b3 80 0a a8 0c 3f 2c a8 ae 09 63 28
       -1.0527823e-14 -7.688446e-15 -9.561589e-15 1.260313e-14
000170 80 d3 f1 26 75 9c be 28 9c 20 b0 a6 58 25 cc 26
       1.6780061e-15 2.116209e-14 -1.2221292e-15 1.4165466e-15
000180 ce 07 12 a9 9c 28 fe a7 3c 8c 28 a9 29 4e 76 2e
       -3.2425282e-14 -7.054319e-15 -3.7425128e-14 5.6003344e-11
000190 64 95 eb 2b 22 25 93 2c 5a 45 b2 ac 94 bd 91 2c
       1.6739219e-12 4.182114e-12 -5.066764e-12 4.1421953e-12
0001a0 3a 05 87 2c 8a ed 10 ac a4 ce 8c 2c 66 58 ad 2c
       3.837511e-12 -2.0595491e-12 4.001981e-12 4.92677e-12
0001b0 05 2c 3c ac 8e 45 ff aa d3 41 48 2b 12 8b d4 2b
       -2.6740843e-12 -4.5345363e-13 7.1145623e-13 1.5102106e-12
0001c0 ce e1 6d 2b 46 df a9 2b 50 68 74 aa 45 9b f7 ab
       8.451268e-13 1.2070143e-12 -2.1707744e-13 -1.7593502e-12
0001d0 ce 44 a6 ac 8c 2b c7 aa 78 3a 12 2b be 65 fa 2c
       -4.7256426e-12 -3.5379718e-13 5.195076e-13 7.116723e-12
0001e0 03 12 9b 2c e9 b0 01 2d b4 c1 8f 2b ef a2 dd ac
       4.4073647e-12 7.372083e-12 1.0214525e-12 -6.299287e-12
0001f0 9d 30 d7 ac 51 b2 ec 2c 2e a9 f3 ac b0 2c 5e aa
       -6.1160647e-12 6.7273205e-12 -6.925258e-12 -1.9733065e-13
000200 6c 6a 0c ab 57 f4 96 ac ac 12 6c 2a e6 d5 b0 2c
       -4.988568e-13 -4.2903836e-12 2.0967489e-13 5.0259684e-12
000210 fa 3b 8b 2b 12 75 83 ab 41 77 c4 2c 47 22 50 ac
       9.893191e-13 -9.340603e-13 5.583895e-12 -2.9577606e-12
000220 84 fe 96 2c f7 17 f5 ab 56 11 e0 2c 89 50 84 ab
       4.2915133e-12 -1.7414949e-12 6.3683876e-12 -9.401517e-13
000230 c1 8a db 2c dc b9 54 ac 7b 11 d3 ac a2 a5 81 ac
       6.239759e-12 -3.0230185e-12 -5.9989214e-12 -3.6847895e-12
000240 53 4c af 2c 30 29 c9 ac d6 f0 d6 2c c4 be 33 ac
       4.982273e-12 -5.7173363e-12 6.108984e-12 -2.5543326e-12
000250 e1 45 78 ac 80 d4 1f aa ad f1 bf ac cd 84 9a ab
       -3.528171e-12 -1.4195763e-13 -5.455378e-12 -1.0979218e-12
000260 40 61 09 2d 0f 4d 15 2c 6e ea 9b 2b 30 7a c4 2b
       7.809142e-12 2.121695e-12 1.107848e-12 1.3960551e-12
000270 6c 31 b0 2c ea 0b be 2b 82 73 26 2b b4 36 1a 2d
       5.007708e-12 1.3503619e-12 5.9135346e-13 8.766033e-12
000280 c2 95 9e 2c 56 47 aa 2b 48 46 30 2c 9b 46 1b ab
       4.5072565e-12 1.2099026e-12 2.5050118e-12 -5.5165047e-13
000290 c5 e5 3f ac 92 2b 59 2b 89 66 6c 2c c0 2f 95 ac
       -2.727028e-12 7.7154353e-13 3.3594536e-12 -4.240136e-12
0002a0 8c 27 dd ab c7 f9 d7 2a b5 45 8c 2b 3c 21 ab ab
       -1.5713971e-12 3.836499e-13 9.966946e-13 -1.2159505e-12
0002b0 1d 50 c8 2c 03 df 6c ac ca a4 30 2c 28 ae c2 ac
       5.6932362e-12 -3.3661414e-12 2.510258e-12 -5.533147e-12
0002c0 86 35 7b 2b 93 f6 18 ac 09 bd 88 ac 41 5a db ac
       8.924739e-13 -2.1737375e-12 -3.8863396e-12 -6.2343746e-12
0002d0 e0 4f 88 ab f0 18 e7 ac f6 bd 86 2c 41 c4 91 ac
       -9.685551e-13 -6.5681835e-12 3.829599e-12 -4.1429364e-12
0002e0 06 8e 0e ad 90 87 41 ac 08 a5 19 2a be 6d 13 ab
       -8.103301e-12 -2.7502202e-12 1.3646387e-13 -5.237719e-13
0002f0 82 a1 2e 2c e8 78 e5 ac 55 3d 97 2c c8 f2 3c 2c
       2.4816542e-12 -6.5219947e-12 4.2984873e-12 2.6851178e-12
000300 78 5a 7f ac 10 b0 b1 2c a6 61 dd aa ff 08 77 2c
       -3.62879e-12 5.0501894e-12 -3.9325243e-13 3.5105805e-12
000310 31 0d 13 ac 87 71 e0 2c c4 a4 18 ac f6 f2 c4 2b
       -2.089728e-12 6.379067e-12 -2.1691962e-12 1.3994073e-12
000320 99 08 9e 10 e5 b1 09 91 12 1e 37 92 8a 6c c3 0e
       6.233326e-29 -1.0862212e-28 -5.7781683e-28 4.817573e-30
000330 1a 22 e3 90 c2 ac 82 10 49 76 db 11 33 a4 eb 11
       -8.9588255e-29 5.1542134e-29 3.4625007e-28 3.7177658e-28
000340 af ec 60 10 0e 31 3e 8f 96 90 0d 11 d5 ab 9e 11
       4.4358545e-29 -9.377171e-30 1.1167493e-28 2.5033904e-28
000350 71 54 8a 0e bc 1c 99 11 89 59 d2 0e e9 db c9 10
       3.410094e-30 2.4156853e-28 5.1855216e-30 7.9619346e-29
000360 ec 22 cd 11 a2 42 95 9c ae 32 f9 22 67 0d 6e 90
       3.236482e-28 -9.877217e-22 6.7545244e-18 -4.694755e-29
000370 99 d5 8d 91 5c 51 8e 0f ff 32 dc 90 10 cb 37 11
       -2.2377517e-28 1.403362e-29 -8.685327e-29 1.4498728e-28
000380 03 43 1e 91 ff 70 48 11 1c 82 af 0f 4e 42 d2 11
       -1.2484652e-28 1.5812038e-28 1.7306449e-29 3.3173021e-28
000390 6a c4 9a 90 37 20 8b 12 8e e4 4e 91 c0 aa 8c 90
       -6.1044913e-29 8.780075e-28 -1.6320963e-28 -5.5483345e-29
0003a0 42 f0 92 90 64 1d aa 90 c5 34 c9 10 08 f6 46 11
       -5.795702e-29 -6.709846e-29 7.9361825e-29 1.569526e-28
0003b0 bb f9 f9 11 68 55 82 10 fb 64 00 11 ff cf fe 0f
       3.9439181e-28 5.140755e-29 1.0128537e-28 2.5126451e-29
0003c0 27 9d 0e 10 1e 98 34 11 f1 7c 2a 10 f4 d9 00 96
       2.8125628e-29 1.4246371e-28 3.362284e-29 -1.0408532e-25
0003d0 ab 9b a2 11 55 79 11 91 b2 65 a1 0e 14 18 53 10
       2.565503e-28 -1.1475871e-28 3.9787493e-30 4.1630962e-29
0003e0 a5 14 aa 10 fe 48 93 11 6f 66 0d 11 c2 0d 44 90
       6.7084985e-29 2.3237496e-28 1.1154504e-28 -3.8664783e-29
0003f0 24 41 e5 11 f8 71 d6 11 60 c8 79 11 01 b6 88 0f
       3.6169975e-28 3.3833485e-28 1.9704382e-28 1.348074e-29

exp_avg_sq f4 [64, 100]
000000 ac c8 95 2e d3 07 87 2f 3c 42 9b 30 d9 fe c2 2e
       6.811382e-11 2.4561916e-10 1.1296559e-09 8.8673686e-11
000010 7a 11 5d 2f e0 9a 11 2f 7c ed 4c 30 36 28 ab 30
       2.0106042e-10 1.3242696e-10 7.4552253e-10 1.2453316e-09
000020 33 10 fa 2e 20 62 bf 2e b5 dd a6 2f 16 20 db 2e
       1.1371561e-10 8.703105e-11 3.0352756e-10 9.9646666e-11
000030 22 33 62 2d 0d c1 49 2f 6c e7 7c 2f c6 3f ac 2f
       1.2857966e-11 1.8349429e-10 2.3001484e-10 3.1331931e-10
000040 8c cd 3b 2f 8e 0e 1e 30 03 ee 14 31 b3 1e f0 2e
       1.7080576e-10 5.750075e-10 2.1672129e-09 1.091939e-10
000050 c8 4f 1e 2f b9 2e 8d 2e f3 61 af 2e 51 cc bd 2f
       1.439836e-10 6.420237e-11 7.975478e-11 3.4524075e-10
000060 2d 2b c7 2e f3 cf dd 2f ca 77 23 2e 34 d5 eb 2f
       9.057142e-11 4.0347423e-10 3.7168303e-11 4.289774e-10
000070 27 0a c7 2e e6 08 16 30 a0 f1 70 2f 3b de 13 2e
       9.051276e-11 5.458233e-10 2.1913715e-10 3.362131e-11
000080 ba db 9d 2f 05 73 58 2e 55 af cf 2e 3b 02 ec 2f
       2.871426e-10 4.9214872e-11 9.4444154e-11 4.2929735e-10
000090 00 2f 15 30 9a 85 c5 2e 97 a8 32 2f a8 24 4f 2f
       5.4272675e-10 8.982255e-11 1.6248901e-10 1.8839563e-10
0000a0 53 47 88 2f 46 89 1f 2f 31 2d 21 30 06 91 42 30
       2.4788935e-10 1.4509735e-10 5.863568e-10 7.078288e-10
0000b0 46 34 19 30 48 f7 22 30 96 6b 95 2e 3d 5c 39 2f
       5.573536e-10 5.9286664e-10 6.7948466e-11 1.6858422e-10
0000c0 dd 26 8d 2e 8b c5 c9 2f 72 c3 de 2e 8b 8d bc 2e
       6.418841e-11 3.670205e-10 1.0130109e-10 8.574393e-11
0000d0 45 d9 44 30 9e 85 c4 2f e4 2e f2 2e d3 27 b1 2e
       7.1613143e-10 3.5747133e-10 1.1013215e-10 8.056102e-11
0000e0 28 a2 f9 2f bd 95 27 2f fb e8 0a 2f c8 ae 2f 30
       4.5408055e-10 1.5241759e-10 1.2633798e-10 6.391301e-10
0000f0 a9 2f e9 2e 23 04 eb 2e c2 6c 99 2e 1a fd 7b 2f
       1.06040794e-10 1.06872976e-10 6.976954e-11 2.2918237e-10
000100 a6 3c d7 2e 99 d8 df 2e 82 c9 bf 2f d0 7d 5b 2f
       9.7878414e-11 1.01793414e-10 3.4885878e-10 1.9962632e-10
000110 67 02 fd 2f 95 3b 73 2e 50 9c 92 2f 36 50 a6 30
       4.602214e-10 5.5304723e-11 2.6668312e-10 1.2100887e-09
000120 10 cd e5 30 9f 90 bf 2f 7b 4a 0f 30 5e 29 3a 2e
       1.6720225e-09 3.4845457e-10 5.212894e-10 4.2328245e-11
000130 8c 10 89 2f c0 16 8e 2f ba dc 98 2f 58 49 ea 2f
       2.4931912e-10 2.5845814e-10 2.7805475e-10 4.2616466e-10
000140 b1 9f 67 30 af 04 9e 2f b1 a7 a2 2f 43 03 d1 2f
       8.4264246e-10 2.874336e-10 2.958678e-10 3.8019196e-10
000150 83 c5 1a 2f 52 3d f3 2d 00 e9 fc 2f c5 60 ee 2e
       1.4076389e-10 2.7653133e-11 4.600409e-10 1.0840177e-10
000160 30 1b 0d 2f e0 b2 29 2f f9 03 d7 2e f5 05 89 2f
       1.2833534e-10 1.543401e-10 9.777774e-11 2.4924388e-10
000170 b0 94 03 2f d3 80 0e 2f c4 b7 e2 2f 7d 97 c3 2e
       1.1967205e-10 1.2960592e-10 4.1239734e-10 8.894483e-11
000180 94 44 12 30 72 88 ce 2e 4e a4 94 2f f6 86 cd 30
       5.3211946e-10 9.392033e-11 2.703779e-10 1.4954071e-09
000190 29 03 81 2d 2c 10 6d 2e f0 60 d2 2e 5c b8 18 2d
       1.4667005e-11 5.3901925e-11 9.566914e-11 8.681136e-12
0001a0 26 03 ef 2d 09 12 af 2d 5a 96 64 2e 76 46 96 2e
       2.7172552e-11 1.9903206e-11 5.1974737e-11 6.8337266e-11
0001b0 40 e6 01 2e cc ff 60 2d b9 1a 9f 2d 19 04 80 2d
       2.9535707e-11 1.2789724e-11 1.8088074e-11 1.4553735e-11
0001c0 c1 0d 66 2c ad 24 2d 2e 03 91 f6 2d ec 86 ab 2d
       3.26926e-12 3.936822e-11 2.803136e-11 1.9500367e-11
0001d0 3a 64 51 2e 8a 95 6a 2f 1d a8 95 2f 0f fa e6 2d
       4.7610117e-11 2.1335303e-10 2.7222394e-10 2.6259021e-11
0001e0 7b f9 86 2d 32 4f df 2d 2d b4 4b 2d 56 51 4a 2e
       1.5344828e-11 2.5387335e-11 1.1579221e-11 4.6001723e-11
0001f0 79 da bb 2d 16 44 8d 2e fd 2d 8d 2d bd 17 d9 2d
       2.135646e-11 6.424032e-11 1.6050267e-11 2.4680586e-11
000200 13 41 00 2e 39 ef e7 2e 7c c6 e6 2d ba 0a cd 2c
       2.9161628e-11 1.0547158e-10 2.6236117e-11 5.8276413e-12
000210 bc 40 8e 2d 1f 55 ff 2c d5 6e 86 2d 1c 97 02 2e
       1.6172279e-11 7.2569862e-12 1.5283256e-11 2.969279e-11
000220 a9 34 98 2d 51 14 8e 2c 03 13 ff 2d 5a 41 35 2e
       1.7303785e-11 4.0381383e-12 2.8998587e-11 4.121268e-11
000230 80 dd 51 2d cb 98 e0 2d 01 58 53 2e 4f a6 06 2f
       1.1929457e-11 2.5533705e-11 4.805401e-11 1.2246314e-10
000240 b8 49 38 2e b3 ef 18 2e 76 54 bc 2d ec aa 38 2e
       4.190223e-11 3.4773694e-11 2.1410634e-11 4.1988565e-11
000250 d6 68 4e 2d ef 80 5d 2e 40 f4 ed 2d 3f d0 da 2d
       1.17330225e-11 5.03641e-11 2.705225e-11 2.487621e-11
000260 71 45 e9 2e 2e a5 1d 2e c9 c0 b2 2d cf 65 1b 2c
       1.06079485e-10 3.5844376e-11 2.0321871e-11 2.208334e-12
000270 84 6b a7 2e fd 91 6b 2e fb 98 85 2d 93 2a cc 2e
       7.6133794e-11 5.3562477e-11 1.5188286e-11 9.284409e-11
000280 c1 d8 e3 2c d7 62 2e 2d a4 e9 ab 2c a9 29 b9 2e
       6.4757926e-12 9.912702e-12 4.8860516e-12 8.420226e-11
000290 c4 b9 a8 2c 0e 50 99 2d d7 d0 d9 2d fa be 72 2d
       4.7954713e-12 1.7429638e-11 2.4762787e-11 1.3798513e-11
0002a0 f0 e9 8a 2e dd 99 84 2d 3f e6 9b 2d f7 dd a2 2e
       6.317069e-11 1.5074992e-11 1.772371e-11 7.406336e-11
0002b0 9d 92 07 2f a6 f6 6a 2e 71 6e 50 2f 16 0f a7 2d
       1.2330266e-10 5.3424508e-11 1.8956726e-10 1.8992401e-11
0002c0 a2 2a cc 2d 81 1a 5c 2d e3 3d 4e 2e cd 5c a0 2d
       2.3211048e-11 1.2511437e-11 4.6893944e-11 1.8231106e-11
0002d0 24 f7 1d 2f 78 dd fd 2e 23 49 14 2e 01 ca 75 2d
       1.4366869e-10 1.1544449e-10 3.3716262e-11 1.39714915e-11
0002e0 ac e2 87 2d fc d3 0b 2d bb 1d 90 2d e4 64 9d 2d
       1.5448386e-11 7.948305e-12 1.6384108e-11 1.7893638e-11
0002f0 0d da b9 2d 33 5c d1 2d 68 9b 82 2d 75 9e 16 2e
       2.1128899e-11 2.3801494e-11 1.4848303e-11 3.424679e-11
000300 f6 c0 4a 2e 05 15 e2 2d 7d da 09 2e c8 34 a6 2d
       4.6100866e-11 2.570256e-11 3.134425e-11 1.8895455e-11
000310 52 1e c4 2d 52 f7 81 2d 68 19 cf 2d 19 f6 92 2f
       2.2296085e-11 1.4775434e-11 2.3544458e-11 2.6732108e-10
000320 98 b3 fd 2d bc 28 96 2f 21 f2 e0 2f 1a 3f 86 2e
       2.8842526e-11 2.7313785e-10 4.0917406e-10 6.1048236e-11
000330 ae 27 33 2f 83 23 82 2e e9 c6 d7 2f 76 61 5c 2f
       1.6294052e-10 5.918024e-11 3.9249606e-10 2.0043509e-10
000340 5e ef f6 2e 63 e1 67 2e 53 7d b4 2e 41 2d 40 2f
       1.1229305e-10 5.2723503e-11 8.2077144e-11 1.7478376e-10
000350 e1 d8 9f 2d 06 e8 8c 2f d1 df 42 2f 2e 18 2a 2f
       1.817252e-11 2.5630714e-10 1.7723713e-10 1.547e-10
000360 c5 29 c0 2f 89 14 8f 30 86 b6 c6 30 fa 36 04 2f
       3.4954276e-10 1.0410456e-09 1.4458272e-09 1.2024862e-10
000370 13 ec 36 2f 1f e8 92 2e fc 54 93 2e a4 33 9f 2f
       1.6636674e-10 6.680544e-11 6.699882e-11 2.8958624e-10
000380 fe 43 00 2f b3 a1 49 2f 9f b8 41 2e 97 e2 59 2f
       1.1665688e-10 1.833829e-10 4.4047096e-11 1.9816536e-10
000390 93 fb 07 2f 37 89 1b 30 51 31 1d 2f a4 09 3a 2e
       1.2367556e-10 5.6583666e-10 1.4296588e-10 4.2300066e-11
0003a0 20 30 a5 2e e1 8b c5 2e 81 65 b7 2e 45 4d 21 2f
       7.51188e-11 8.98337e-11 8.339907e-11 1.4670316e-10
0003b0 65 d5 8f 2e 75 ca 5e 2d bd 95 50 2f 8b 2d 1c 2f
       6.5407936e-11 1.26641935e-11 1.8970688e-10 1.4204297e-10
0003c0 6f 5c b0 2e 68 a2 8a 2f 3e c2 a0 2f 37 dc 4b 30
       8.019973e-11 2.521745e-10 2.9241848e-10 7.4163914e-10
0003d0 d2 db 20 2f b2 91 2d 2f 16 c3 87 2e 87 54 2f 2f
       1.4630011e-10 1.578602e-10 6.1737435e-11 1.5946187e-10
0003e0 87 1b 34 2e cc 1f 3a 2f 34 a3 33 2f a1 fc 81 2f
       4.095171e-11 1.6927898e-10 1.6337937e-10 2.3644467e-10
0003f0 7b 08 e4 2f de 34 22 2f b3 65 8e 2e 59 10 c1 2c
       4.1478984e-10 1.4752596e-10 6.475478e-11 5.487205e-12

exp_avg f4 [64]
000000 7c 88 ab 28 83 8b 82 ab 69 9e e1 90 64 37 8c 98
       1.9044004e-14 -9.275778e-13 -8.899092e-29 -3.6245082e-24
000010 c6 03 85 b1 f3 35 98 26 14 d6 1d 34 af de cc b4
       -3.8712384e-09 1.0561742e-15 1.4699646e-07 -3.8159985e-07
000020 9f a2 4d b5 08 2f c4 ad 05 00 00 00 e4 e0 e6 b5
       -7.6605096e-07 -2.2303506e-11 7e-45 -1.7201787e-06
000030 d7 7e 3e b5 41 bb a1 b6 d8 9f 24 31 fd ec 13 9e
       -7.096509e-07 -4.819973e-06 2.3956002e-09 -7.831123e-21
000040 ea 88 14 ad 91 f5 2b b6 e9 d8 02 2f 11 f9 23 b5
       -8.443227e-12 -2.5623924e-06 1.1900493e-10 -6.108467e-07
000050 b7 22 40 ad 38 36 04 35 e7 d4 1f af e8 f8 6c af
       -1.0921645e-11 4.925273e-07 -1.4536604e-10 -2.1552504e-10
000060 9a 67 c7 0f 2f 0c 06 1c 96 e6 60 18 1e 43 8d 25
       1.9662821e-29 4.435263e-22 2.9067738e-24 2.4505081e-16
000070 b9 66 91 b6 c1 7e 90 32 68 db 9f b2 74 46 03 b6
       -4.3332952e-06 1.6821447e-08 -1.860981e-08 -1.956153e-06
000080 ce 55 5f 34 0e 04 bb 33 69 c3 4f 2d 87 d6 03 b5
       2.0799709e-07 8.7086036e-08 1.18099775e-11 -4.911348e-07
000090 0e 28 96 2c 55 a8 77 33 6f 2b 9b 8f 77 3a 17 a4
       4.2677034e-12 5.7662266e-08 -1.530091e-29 -3.2792427e-17
0000a0 d2 38 4c ae c2 77 b7 31 a4 85 64 36 1f d7 2e 35
       -4.6434696e-11 5.339616e-09 3.4052437e-06 6.5133094e-07
0000b0 39 52 06 38 37 ff d9 b3 f3 b1 8f 30 8c 9e 04 00
       3.2024665e-05 -1.0151273e-07 1.0455196e-09 4.24218e-40
0000c0 96 26 10 b3 b5 98 0f b2 9d 77 2d 9f 9e 98 52 b3
       -3.3562706e-08 -8.358417e-09 -3.6733117e-20 -4.903324e-08
0000d0 50 8b 67 b2 16 bf 22 b3 28 d5 03 b7 58 16 e3 b6
       -1.3477646e-08 -3.7892356e-08 -7.857838e-06 -6.7677283e-06
0000e0 f8 ec 52 31 7a 36 90 b5 e0 33 f0 31 6c 5f 94 b0
       3.0693723e-09 -1.0744691e-06 6.990817e-09 -1.0795538e-09
0000f0 fc d4 d1 34 6b dd 87 39 3b e3 ba b5 47 18 1d b6
       3.908425e-07 0.00025914176 -1.3924213e-06 -2.3408954e-06

exp_avg_sq f4 [64]
000000 05 89 22 30 bf 2b a7 2e f1 fa d4 2f 72 02 3f 30
       5.9129973e-10 7.6020516e-11 3.874088e-10 6.948887e-10
000010 f9 e2 55 2f 68 00 1c 2f 0d 72 2b 2f 90 cd b6 2e
       1.9452874e-10 1.4188262e-10 1.5592878e-10 8.312917e-11
000020 ec c2 08 31 9c d6 a3 31 27 f9 97 2f e4 4a 41 2e
       1.9901405e-09 4.7683226e-09 2.7643773e-10 4.3949636e-11
000030 e3 e4 1f 2e bd bd bd 2e f9 43 36 2e 71 7f 75 2e
       3.6355707e-11 8.628429e-11 4.144238e-11 5.581974e-11
000040 ce 86 68 2f 3b 69 63 2f 86 67 1a 30 ff 0a 8e 2e
       2.114817e-10 2.0682915e-10 5.617199e-10 6.459366e-11
000050 2f d4 56 2f 4d 49 85 2e 48 1d 29 30 50 af c8 2f
       1.953857e-10 6.0611606e-11 6.1523453e-10 3.6504355e-10
000060 0a e0 3d 2f 15 e2 06 30 bd d3 3b 30 1c 43 b6 2e
       1.7269045e-10 4.90702e-10 6.83311e-10 8.288323e-11
000070 21 dd 02 30 f7 25 ee 2e fb 2a 7e 2e 36 29 60 2f
       4.760797e-10 1.0829731e-10 5.7791088e-11 2.0387322e-10
000080 89 bc 0e 30 0a 1b 8c 2f b3 10 5e 2e 74 13 db 2e
       5.1927224e-10 2.5485064e-10 5.0491788e-11 9.9624226e-11
000090 66 de 1a 30 5c 73 c8 2e a9 93 eb 2e 66 84 59 2f
       5.634092e-10 9.115439e-11 1.07127925e-10 1.9783072e-10
0000a0 1d 04 0b 31 48 2e 61 30 fe 77 76 2f f8 54 cb 30
       2.02295e-09 8.192029e-10 2.24162e-10 1.4794344e-09
0000b0 98 83 72 31 d4 07 a1 2f 44 4a 11 2f ee 82 3c 30
       3.5290437e-09 2.9291292e-10 1.3214058e-10 6.8580064e-10
0000c0 60 49 81 30 81 52 de 30 2c b3 96 2e 8a c4 86 2f
       9.40684e-10 1.6176075e-09 6.8530376e-11 2.4514107e-10
0000d0 33 71 53 2f fa ff 81 2f cc 7c 9b 30 e6 b4 2a 2f
       1.9230555e-10 2.3646846e-10 1.1313204e-09 1.5525678e-10
0000e0 1d dc 64 30 d4 45 80 2e a2 46 8e 2e d4 68 dd 2f
       8.3258717e-10 5.83317e-11 6.469959e-11 4.027415e-10
0000f0 5f d0 9c 2e a9 77 06 35 dd 35 00 2f b3 fb 3d 30
       7.131073e-11 5.009302e-07 1.1660668e-10 6.9115486e-10
