FinalModels/Sener/Data2Models/sener_dnn1-7000-91-128-0.001-0.4726.pt (torch, 45599 bytes, 66 tensors)

dnn.0.weight f4 [10, 200]
1.0197381e-06 -5.933215e-06 7.2074e-05 -6.813264e-05 -6.7297688e-06 -2.5052373e-07 -1.1555866e-06 1.7688312e-06
6.8834443e-06 3.8357788e-07 3.884392e-06 2.2442575e-06 -1.4437138e-05 -3.399352e-06 6.490275e-06 2.3811524e-06
2.072696e-06 -3.1780934e-07 5.4029088e-06 -2.2208483e-06 2.3427633e-06 1.808494e-05 -2.2434851e-06 -6.7780127e-07
1.7456375e-06 -4.2575352e-06 -2.5793245e-06 -6.9032662e-06 -1.5257799e-06 2.7591177e-05 5.2001424e-06 -5.352976e-06
-1.7470353e-05 -1.460665e-06 1.5682132e-05 1.1824113e-06 4.0100163e-06 3.4943641e-06 3.171436e-06 1.3146478e-06
6.116393e-06 -7.7734387e-07 7.602058e-08 -1.5602692e-06 -4.114408e-06 3.6881156e-06 3.005707e-06 -4.6531763e-06
9.771225e-06 -5.6204744e-06 1.4028528e-06 1.055615e-05 -2.7533091e-05 -7.165902e-07 6.053104e-06 -5.4717334e-06
-8.118293e-06 1.40949e-05 2.1785838e-06 -2.925714e-06 7.989942e-06 7.377576e-06 -1.8882267e-06 4.4176804e-06
1.3740711e-05 -3.0443387e-06 3.7323002e-06 6.739465e-05 2.6701243e-06 -1.083632e-06 -3.827907e-06 1.1076232e-06
1.2613776e-06 -1.0981004e-06 -5.785616e-06 -1.3515678e-06 1.0331542e-05 -9.8482946e-05 -4.4848957e-06 6.582958e-06
4.642842e-06 2.0432574e-06 9.3641734e-07 3.4248148e-06 -1.1452462e-05 -5.5439355e-06 3.7048287e-06 8.352365e-06
-5.4796584e-07 -1.6905536e-06 -5.9039116e-06 -4.408924e-06 -7.0477363e-06 -4.377817e-06 3.856937e-06 3.950749e-06
6.1706373e-07 -1.1825501e-06 -1.2100606e-06 -4.4556223e-06 -5.4748343e-06 -1.2496136e-05 -2.3194336e-06 1.0535151e-05
1.94541e-06 1.0485772e-06 -1.1036373e-05 4.0353316e-06 -4.0451146e-06 -7.830836e-06 5.578039e-06 -1.7438787e-06
-6.3677027e-07 2.305434e-06 -3.9217166e-06 1.0653835e-06 2.8310233e-06 -4.13317e-06 -5.4664206e-06 -4.179934e-06
-3.157505e-06 -4.221274e-07 -5.565582e-06 2.6383416e-06 2.3338197e-07 1.8436072e-06 -5.1877014e-06 -5.2145348e-05
8.978321e-06 6.6960956e-07 3.878484e-06 1.03669145e-05 3.5684798e-06 -6.712127e-06 2.6722905e-06 -1.6676197e-06
1.2829856e-06 4.0064374e-06 -1.5864603e-07 1.7118384e-06 1.1761839e-06 -5.625665e-05 1.2702411e-05 -1.5009145e-07
3.6814474e-06 -0.0005184826 5.8791056e-06 -5.0194495e-07 1.8088887e-06 -0.0005566393 4.1604525e-07 -1.8137628e-06
-3.7596303e-06 8.3823425e-06 2.181859e-06 -1.776626e-05 1.6337536e-06 -1.7100185e-06 1.4432959e-06 -2.8574433e-07
-4.362849e-06 -1.2443595e-05 -1.1951731e-05 4.838275e-06 1.2827123e-06 -1.6461977e-06 3.4963207e-06 1.6111142e-06
1.7109523e-06 1.2694798e-05 -1.45151325e-05 -1.542035e-06 -2.4769467e-06 1.3554088e-05 2.1359888e-06 -2.1668882e-06
-1.4007016e-06 -1.5060774e-05 -1.4106712e-06 6.6773435e-07 -1.2106856e-06 2.2965192e-05 -5.858983e-06 1.7283761e-06
2.0547993e-06 1.4448891e-07 6.5097043e-07 -5.5273166e-08 2.1305283e-07 -7.6292527e-06 1.729306e-06 1.3769238e-06
-3.6610083e-06 -1.5402009e-06 6.329819e-06 -3.0979868e-06 3.6856163e-06 3.3789722e-06 -2.546189e-07 1.3189758e-05
-9.959309e-07 -1.802315e-05 -0.00020306087 0.00022908472 0.00030695007 -1.5600814e-06 -1.2764433e-05 7.719651e-06
-2.93971e-06 -5.349046e-06 3.6059644e-06 1.825725e-06 -1.0797686e-06 1.4981192e-06 2.9770365e-06 -7.08201e-06
1.0746699e-05 8.368984e-06 3.358459e-06 -1.8724517e-05 -4.021473e-05 2.2608869e-05 2.6525208e-07 8.011798e-06
2.5393224e-06 -1.3018932e-05 1.0768621e-05 -3.6963668e-06 1.0241585e-06 3.2623204e-05 1.3298885e-05 -0.00013191365
-1.7088343e-05 2.5810814e-06 2.3120543e-05 -3.1440925e-06 1.2232197e-05 3.3298147e-06 1.1596874e-05 -7.305301e-07
1.9520952e-05 -3.5092453e-06 -2.301966e-06 5.5544833e-06 -1.1838883e-06 8.914019e-06 8.959956e-06 -3.258179e-06
8.564198e-06 2.0691793e-06 -1.2589788e-05 1.9635932e-05 -7.5442484e-05 5.130717e-06 1.0997926e-06 -5.366331e-07
00000000: efdd 8835 ee15 c7b6 6f26 9738 6fe2 8eb8
00000010: 46d0 e1b6 b87f 86b4 a719 9bb5 9468 ed35
00000020: 56f8 e636 8bee cd34 ac56 8236 0d9c 1636
00000030: 0937 72b7 6c20 64b6 0ac7 d936 e3cb 1f36
00000040: a518 0b36 629f aab4 a24a b536 e209 15b6
00000050: 5e38 1d36 1db5 9737 c88e 16b6 26f2 35b5
00000060: a64b ea35 f3db 8eb6 7518 2db6 9ba2 e7b6
00000070: 66c9 ccb5 9a73 e737 e27c ae36 b79d b3b6
00000080: 4c8d 92b7 110c c4b5 1f8d 8337 58b3 9e35
00000090: c78d 8636 b880 6a36 dbd4 5436 f472 b035
000000a0: 6a3b cd36 aaaa 50b5 c140 a333 716a d1b5
000000b0: 7f0e 8ab6 5881 7736 a7b5 4936 7b22 9cb6
000000c0: 18ef 2337 8297 bcb6 a849 bc35 521a 3137
000000d0: ddf6 e6b7 b45b 40b5 c41b cb36 d599 b7b6
000000e0: ce33 08b7 2279 6c37 c933 1236 6257 44b6
000000f0: 8a0c 0637 e58c f736 fa6e fdb5 963b 9436
00000100: e887 6637 574d 4cb6 6e78 7a36 3a56 8d38
00000110: 6330 3336 5071 91b5 7971 80b6 a5a9 9435
00000120: 9b4c a935 7162 93b5 1022 c2b6 8467 b5b5
00000130: a355 2d37 a188 ceb8 f67c 96b6 2ee3 dc36
00000140: b6c9 9b36 e51e 0936 1c5e 7b35 dfd5 6536
00000150: f323 40b7 0b06 bab6 79a0 7836 2221 0c37
00000160: ed17 13b5 fbe6 e2b5 371a c6b6 5ef0 93b6
00000170: 987b ecb6 29e5 92b6 d66a 8136 ad90 8436
00000180: 4ca4 2535 1db8 9eb5 5e69 a2b5 8181 95b6
00000190: 78b4 b7b6 7fa6 51b7 91a7 1bb6 21c0 3037
000001a0: e48d 0236 d7bc 8c35 dc28 39b7 3c67 8736
000001b0: 45bb 87b6 2f61 03b7 fd2a bb36 370f eab5
000001c0: 85ee 2ab5 0eb7 1a36 4a97 83b6 4cfe 8e35
000001d0: 9cfc 3d36 a9af 8ab6 326c b7b6 5c41 8cb6
000001e0: 86e5 53b6 c0a0 e2b4 fcbf bab6 5d0e 3136
000001f0: 8c97 7a34 dc71 f735 0412 aeb6 a4b6 5ab8
00000200: 98a1 1637 38bf 3335 ed23 8236 8fed 2d37
00000210: 047a 6f36 bb38 e1b6 9a55 3336 fad2 dfb5
00000220: 0d33 ac35 096f 8636 4a58 2ab4 52c2 e535
00000230: 5fdd 9d35 1ef5 6bb8 711c 5537 d328 21b4
00000240: c90e 7736 c7ea 07ba 2245 c536 65bd 06b5
00000250: f1c8 f235 6eeb 11ba d35c df34 6a70 f3b5
00000260: f54d 7cb6 e3a1 0c37 0d6c 1236 c108 95b7
00000270: 5947 db35 ca83 e5b5 45b7 c135 6768 99b4
00000280: 9664 92b6 d5c4 50b7 4b84 48b7 7758 a236
00000290: a929 ac35 ecf2 dcb5 55a2 6a36 763d d835
000002a0: e0a3 e535 befb 5437 0586 73b7 ebf7 ceb5
000002b0: 9f39 26b6 5d66 6337 0258 0f36 db6a 11b6
000002c0: beff bbb5 88ad 7cb7 4b56 bdb5 5b3e 3335
000002d0: d77e a2b5 60a5 c037 4898 c4b6 8dfa e735
000002e0: 2fe5 0936 cf24 1b34 59be 2e35 7d65 6db3
000002f0: 84c3 6434 c8fe ffb6 801a e835 bece b835
00000300: a5af 75b6 e6b8 ceb5 bb64 d436 02e7 4fb6
00000310: 6856 7736 4dc2 6236 8eb2 88b4 9449 5d37
00000320: edab 85b5 6b30 97b7 bdec 54b9 7636 7039
00000330: 24ee a039 fd63 d1b5 d326 56b7 a683 0137
00000340: d547 45b6 f57b b3b6 fffd 7136 6f0b f535
00000350: 91ec 90b5 fc12 c935 19c9 4736 01a2 edb6
00000360: b94c 3437 8368 0c37 e361 6136 9812 9db7
00000370: 3dac 28b8 2da8 bd37 f867 8e34 696a 0637
00000380: 3a69 2a36 e36b 5ab7 e0aa 3437 190f 78b6
00000390: d175 8935 e6d4 0838 471e 5f37 4d52 0ab9
000003a0: f058 8fb7 a436 2d36 fdf2 c137 19ff 52b6
000003b0: e338 4d37 c875 5f36 3290 4237 a519 44b5
000003c0: edc0 a337 6080 6bb6 7a7b 1ab6 a660 ba36
000003d0: 18e6 9eb5 6c8d 1537 b852 1637 17a7 5ab6
000003e0: f3ae 0f37 3bdc 0a36 ba38 53b7 d8b7 a437
000003f0: e036 9eb8 8628 ac36 969c 9335 250d 10b5

dnn.0.bias f4 [10]
-5.320072e-06 -4.231337e-05 -0.021832135 0.081377216 0.011650071 8.676674e-08 -0.070683055 -0.0056091705
-8.426002e-29 0.0639126
00000000: 1283 b2b6 a379 31b8 4ed9 b2bc 19a9 a63d
00000010: f0df 3e3c 8554 ba33 47c2 90bd 22cd b7bb
00000020: e19f d590 9ce4 823d

exp_avg f4 [10, 200]
1.6755401e-10 -1.374997e-10 7.6397955e-09 -6.6581545e-09 -4.4425566e-10 -8.7213736e-11 1.3610399e-10 -2.9384614e-10
6.5004707e-10 1.4904572e-10 1.2521928e-10 6.1251004e-11 -1.3910697e-09 -2.9958838e-10 6.0218786e-10 5.128937e-10
-1.0822796e-10 -5.168824e-10 5.3150506e-10 4.4497503e-10 5.6473626e-10 1.4093855e-09 -3.003047e-10 -1.6870261e-10
-7.0459166e-11 5.2992943e-10 -8.721376e-10 -6.1496785e-10 -9.526362e-11 2.8473168e-09 -1.8506666e-10 3.1312808e-10
-1.2467694e-09 -1.1929098e-10 1.027848e-09 1.7011989e-10 -5.5394946e-11 1.1621516e-10 3.6300272e-11 8.864358e-12
-2.602377e-10 -1.4041741e-11 7.7248555e-11 -4.2962603e-10 -2.6407446e-10 -1.7944686e-10 -1.0032375e-10 -3.786149e-10
4.964394e-10 -6.909773e-10 4.3540294e-10 1.1135848e-09 -2.2890498e-09 -2.4571792e-10 5.655458e-10 -3.9823123e-10
-5.562769e-10 1.5838004e-09 1.3773606e-10 -8.606093e-11 2.7356367e-10 9.592817e-10 -2.6932698e-10 4.7971416e-10
1.6480004e-09 -3.0656558e-10 3.5629696e-10 6.420318e-09 -3.7686132e-11 -1.2830995e-10 -5.9894817e-10 1.1693112e-10
4.451032e-11 -4.22166e-10 -5.290625e-10 -3.6253392e-10 9.588813e-10 -9.7601065e-09 -8.3665785e-10 5.030012e-10
-7.682391e-11 3.6289768e-10 1.7514622e-10 8.8766036e-11 -1.0936682e-09 3.0530734e-11 7.540393e-11 6.9233186e-10
-4.049467e-10 1.3914338e-10 -8.372459e-10 -1.1923637e-10 2.625551e-11 2.0805047e-11 3.3920666e-10 5.336895e-11
1.3133941e-10 -2.5223285e-10 -2.5719052e-10 -9.458979e-10 -2.944195e-10 -9.837312e-10 -2.8494532e-10 4.708412e-10
1.8883231e-10 -7.313304e-11 -9.617449e-10 5.20063e-10 -2.8358035e-10 -5.947437e-10 4.1764606e-10 1.7819228e-10
-1.7044935e-11 1.626242e-10 -1.2165272e-10 -7.3978645e-10 2.7796576e-10 -1.7241034e-10 -6.050451e-10 -6.8682066e-10
-5.664726e-10 -5.176713e-10 -5.544835e-10 -9.939552e-11 2.522699e-10 -6.3155536e-11 3.426245e-11 -5.1955844e-09
3.7532275e-10 -6.875548e-11 -1.4662066e-10 7.4286294e-10 1.7286474e-10 -1.8840432e-10 -5.620401e-10 4.7568766e-10
1.1940732e-10 6.2212985e-10 2.7673789e-11 1.3771755e-10 -1.2392817e-10 -6.406771e-09 5.9948e-10 2.9765987e-10
4.0975487e-10 -5.273341e-08 1.5684881e-10 -4.310483e-10 1.6043586e-10 -5.823817e-08 7.354071e-11 -2.8295022e-10
-2.533772e-10 3.7078846e-10 3.5786038e-10 -1.2928144e-09 1.4099077e-10 3.608854e-11 3.659261e-10 2.6871133e-10
2.1561575e-10 -4.9286253e-10 -9.78189e-10 7.8344864e-10 -6.1456513e-11 -6.1177213e-10 1.3167122e-10 2.3130406e-11
1.1275628e-10 1.2635969e-09 -6.644122e-10 -1.2628623e-10 -3.1571325e-11 1.5121567e-09 -1.14403716e-10 -2.1754742e-11
-2.0214545e-10 -1.3000615e-09 5.0985044e-10 -1.9852098e-10 2.7309446e-10 1.7952281e-09 -7.4729367e-10 6.556388e-10
1.659629e-10 4.3352727e-10 1.39025284e-11 -2.733585e-10 -4.1109723e-11 -2.9418518e-10 -3.2533404e-10 -1.0015878e-10
-1.2676693e-10 3.7109193e-10 6.8694855e-10 -3.893304e-10 8.256007e-12 6.4772143e-10 2.2853755e-10 8.5574675e-10
6.961767e-11 1.1341794e-09 -1.9935303e-08 2.535373e-08 3.240562e-08 1.4373415e-10 5.289943e-10 -2.4198404e-10
3.4420727e-10 4.5768345e-10 -2.8771266e-10 -1.3154984e-10 -1.746283e-11 1.3919117e-10 -1.8541642e-11 7.7196965e-10
-4.5824808e-10 -5.5921673e-10 -3.9056386e-10 1.3689194e-09 -2.818189e-09 1.3026024e-09 -1.7451585e-11 -4.8350995e-10
-3.1237032e-10 9.702446e-10 -6.207138e-10 -2.3528257e-10 -1.1913504e-10 1.3035617e-09 -8.730458e-10 -1.0700531e-08
-5.072308e-10 -3.9018322e-10 9.369081e-12 1.3519502e-10 -7.912872e-10 -2.0401945e-10 -1.0168357e-09 2.2138093e-11
-1.0735897e-09 2.2184592e-10 3.0786979e-10 -3.987486e-10 -2.699064e-10 -8.68774e-10 -5.7849237e-10 5.0669435e-10
-5.4288274e-10 2.9535814e-13 9.2975483e-10 1.6918245e-09 -4.755727e-09 -5.6954186e-10 -5.061354e-10 1.995852e-10
00000000: 433a 382f ba2e 17af 2d40 0332 bfc5 e4b1
00000010: 6d3b f4af f8c8 bfae dea5 152f 2b8b a1af
00000020: ffae 3230 a4e0 232f 18ae 092f 40b1 862e
00000030: ea2f bfb0 51b3 a4af 3487 2530 b0fb 0c30
00000040: edfe edae 5e14 0eb0 5819 1230 aba0 f42f
00000050: c83b 1b30 58b4 c130 2118 a5af 907d 39af
00000060: fcf0 9aae 78aa 1130 3abb 6fb0 840a 29b0
00000070: a77c d1ae 87aa 4331 a27b 4baf dc24 ac2f
00000080: cc5a abb0 6d29 03af 3044 8d30 7e0c 3b2f
00000090: 2aa1 73ae 528f ff2e 79a6 1f2e 85f1 1b2d
000000a0: 3311 8faf 6106 77ad 12df a92e 7d30 ecaf
000000b0: 2d2d 91af cd4d 45af 409d dcae 4f25 d0af
000000c0: d175 0830 34ef 3db0 845d ef2f c80c 9930
000000d0: 644d 1db1 b915 87af bf74 1b30 10ee daaf
000000e0: 82e8 18b0 06ad d930 4171 172f ff3f bdae
000000f0: aa64 962f b9d7 8330 6710 94af e2dc 0330
00000100: dc7f e230 4589 a8af 57e0 c32f b799 dc31
00000110: d0be 25ae 0a14 0daf 3ba3 24b0 2f91 002f
00000120: 2ac2 432e 9516 e8af 776d 11b0 1d4e c7af
00000130: a3c9 8330 67ad 27b2 90fa 65b0 9043 0a30
00000140: 04f0 a8ae 4f81 c72f 4793 402f d632 c32e
00000150: 0750 96b0 8d46 062e a4d0 a52e 864e 3e30
00000160: 2e9f deaf 61fd 182f f123 66b0 0e1a 03af
00000170: 27f2 e62d cd00 b72d 187b ba2f 19b8 6a2e
00000180: c268 102f 9eaa 8aaf 5964 8daf d300 82b0
00000190: dcdb a1af f733 87b0 7da6 9caf 816c 0130
000001a0: 929f 4f2f 3ed2 a0ae 642e 84b0 2ef4 0e30
000001b0: 63e6 9baf 5e7b 23b0 759a e52f abec 432f
000001c0: c8ed 95ad a5ce 322f 32c2 05af d859 4bb0
000001d0: 34d0 982f 3291 3daf 4450 26b0 b5ca 3cb0
000001e0: f7b5 1bb0 e14b 0eb0 4f6a 18b0 b492 daae
000001f0: d5af 8a2f 68e1 8aae 17b0 162e d884 b2b1
00000200: fb55 ce2f e531 97ae 0c36 21af 5532 4c30
00000210: 1911 3e2f 1a27 4faf 0e7e 1ab0 8bc1 0230
00000220: 2c4a 032f 7f02 2b30 d56b f32d 0b6c 172f
00000230: ae42 08af 8e22 dcb1 a8c8 2430 e7a3 a32f
00000240: df43 e12f ff7c 62b3 0475 2c2f a8f8 ecaf
00000250: ae66 302f 8c21 7ab3 bdb7 a12e b48d 9baf
00000260: ac4b 8baf d6d7 cb2f 5fbc c42f ddae b1b0
00000270: 6005 1b2f 15b8 1e2e 852b c92f c2b9 932f
00000280: 7012 6d2f 1e7a 07b0 f770 86b0 4c5a 5730
00000290: f124 87ae a329 28b0 27c6 102f 0b75 cb2d
000002a0: 24f4 f72e ddaa ad30 daa1 36b0 6ada 0aaf
000002b0: 27da 0aae 49d4 cf30 9193 fbae 535b bfad
000002c0: e342 5eaf d9ad b2b0 8925 0c30 b046 5aaf
000002d0: a122 962f f9bb f630 1e6a 4db0 7b38 3430
000002e0: 677a 362f 8a55 ee2f 6c93 742d ca47 96af
000002f0: 6fcd 34ae e2ba a1af b2da b2af 6140 dcae
00000300: b861 0baf 8c02 cc2f b5d3 3c30 6209 d6af
00000310: c03d 112d 580b 3230 9a47 7b2f d339 6b30
00000320: 4417 992e 64e1 9b30 323e abb2 71c9 d932
00000330: 5b2e 0b33 9109 1e2f aa68 1130 3a08 85af
00000340: de3a bd2f 389d fb2f f52b 9eaf fda3 10af
00000350: cc9a 99ad d50a 192f 1118 a3ad 8932 5430
00000360: afec fbaf 61b7 19b0 fab6 d6af 9224 bc30
00000370: 1baa 41b1 3f07 b330 7a81 99ad fde7 04b0
00000380: 37ba abaf 7259 8530 da9e 2ab0 1459 81af
00000390: 88fd 02af 0029 b330 23fb 6fb0 6fd5 37b2
000003a0: 326d 0bb0 6881 d6af 97d2 242d 04a6 142f
000003b0: e381 59b0 5f52 60af bac0 8bb0 8eba c22d
000003c0: 948d 93b0 13ec 732f d240 a92f e036 dbaf
000003d0: f361 94af 89ce 6eb0 c803 1fb0 7247 0b30
000003e0: fa39 15b0 9845 a62a ae91 7f30 c885 e830
000003f0: d167 a3b1 f28d 1cb0 1d20 0bb0 3d72 5b2f

exp_avg_sq f4 [10, 200]
4.4631254e-11 2.1157641e-10 8.4179974e-10 8.092313e-10 8.324652e-10 1.6190584e-10 8.223292e-11 1.7162093e-11
1.9344526e-10 3.4196816e-11 3.807626e-11 7.819006e-11 3.0604705e-10 1.1324115e-10 1.7843473e-10 1.0557965e-10
1.2447397e-10 5.158298e-11 6.601742e-11 3.0057144e-11 4.5724172e-10 4.1210213e-10 2.5580899e-11 5.5712388e-12
1.5848663e-10 9.960401e-11 4.529609e-10 2.2434152e-10 3.7084627e-11 4.1682688e-10 1.2051334e-10 4.697252e-10
3.418003e-10 5.2864123e-11 2.89247e-10 4.6557744e-11 8.636481e-11 7.961484e-11 6.076887e-11 1.2016904e-11
3.5389316e-10 2.8870014e-11 5.2458076e-11 2.2317235e-11 9.71759e-11 4.574765e-11 1.7868443e-10 1.15149064e-10
1.8117607e-10 1.4990001e-10 1.8932784e-11 2.5601235e-10 4.581844e-10 1.12849764e-10 6.037101e-11 1.4008285e-10
9.7454406e-11 3.965e-10 1.0175899e-10 9.5407945e-11 1.1493626e-10 1.4428111e-10 2.7434962e-11 5.017874e-11
2.6792368e-10 1.1926383e-11 2.0371572e-10 6.7841316e-10 4.361582e-11 7.784522e-12 1.3656962e-10 4.7179257e-11
2.7379276e-11 5.74589e-11 1.8805273e-10 4.6962982e-11 9.889019e-11 7.263016e-10 1.02778265e-10 1.3276387e-10
6.987393e-11 5.1351607e-11 9.637677e-11 3.4373077e-10 2.104305e-10 1.2947403e-10 5.475193e-12 2.5932895e-10
2.820222e-11 5.4520635e-11 2.065665e-10 5.6224653e-11 3.43298e-10 4.2535364e-11 1.5651655e-10 1.2740818e-10
8.911005e-12 1.13865445e-10 5.355775e-11 1.253932e-10 2.738948e-10 2.7231317e-10 3.613324e-11 3.5694403e-10
3.948023e-11 4.349138e-11 2.5991204e-10 3.8025416e-11 7.956138e-11 2.301565e-10 7.309068e-11 4.2476862e-11
1.4240638e-11 6.413765e-11 2.2925134e-11 4.262577e-10 3.210344e-11 7.9617916e-11 9.891399e-11 8.109434e-11
6.885329e-11 1.6862057e-11 8.3269946e-11 4.6437177e-11 1.5238671e-10 5.3882836e-11 8.899799e-11 6.7580785e-10
3.1036063e-10 8.3312635e-11 3.3756598e-10 2.957875e-10 4.5605658e-11 1.7237049e-10 1.423866e-10 2.4431126e-11
5.2844246e-11 4.5997495e-10 6.921814e-11 2.597461e-11 2.3031455e-11 7.1719947e-10 3.8050224e-10 2.851068e-11
4.3073926e-11 1.2990397e-09 2.650056e-10 3.1397506e-11 2.2996485e-10 1.6349232e-09 2.0841611e-11 1.23502744e-11
1.6860979e-10 2.9809064e-10 1.2604488e-10 3.2957087e-10 3.005814e-11 8.441428e-12 2.9640515e-10 4.515417e-11
1.4690124e-10 3.9435258e-10 3.6461273e-10 8.2333175e-11 2.1266596e-11 4.7480134e-11 2.0921133e-11 8.159833e-11
4.6952036e-11 3.1905245e-10 2.3395375e-10 2.1858866e-10 2.3457174e-11 3.5962042e-10 1.3963671e-11 2.8427443e-11
2.0484755e-11 4.7646914e-10 2.1569808e-11 1.1325855e-10 2.7531272e-11 6.6408595e-10 7.046773e-11 1.2814019e-10
1.8100393e-11 6.8594e-11 1.9125139e-10 5.6058422e-11 6.226874e-11 3.1830746e-10 7.680911e-11 5.7386495e-11
2.8956214e-11 4.103001e-11 2.200043e-10 8.337745e-11 2.9732988e-10 1.28261e-10 1.4084761e-11 5.0493065e-10
5.835989e-11 4.7861853e-10 1.2877124e-09 1.326898e-09 1.050368e-09 1.9919014e-10 2.2351378e-10 1.4936403e-11
2.6491984e-10 5.8621205e-11 6.263046e-11 7.739772e-11 4.2412326e-10 2.6026228e-10 2.1379343e-10 9.1564346e-11
1.9712047e-10 3.649536e-11 1.4285646e-10 5.0308858e-11 5.766457e-10 5.119691e-10 7.139688e-11 3.4882323e-11
2.960956e-10 6.799527e-11 5.478678e-10 3.4997888e-10 1.08661025e-10 7.264394e-10 1.3519057e-10 7.444158e-10
4.1739529e-10 7.110693e-11 4.3726292e-10 5.281269e-11 1.7748396e-10 6.8086446e-11 5.2920827e-11 1.29632555e-11
5.095559e-10 3.5101297e-11 5.585812e-11 5.5186744e-11 1.05256345e-10 7.240151e-11 2.6821806e-10 1.4741258e-10
2.4855645e-10 2.256477e-10 5.243639e-11 4.3657888e-10 7.210353e-10 1.6433918e-10 1.09805054e-10 1.1509632e-10
00000000: 534a 442e 77a1 682f 6464 6730 9770 5e30
00000010: 88d3 6430 7104 322f 05d5 b42e 99f5 962d
00000020: 00b2 542f 3166 162e 0f76 272e 17f1 ab2e
00000030: 4b40 a82f 1a05 f92e e930 442f 0f2c e82e
00000040: 4fdc 082f 46dd 622e 812c 912e 5631 042e
00000050: 0d5f fb2f 388e e22f 1003 e12d 4205 c42c
00000060: 0542 2e2f 1308 db2e 9404 f92f 86aa 762f
00000070: 9419 232e 2b27 e52f 7d81 042f f91d 0130
00000080: 1ee8 bb2f b67f 682e e503 9f2f 5cc3 4c2e
00000090: 11eb bd2e 2c13 af2e d5a1 852e 5367 532d
000000a0: 098e c22f 7ef1 fd2d 8bb6 662e f24d c42d
000000b0: 2bb1 d52e 4633 492e 3277 442f 2937 fd2e
000000c0: 8834 472f 1ad1 242f d788 a62d 89be 8c2f
000000d0: b9e3 fb2f c528 f82e dbc1 842e d105 1a2f
000000e0: f44d d62e 6afa d92f 38c5 df2e e6cd d12e
000000f0: 5dbf fc2e 86a3 1e2f 0b52 f12d 3db0 5c2e
00000100: e84a 932f a7cf 512d e1fc 5f2f 157b 3a30
00000110: 0cd3 3f2e 5ff2 082d ee28 162f 1f7f 4f2e
00000120: a6d4 f02d f8b4 7c2e 23c4 4e2f 9e8b 4e2e
00000130: 3a76 d92e eea4 4730 0503 e22e b5f9 112f
00000140: 87a7 992e c5d8 612e 4cef d32e cef7 bc2f
00000150: ec5e 672f b35b 0e2f 28a4 c02c 4e91 8e2f
00000160: c111 f82d c7c8 6f2e 4d1f 632f 5547 772e
00000170: e6ba bc2f 9012 3b2e 7e17 2c2f 3716 0c2f
00000180: 99c3 1c2d 8c64 fa2e aa8c 6b2e 0cdf 092f
00000190: 4493 962f acb4 952f 69ea 1e2e 683b c42f
000001a0: caa2 2d2e f146 3f2e 5ee3 8e2f d03c 272e
000001b0: 13f5 ae2e 4c0f 7d2f 65ba a02e b2d0 3a2e
000001c0: 2286 7a2d 490a 8d2e d0a6 c92d 7056 ea2f
000001d0: 4331 0d2e e714 af2e a083 d92e 0e54 b22e
000001e0: f568 972e fa51 942d d01c b72e 9d3b 4c2e
000001f0: 0c8d 272f aefa 6c2e 6ab5 c32e c0c3 3930
00000200: 609f aa2f d834 b72e 3094 b92f 649c a22f
00000210: 6893 482e fb85 3d2f 448e 1c2f 01e6 d62d
00000220: 5569 682e b8df fc2f 5936 982e 9f79 e42d
00000230: 3a96 ca2d 6d24 4530 ee2e d12f 58c8 fa2d
00000240: ee70 3d2e e589 b230 39b0 912f 7316 0a2e
00000250: 5ad9 7c2f bfb3 e030 2353 b72d b144 592d
00000260: 7063 392f 87e0 a32f 7b96 0a2f fa2e b52f
00000270: 7532 042e d080 142d 51f3 a22f 1397 462e
00000280: 0685 212f 31cc d82f ae72 c82f 750d b52e
00000290: 1e10 bb2d e1d1 502e 3406 b82d c76f b32e
000002a0: 4b7f 4e2e a466 af2f 109e 802f 3d57 702f
000002b0: dc54 ce2d 13b4 c52f c9a6 752d e90c fa2d
000002c0: 912f b42d 89f8 0230 e4ba bd2d e50e f92e
000002d0: ea2a f22d e58a 3630 cef5 9a2e 42e4 0c2f
000002e0: 7636 9f2d fdd6 962e 7b48 522f 2c8c 762e
000002f0: 2fee 882e cbfd ae2f afe7 a82e 7363 7c2e
00000300: 99b3 fe2d af73 342e b5e5 712f 5559 b72e
00000310: 7675 a32f 4306 0d2f 20c8 772d 56cb 0a30
00000320: b355 802e c98f 0330 5afb b030 135e b630
00000330: 8a5c 9030 0a03 5b2f 89c1 752f ca61 832d
00000340: 27a4 912f cee8 802e d1b9 892e 0b33 aa2e
00000350: 0b2a e92f a914 8f2f 8011 6b2f 255a c92e
00000360: 7bbc 582f 1f82 202e 8512 1d2f bd42 5d2e
00000370: d581 1e30 9fba 0c30 df00 9d2e 016a 192e
00000380: c0c7 a22f ef85 952e c598 1630 2667 c02f
00000390: b8f2 ee2e a1ae 4730 c3a4 142f 9b9f 4c30
000003a0: 2a77 e52f a55d 9c2e 4963 f02f ce45 682e
000003b0: 4b25 432f 43b9 952e 8ebf 682e 500d 642d
000003c0: cf10 0c30 8c60 1a2e a7aa 752e c0b6 722e
000003d0: 0e76 e72e 6d36 9f2e 5674 932f f414 222f
000003e0: 36a5 882f 2e1a 782f 209e 662e 0403 f02f
000003f0: 5932 4630 5eb1 342f c076 f12e 7819 fd2e

exp_avg f4 [10]
-1.02859776e-10 -2.2784252e-09 -7.788522e-05 -0.0003383517 -0.00013768052 9.3893174e-12 0.00020706166 -6.011799e-07
1.7721477e-32 0.000723781
00000000: e830 e2ae 7b92 1cb1 4f56 a3b8 cc64 b1b9
00000010: 555e 10b9 ba2d 252d b11e 5939 c560 21b5
00000020: c407 b80a 1fbc 3d3a

exp_avg_sq f4 [10]
3.674115e-10 5.5782523e-10 1.1794135e-05 4.580102e-06 7.893105e-06 1.9647924e-10 3.5263195e-06 2.4807964e-10
3.157469e-12 3.0084136e-06
00000000: 92fc c92f 7655 1930 6ddf 4537 c7ae 9936
00000010: a16c 0437 fd07 582f b5a5 6c36 1b62 882f
00000020: e82f 5e2c 27e4 4936

exp_avg f4 [2, 10]
1.7366094e-09 2.2933593e-10 -9.154879e-05 -0.00010364812 -7.512084e-05 1.46e-43 -0.00024424898 3.6431386e-06
9.399707e-34 -0.00020074194 -1.7280246e-09 -2.2818487e-10 7.925546e-05 0.00010761816 7.952831e-05 1.6e-43
0.0002611333 -3.643131e-06 8.57549e-33 0.00020680977
00000000: 83ad ee30 5328 7c2f e2fd bfb8 a95d d9b8
00000010: 328a 9db8 6800 0000 8b0e 80b9 a57c 7436
00000020: ef2d 9c08 417e 52b9 767f edb0 55e4 7aaf
00000030: f335 a638 0fb1 e138 70c8 a638 7200 0000
00000040: b8e8 8839 847c 74b6 201b 320a 13db 5839

exp_avg_sq f4 [2, 10]
1.2407766e-10 1.3008038e-10 5.6291974e-06 1.0658379e-06 2.4012438e-06 4.4888477e-12 2.586283e-06 3.8173766e-09
2.0553664e-14 3.6153966e-07 1.3280296e-10 1.2721574e-10 5.6294807e-06 1.065262e-06 2.400976e-06 3.572827e-12
2.5866025e-06 3.8173713e-09 1.00033886e-13 3.6146952e-07
00000000: c26c 082f 5f06 0f2f 70e2 bc36 e90d 8f35
00000010: 0e25 2136 f2ef 9d2c 0190 2d36 002a 8331
00000020: 8621 b928 a219 c234 b604 122f 0ce0 0b2f
00000030: dfe4 bc36 20fa 8e35 7420 2136 546a 7b2c
00000040: 7e95 2d36 f429 8331 9c41 e129 fe0f c234

exp_avg f4 [2]
-0.00031160002 0.0003159081
00000000: 3f5e a3b9 78a0 a539

exp_avg_sq f4 [2]
1.15327375e-05 1.1533683e-05
00000000: bb7c 4137 cb80 4137

exp_avg f4 [2, 10]
-3.155667e-09 -2.3585554e-09 0.0006670977 0.00021999826 0.00062647567 4.5858364e-21 0.0005935927 -6.240412e-07
-3.3888949e-34 0.00033382094 3.0539993e-09 3.894098e-09 -0.0006364469 -0.00020946005 -0.0005869552 -5.536033e-20
-0.00058674294 6.1297123e-07 3.9713753e-33 -0.00033066553
00000000: 15db 58b1 2514 22b1 2be0 2e3a 55af 6639
00000010: 123a 243a 7d3f ad1d 559b 1b3a c983 27b5
00000020: 0f3b e187 b004 af39 86de 5131 d9cc 8531
00000030: 3ad7 26ba 81a2 5bb9 e6dd 19ba 44b7 829f
00000040: a7cf 19ba 108b 2435 e8f6 a409 2d5d adb9

exp_avg_sq f4 [2, 10]
4.4223192e-10 8.7234847e-10 9.571313e-06 2.0657292e-06 4.238783e-06 3.5884216e-11 4.5463125e-06 2.875463e-09
2.7200754e-14 5.821842e-07 4.421934e-10 8.7195273e-10 9.570209e-06 2.0661457e-06 4.2379324e-06 3.5946503e-11
4.545493e-06 2.8749747e-09 4.691946e-13 5.821955e-07
00000000: 9c1e f32f 11ca 6f30 7a94 2037 f5a0 0a36
00000010: de3a 8e36 09d2 1d2e 878c 9836 ae99 4531
00000020: ab00 f528 6547 1c35 3019 f32f 38ae 6f30
00000030: bc8f 2037 1da8 0a36 9033 8e36 2a18 1e2e
00000040: 7d85 9836 1791 4531 0911 042b 2c48 1c35

exp_avg f4 [2]
0.0011883506 -0.0012021584
00000000: 6ec2 9b3a be91 9dba

exp_avg_sq f4 [2]
1.9941877e-05 1.9942825e-05
00000000: db48 a737 e44a a737

exp_avg f4 [2, 10]
1.3475593e-09 -4.069518e-09 -0.00022329869 0.00025970853 0.00021502095 -1.5253721e-30 0.00025315184 -1.1895645e-06
-7.615505e-33 -0.0001290988 -1.3443482e-09 4.069288e-09 0.0002563159 -0.00028404433 -0.00020797024 1.8889937e-36
-0.00023715968 1.1894483e-06 2.3152594e-32 0.00015621595
00000000: 0735 b930 dcd3 8bb1 4925 6ab9 7d29 8839
00000010: 3f77 6139 7a81 f78d 77b9 8439 20a9 9fb5
00000020: f82a 1e8a b25e 07b9 0cc4 b8b0 d6d1 8b31
00000030: 2362 8639 c9eb 94b9 9612 5ab9 a4b2 2004
00000040: 11ae 78b9 22a5 9f35 276e f00a e6cd 2339

exp_avg_sq f4 [2, 10]
5.5419874e-11 5.6935057e-10 2.4447821e-05 4.7910326e-06 1.0811653e-05 1.3932924e-11 1.273705e-05 4.324857e-09
4.3887277e-14 1.5872658e-06 5.5081e-11 5.693571e-10 2.444839e-05 4.793451e-06 1.0810566e-05 1.1601999e-11
1.2737128e-05 4.3249306e-09 5.299622e-13 1.5878255e-06
00000000: 3bbd 732e 7c80 1c30 4c15 cd37 a8c2 a036
00000010: b263 3537 501c 752d 37b1 5537 d899 9431
00000020: 96a6 4529 0a0a d535 b13f 722e f280 1c30
00000030: 8516 cd37 6ed7 a036 075f 3537 c21a 4c2d
00000040: 8cb1 5537 7e9a 9431 cd2b 152b 451d d535

exp_avg f4 [2]
0.00014310575 -0.00012934644
00000000: a80e 1639 2ca1 07b9

exp_avg_sq f4 [2]
5.008086e-05 5.0081275e-05
00000000: ea0d 5238 5c0e 5238

exp_avg f4 [2, 10]
-1.9185944e-10 2.0132158e-10 0.00054343406 -0.00019149049 0.0003295122 -2.853e-40 0.00033812202 -4.1525104e-06
2.0596193e-33 0.00010329194 1.7445584e-10 -2.0070061e-10 -0.000548295 0.00018484214 -0.0003391085 -3.51108e-40
-0.00031231312 4.1525273e-06 -1.4838261e-33 -8.577552e-05
00000000: a2f3 52af fd5a 5d2f 3e75 0e3a d6ca 48b9
00000010: 61c2 ac39 4d1b 0380 f845 b139 cb55 8bb6
00000020: 421b 2b09 709e d838 f4d0 3f2f 33ac 5caf
00000030: 74bb 0fba 2fd2 4139 5fca b1b9 bfd2 0380
00000040: f5bd a3b9 f055 8b36 fb8a f688 62e2 b3b8

exp_avg_sq f4 [2, 10]
1.3869436e-10 2.1836583e-10 6.4478763e-06 1.1316528e-06 2.8732252e-06 9.23863e-12 3.181014e-06 2.7251141e-09
4.3013163e-14 4.2285896e-07 1.4497101e-10 2.1823565e-10 6.4483106e-06 1.1320453e-06 2.8738148e-06 9.1541965e-12
3.1805673e-06 2.7253648e-09 3.0898996e-14 4.2285575e-07
00000000: fe7e 182f 8418 702f d65a d836 4be3 9735
00000010: a2d1 4036 1787 222d 6879 5536 b744 3b31
00000020: cdb6 4129 4b05 e334 b665 1f2f e0f3 6f2f
00000030: 915e d836 c8f0 9735 c3db 4036 d60a 212d
00000040: bb71 5536 2049 3b31 1e28 0b29 da04 e334

exp_avg f4 [2]
0.0008512227 -0.0008594786
00000000: 9724 5f3a a24e 61ba

exp_avg_sq f4 [2]
1.342024e-05 1.3419003e-05
00000000: 7e27 6137 2e22 6137

exp_avg f4 [2, 10]
-1.7282454e-09 7.0905404e-10 -0.00032308494 -0.0002783648 -5.851632e-05 4.1907907e-34 -0.00025098695 -2.4671651e-06
2.6283756e-33 6.360611e-05 1.7300819e-09 -9.717566e-10 0.0003471807 0.00026279312 7.017995e-05 -2.6599222e-35
0.00028333368 2.448992e-06 -2.5646484e-33 -4.807061e-05
00000000: 3b87 edb0 3ee7 4230 ba63 a9b9 7ef1 91b9
00000010: 6c6f 75b8 4e43 0b08 e696 83b9 9391 25b6
00000020: 5e5b 5a09 4564 8538 d8c7 ed30 a58e 85b0
00000030: ce05 b639 7fc7 8939 932d 9338 fc6c 0d86
00000040: 678c 9439 5d59 2436 0a10 5589 6d9f 49b8

exp_avg_sq f4 [2, 10]
1.2596268e-10 3.5770986e-10 1.1888903e-05 2.0636462e-06 5.252812e-06 1.1996992e-11 5.7047114e-06 4.60178e-08
4.0479602e-13 7.2797354e-07 1.2628626e-10 3.5684544e-10 1.1888959e-05 2.0631853e-06 5.252231e-06 1.168335e-11
5.704602e-06 4.6017643e-08 3.6607937e-13 7.280952e-07
00000000: 587f 0a2f 30a7 c42f 7376 4737 2c7d 0a36
00000010: 5041 b036 a60d 532d 196b bf36 1ba5 4533
00000020: 41e1 e32a f669 4335 6cda 0a2f 882d c42f
00000030: b176 4737 4175 0a36 523c b036 2189 4d2d
00000040: 286a bf36 efa4 4533 9915 ce2a 5272 4335

exp_avg f4 [2]
-0.00020399965 0.00020939705
00000000: bde8 55b9 9891 5b39

exp_avg_sq f4 [2]
2.44279e-05 2.4427467e-05
00000000: 84ea cc37 96e9 cc37

exp_avg f4 [2, 10]
2.6898694e-10 1.5475503e-10 -0.001569851 -0.0003032421 -0.001435735 7.408889e-34 -0.0014416882 -6.884539e-07
-1.2207285e-33 -0.00034955115 -2.7339375e-10 -1.5487538e-10 0.0015844512 0.00034266978 0.0014187862 -1.3229337e-30
0.0014803553 6.875565e-07 -2.1257058e-33 0.00035156123
00000000: 8ce0 932f ab27 2a2f 75c3 cdba 77fc 9eb9
00000010: 462f bcba db33 7608 07f7 bcba 31ce 38b5
00000020: 0cd4 ca88 f643 b7b9 c04c 96af 8b49 2aaf
00000030: 5cad cf3a 5ca8 b339 91f6 b93a 84a8 d68d
00000040: 7b08 c23a 8690 3835 c398 3089 c051 b839

exp_avg_sq f4 [2, 10]
8.1331275e-11 1.16353115e-10 6.696412e-06 1.2552226e-06 3.0777305e-06 1.2716819e-11 3.2995636e-06 2.4072417e-09
2.5655425e-15 4.2497777e-07 8.019746e-11 1.1704368e-10 6.6966663e-06 1.2557591e-06 3.079026e-06 1.3963368e-11
3.2999e-06 2.40731e-09 6.4965535e-13 4.2502646e-07
00000000: 70d9 b22e fbdc ff2e beb1 e036 1f79 a835
00000010: 028b 4e36 76b7 5f2d 126e 5d36 a56c 2531
00000020: e8dd 3827 8028 e434 285b b02e deb0 002f
00000030: edb3 e036 8e8b a835 44a1 4e36 6ba5 752d
00000040: da73 5d36 d86d 2531 9adc 362b 312f e434

exp_avg f4 [2]
-0.0025527086 0.0025235184
00000000: 584b 27bb 9d61 253b

exp_avg_sq f4 [2]
1.3882368e-05 1.3879778e-05
00000000: 51e8 6837 31dd 6837

exp_avg f4 [2, 10]
-8.850781e-10 -5.2644884e-09 5.5024243e-06 0.00024478088 5.6265293e-05 2.2202962e-35 0.0002186791 -3.7963223e-06
-1.3150296e-32 -9.324491e-05 9.027383e-10 5.2435194e-09 -3.9169834e-08 -0.00023038905 -3.806426e-05 2.801839e-39
-0.00021564399 3.796323e-06 -1.9056292e-32 9.3331204e-05
00000000: d649 73b0 eee2 b4b1 77a1 b836 ef55 8039
00000010: 66fe 6b38 361a ec05 394d 6539 52c4 7eb6
00000020: 7c8f 888a 7b8c c3b8 8f24 7830 7c2a b431
00000030: b03b 28b3 9794 71b9 30a7 1fb8 6382 1e00
00000040: 7e1e 62b9 55c4 7e36 50e4 c58a cfba c338

exp_avg_sq f4 [2, 10]
4.7544826e-11 5.909043e-10 2.0109788e-05 3.8624476e-06 8.782583e-06 1.14541805e-11 9.804664e-06 1.6281378e-08
2.275266e-13 1.2710616e-06 4.562049e-11 5.914504e-10 2.0110028e-05 3.86337e-06 8.780247e-06 9.359792e-12
9.80473e-06 1.6281371e-08 3.8791394e-15 1.2710634e-06
00000000: b71a 512e 326d 2230 71b1 a837 2c9a 8136
00000010: e858 1337 0b81 492d b67e 2437 21db 8b32
00000020: 0a16 802a 5899 aa35 1ba4 482e 9f93 2230
00000030: f5b1 a837 18a2 8136 e04e 1337 c1a8 242d
00000040: ff7e 2437 1ddb 8b32 bfc2 8b27 6899 aa35

exp_avg f4 [2]
0.00022423858 -0.00023807914
00000000: 9621 6b39 e2a4 79b9

exp_avg_sq f4 [2]
4.0862797e-05 4.086161e-05
00000000: 1864 2b38 d262 2b38

exp_avg f4 [2, 10]
1.249841e-09 -3.0111671e-10 0.0004755226 0.0002393638 0.0005875438 -1.33e-43 0.0006992304 8.300158e-07
1.5648115e-33 5.1428346e-05 -1.1908993e-09 3.0476952e-10 -0.0005131793 -0.0002258502 -0.00058677327 -3.4e-44
-0.00065466 -8.2906183e-07 1.9650516e-35 -5.2608448e-05
00000000: dfc6 ab30 698a a5af 904f f939 bbfd 7a39
00000010: 6605 1a3a 5f00 0080 8f4c 373a 40ce 5e35
00000020: dcff 0109 c4b4 5738 0bad a3b0 7f8c a72f
00000030: e186 06ba 34d2 6cb9 b0d1 19ba 1800 0080
00000040: 7d9d 2bba b28c 5eb5 cbf5 d005 e4a7 5cb8

exp_avg_sq f4 [2, 10]
2.48523e-10 2.777269e-10 1.08381455e-05 2.1830394e-06 4.6984414e-06 3.2267535e-12 5.3160275e-06 3.3708496e-09
2.6367463e-14 7.108203e-07 2.4558042e-10 2.7655836e-10 1.0840933e-05 2.1819362e-06 4.698497e-06 2.5929515e-12
5.3172107e-06 3.3715086e-09 5.3210406e-14 7.107888e-07
00000000: 81a0 882f 96ae 982f 7bd5 3537 5580 1236
00000010: 4ea7 9d36 0610 632c 5460 b236 9da4 6731
00000020: 3b7f ed28 33cf 3e35 5f02 872f 210a 982f
00000030: 74e1 3537 616d 1236 c8a7 9d36 7676 362c
00000040: 7e6a b236 35b0 6731 6ca3 6f29 09cd 3e35

exp_avg f4 [2]
0.0010827477 -0.0010662576
00000000: fcea 8d3a abc1 8bba

exp_avg_sq f4 [2]
2.2103832e-05 2.2103332e-05
00000000: 9e6b b937 8b6a b937

exp_avg f4 [2, 10]
-1.0592593e-09 2.5728157e-09 0.00021013855 0.00011304582 0.00013594292 -1.74e-43 0.00017287346 -4.591811e-07
4.9990032e-34 8.806879e-05 1.0601864e-09 -2.5370663e-09 -0.00021248822 -0.00010456879 -0.0001265093 -2.16e-43
-0.00020125914 4.6009774e-07 -5.182047e-34 -8.777414e-05
00000000: 6095 91b0 74cd 3031 a358 5c39 0313 ed38
00000010: e68b 0e39 7c00 0080 5e45 3539 5f85 f6b4
00000020: d11e 2608 92b1 b838 feb5 9130 8b58 2eb1
00000030: 5fcf 5eb9 f14b dbb8 95a7 04b9 9a00 0080
00000040: 1709 53b9 5a03 f734 fb33 2c88 6213 b8b8

exp_avg_sq f4 [2, 10]
1.4881119e-11 4.8314813e-10 5.614251e-06 1.2106991e-06 2.339658e-06 4.6924443e-12 2.6181747e-06 2.2371198e-09
3.938878e-14 3.1464722e-07 1.5040207e-11 4.832336e-10 5.6144154e-06 1.2102294e-06 2.3399066e-06 4.665112e-12
2.6176485e-06 2.237021e-09 8.796825e-14 3.1464418e-07
00000000: 4de5 822d 87ce 0430 0d62 bc36 4e7f a235
00000010: 0503 1d36 c819 a52c e6b3 2f36 d4bb 1931
00000020: 2c64 3129 c9ec a834 894b 842d 8bd4 0430
00000030: 7663 bc36 2a6f a235 4a07 1d36 9823 a42c
00000040: dcaa 2f36 17ba 1931 3e16 c629 5eec a834

exp_avg f4 [2]
0.00044763603 -0.00046990204
00000000: b1b0 ea39 2f5d f6b9

exp_avg_sq f4 [2]
1.145968e-05 1.1459843e-05
00000000: f342 4037 a743 4037

exp_avg f4 [2, 10]
-1.913453e-09 -1.7546782e-10 0.0004692962 -3.5544334e-05 0.000276193 -1.6e-43 0.00019615152 2.3181547e-06
-3.284707e-33 -0.0001136702 1.9051443e-09 1.7578644e-10 -0.00046050572 4.0008224e-05 -0.00027907453 1.32e-43
-0.00018000658 -2.318164e-06 -5.3856e-33 0.00011012907
00000000: d27d 03b1 cded 40af df0b f639 7015 15b8
00000010: ffcd 9039 7200 0080 06ae 4d39 9891 1b36
00000020: ff70 8889 3962 eeb8 a7eb 0231 7c47 412f
00000030: 0870 f1b9 81ce 2738 c050 92b9 5e00 0000
00000040: 26c0 3cb9 c191 1bb6 86b5 df89 18f5 e638

exp_avg_sq f4 [2, 10]
3.0302535e-11 1.5393709e-10 7.3218334e-06 1.2991235e-06 3.5089774e-06 4.4664654e-12 3.6199376e-06 2.3559594e-09
1.0001866e-14 4.7637644e-07 2.542026e-11 1.5432008e-10 7.3218503e-06 1.2992821e-06 3.508785e-06 4.1976158e-12
3.6200602e-06 2.3559548e-09 1.3872958e-13 4.7639358e-07
00000000: 9f45 052e 7041 292f 12ae f536 8b5d ae35
00000010: c67b 6b36 5826 9d2c 0eee 7236 7ae6 2131
00000020: 772d 3428 aec0 ff34 5699 df2d 3ead 292f
00000030: 37ae f536 fe62 ae35 7878 6b36 c3b0 932c
00000040: 29f0 7236 65e6 2131 1432 1c2a 09c3 ff34

exp_avg f4 [2]
0.0009610129 -0.00095553003
00000000: 7cec 7b3a 897c 7aba

exp_avg_sq f4 [2]
1.5204232e-05 1.52035645e-05
00000000: ae15 7f37 d012 7f37

dnn.0.weight f4 [2, 10]
-4.2460766e-07 -1.1545524e-06 0.026436185 0.0022432231 0.11939755 1.324933e-39 0.16491245 0.035837825
6.1916293e-28 -0.16671088 4.7442097e-07 1.1699804e-06 -0.14931874 0.037418865 -0.0753501 1.512001e-39
0.0038253092 -0.035837755 -3.7024535e-28 0.22728764
00000000: a2f5 e3b4 1ef6 9ab5 b390 d83c 0a03 133b
00000010: b486 f43d 606d 0e00 cfde 283e afca 123d
00000020: 7738 4412 42b6 2abe ecb3 fe34 3808 9d35
00000030: 03e7 18be 8644 193d 2751 9abd d876 1000
00000040: 0ab2 7a3b 9cca 12bd beab ea91 17be 683e

dnn.0.bias f4 [2]
-0.057944182 0.101015255
00000000: e156 6dbd 16e1 ce3d

dnn.0.weight f4 [2, 10]
-7.5398407e-06 -2.0924186e-05 0.06857774 -0.030922424 0.20356299 3.6569774e-17 -0.1244484 -0.0061230008
1.6630485e-28 0.17366299 6.5732784e-06 3.574717e-05 0.23783349 0.13623112 0.1914495 -4.4159692e-16
0.1929121 0.0060143736 -5.563683e-29 -0.14215006
00000000: bdfe fcb6 5986 afb7 7c72 8c3d 0651 fdbc
00000010: d172 503e f8a5 2824 cede febd 74a3 c8bb
00000020: 02d1 5211 b6d4 313e 0890 dc36 3bef 1538
00000030: 9f8a 733e 2c80 0b3e 560b 443e 3490 fea5
00000040: c08a 453e 3914 c53b 5e0e 8d90 c98f 11be

dnn.0.bias f4 [2]
0.052199047 -0.19024338
00000000: abce 553d 29cf 42be

dnn.0.weight f4 [2, 10]
-9.338643e-06 -3.59733e-05 0.117189385 -0.20914955 0.04004648 -8.371496e-27 0.14082527 -0.0117137255
8.086521e-28 0.28855625 9.372676e-06 3.5971098e-05 0.21291552 -0.034098662 0.030442212 -4.657436e-32
0.019051265 0.011712585 -2.9437745e-28 -0.017599285
00000000: 2bad 1cb7 09e2 16b8 fd00 f03d 4d2b 56be
00000010: c707 243d 87d0 2594 8034 103e edea 3fbc
00000020: d422 8012 a5bd 933e 563f 1d37 acdf 1638
00000030: 8706 5a3e 0aab 0bbd f261 f93c f1d3 718b
00000040: 6611 9c3c 24e6 3f3c 7995 ba91 602c 90bc

dnn.0.bias f4 [2]
0.042271923 0.095298596
00000000: 5325 2d3d e92b c33d

dnn.0.weight f4 [2, 10]
3.7057437e-06 -5.5780686e-07 -0.039593406 0.09289533 0.091564 -1.24268385e-36 0.060632158 -0.04072216
-1.4848039e-28 0.20529501 -3.8338108e-06 5.6365167e-07 -0.008997736 -0.1593167 -0.18746895 -1.3012291e-36
0.19731195 0.04072236 1.6660463e-28 -0.030400312
00000000: 31b0 7836 32bc 15b5 b22c 22bd e83f be3d
00000010: e885 bb3d 846e d383 6d59 783d 48cc 26bd
00000020: a438 3c91 db38 523e 2fa4 80b6 d94d 1735
00000030: 3d6b 13bc eb23 23be dcf7 3fbe 8564 dd83
00000040: 250c 4a3e 7dcc 263d 4b32 5311 130a f9bc

dnn.0.bias f4 [2]
-0.10221297 0.019677503
00000000: 0955 d1bd b732 a13c

dnn.0.weight f4 [2, 10]
3.986182e-06 9.027779e-06 -0.030681355 -0.16499051 0.026180476 1.0735893e-30 0.14363237 -0.024557084
-4.7147836e-29 0.2091825 -3.969304e-06 -1.1509334e-05 0.27157044 0.0093813315 0.090404004 1.1716823e-31
0.17970033 0.024376193 4.9252517e-29 -0.05400863
00000000: 0bc1 8536 0476 1737 7757 fbbc 46f3 28be
00000010: 7078 d63c 2833 ae0d 5d14 133e f02b c9bc
00000020: 6411 6f90 f033 563e 1030 85b6 3718 41b7
00000030: 480b 8b3e 28b4 193c bc25 b93d d317 180c
00000040: 5d03 383e 95b0 c73c 6cbd 7910 2738 5dbd

dnn.0.bias f4 [2]
0.17572214 -0.12175905
00000000: 81f0 333e cf5c f9bd

dnn.0.weight f4 [2, 10]
-4.779625e-06 -8.7344216e-07 0.0005218956 0.19362134 -0.08654705 3.3660813e-30 0.10119743 -0.006742743
-1.3735871e-28 -0.19917095 4.7538333e-06 8.713897e-07 0.14542425 0.20030521 -0.08284378 -7.2806785e-27
0.28526103 0.0067339567 1.493302e-29 0.21924159
00000000: ab60 a0b6 7d76 6ab5 d2cf 083a ac44 463e
00000010: 943f b1bd 638b 880e 9940 cf3d 3af2 dcbb
00000020: 731f 2e91 78f3 4bbe 1e83 9f36 72e9 6935
00000030: 18ea 143e cf1c 4d3e 00aa a9bd 6d35 1094
00000040: bc0d 923e 86a8 dc3b 5670 970f de80 603e

dnn.0.bias f4 [2]
-0.039093066 -0.25272802
00000000: 0d20 20bd 9165 81be

dnn.0.weight f4 [2, 10]
6.2378017e-06 -4.6386267e-05 0.2072891 0.12653369 0.030209975 3.272142e-31 -0.0044881273 -0.037665993
3.149649e-28 -0.0059691486 -6.187296e-06 4.618659e-05 -0.1526693 0.017311128 0.15173876 1.4487137e-35
0.034830246 0.037666 -7.64334e-28 0.006831134
00000000: 4f4e d136 e08e 42b8 9843 543e 0c92 013e
00000010: e97a f73c c95f d40c 2411 93bb a847 1abd
00000020: faa1 c711 d998 c3bb 789c cfb6 79b8 4138
00000030: 5755 1cbe 11d0 8d3c 6861 1b3e bd0d 9a05
00000040: 29aa 0e3d aa47 1a3d 243a 7292 b5d7 df3b

dnn.0.bias f4 [2]
-0.1516453 0.0132643925
00000000: e848 1bbe e552 593c

dnn.0.weight f4 [2, 10]
-5.726983e-06 -5.211284e-07 -0.24466331 -0.015717546 -0.14194167 -1.326825e-39 0.2395892 0.008156114
1.6831696e-28 0.12763196 6.2808026e-06 5.547115e-07 -0.13178813 0.15076274 0.14964437 -2.9606e-40
0.20592244 -0.0081467545 -1.4281183e-28 -0.13941869
00000000: 692a c0b6 ace3 0bb5 0589 7abe 15c2 80bc
00000010: 2859 11be a672 0e80 df56 753e 39a1 053c
00000020: fa5d 5511 f4b1 023e afbf d236 7ce7 1435
00000030: 78f3 06be 8c61 1a3e 603c 193e 4b39 0380
00000040: 55dd 523e f779 05bc 1709 3591 c6c3 0ebe

dnn.0.bias f4 [2]
0.1797865 -0.014917467
00000000: f419 383e 6468 74bc

dnn.0.weight f4 [2, 10]
3.7020218e-06 2.2364633e-05 0.1026688 -0.096384875 0.22025219 -1.728929e-39 -0.107305005 -0.004493638
-1.04504186e-29 -0.10385057 -3.6944004e-06 -2.2024089e-05 -0.12615468 0.18107817 -0.12597722 -2.139044e-39
-0.17637688 0.004502606 6.480588e-30 0.10679206
00000000: 4070 7836 af9b bb37 0544 d23d 6f65 c5bd
00000010: ca89 613e 8dd3 1280 bac2 dbbd 5e3f 93bb
00000020: adf5 538f 9caf d4bd 51ed 77b6 5fc0 b8b7
00000030: b12e 01be 8e6c 393e 2c00 01be c94a 1780
00000040: 249c 34be 998a 933b 2371 030f ccb5 da3d

dnn.0.bias f4 [2]
-0.2480778 0.025484214
00000000: 1b08 7ebe 45c4 d03c

dnn.0.weight f4 [2, 10]
4.912034e-06 6.5154404e-07 -0.12702131 -0.046361502 -0.119952016 -1.57339e-39 0.1706716 0.022698825
-3.7398707e-28 -0.013260056 -5.0470485e-06 -6.4826224e-07 0.21489279 0.09096209 0.09115203 1.279496e-39
-0.009306396 -0.02269891 1.689983e-28 -0.022099879
00000000: 0dd2 a436 c4e5 2e35 e011 02be 8fe5 3dbd
00000010: 67a9 f5bd f921 1180 89c4 2e3e e3f2 b93c
00000020: df0a ed91 b540 59bc d159 a9b6 3e04 2eb5
00000030: db0c 5c3e 554a ba3d eaad ba3d b7ee 0d00
00000040: db79 18bc 11f3 b9bc 153b 5611 ce0a b5bc

dnn.0.bias f4 [2]
0.15531735 -0.10050184
00000000: 830b 1f3e e9d3 cdbd
