FinalModels/BR/CleanData1Models/br-0-5000-91-128-0.01-0.6798.pt (torch, 1511 bytes, 1 tensors)

dnn.0.weight f4 [1, 100]
-0.3049071 -0.18613805 -0.36211556 0.14375411 0.18689871 0.37765798 -0.16621846 0.4379991
0.23738046 0.06366056 0.28655052 -0.05675459 0.011371976 -0.2689144 0.09808156 -0.41173902
-0.3162497 -0.011147659 -0.005351136 -0.06839107 -0.17935573 -0.14523596 -0.51250863 0.08795832
-0.011946631 0.0059613697 -0.14236936 -0.124066964 -0.00015234279 0.23951545 -0.30083498 -0.30422035
-0.045509443 -0.16673627 -0.4165097 0.13827895 0.009957626 -0.45214546 0.21459152 0.2471853
-0.1699048 0.069838986 -0.2826634 0.019817213 -0.092752926 0.037016045 0.22572914 -0.116219364
0.1437042 0.11767419 -0.17433661 -0.16583869 -0.15775687 -0.071811475 -0.19743736 0.0036599687
0.053552207 -0.037675317 -0.0830134 -0.13576175 0.7239569 -0.115630485 -0.28431958 -0.0066039395
0.19806582 0.11229608 0.016239693 0.0713821 0.096870475 0.06412725 -0.03617731 0.2356192
0.003990793 -0.027470242 0.055714507 0.15787715 0.17939913 0.08893177 0.21836826 -0.46329784
0.021601249 -0.04488077 0.27275172 -0.20935044 0.0030937972 -0.42277414 -0.2843471 -0.36438847
0.5857129 -0.11249367 -0.08875883 -0.1052691 0.12095477 -0.19091927 0.16763438 -0.23094311
0.14630903 -0.004737525 0.0802655 0.05541185
00000000: c91c 9cbe f99a 3ebe 3667 b9be 4734 133e
00000010: 6062 3f3e 635c c13e 2c35 2abe 6b41 e03e
00000020: dd13 733e 7860 823d c0b6 923e 8077 68bd
00000030: 8651 3a3c 26af 89be fcde c83d 75cf d2be
00000040: 7beb a1be aca4 36bc 9558 afbb 9e10 8cbd
00000050: 07a9 37be bcb8 14be c433 03bf 7e23 b43d
00000060: cdbb 43bc 9857 c33b 46c9 11be d216 febd
00000070: 35be 1fb9 8a43 753e 0b07 9abe c5c2 9bbe
00000080: 1c68 3abd eabc 2abe c240 d5be ff98 0d3e
00000090: 5025 233c 9c7f e7be e1bd 5b3e 251e 7d3e
000000a0: 86fb 2dbe be07 8f3d 42b9 90be b557 a23c
000000b0: 3ff5 bdbd 239e 173d 8a25 673e 6b04 eebd
000000c0: 3227 133e 2aff f03d 4c85 32be 9ed1 29be
000000d0: 048b 21be e511 93bd 052d 4abe 16dc 6f3b
000000e0: 8f59 5b3d 6f51 1abd ee02 aabd 2105 0bbe
000000f0: 3d55 393f adcf ecbd 5692 91be dc65 d8bb
00000100: c4d1 4a3e 7dfb e53d 1b09 853c c730 923d
00000110: 0764 c63d 2655 833d a92e 14bd 2946 713e
00000120: 33c5 823b 4609 e1bc e534 643d 8caa 213e
00000130: 68b4 373e dc21 b63d ee9b 5f3e 6035 edbe
00000140: 1af5 b03c e6d4 37bd 1da6 8b3e f65f 56be
00000150: 4ec1 4a3b da75 d8be f195 91be 2091 babe
00000160: 48f1 153f 1563 e6bd 31c7 b5bd 5397 d7bd
00000170: 22b7 f73d 5780 43be 59a8 2b3e 5a7c 6cbe
00000180: 09d2 153e 3d3d 9bbb 3d62 a43d 89f7 623d
