FinalModels/BR/CleanData1Models/br-2-5000-100-128-0.01-0.5793.pt (torch, 1511 bytes, 1 tensors)

dnn.0.weight f4 [1, 100]
000000 0b 4e 33 3f 29 b8 50 bd 1e a7 ed bd 48 1f 17 3e
       0.7004096 -0.05095688 -0.11604141 0.14758027
000010 19 de 46 bd 92 29 05 3f c0 26 a3 3c 6a da fc 3e
       -0.048551653 0.52016556 0.019915938 0.49385387
000020 99 4c cf bd 25 39 bc be 82 b7 c7 3e 04 11 ab 3e
       -0.10122032 -0.36762348 0.39007193 0.3341142
000030 7a 55 0a bd ab 0b 80 bd c1 71 a1 be 6c 31 71 3d
       -0.033772923 -0.062522255 -0.315321 0.058885023
000040 c3 89 35 be 16 cd 8f bd f0 33 b7 bd a8 d8 ec bd
       -0.17728333 -0.07021539 -0.08945453 -0.115647614
000050 fc 4d 29 3f 06 80 88 be f0 57 53 3f 9b 2b 14 bd
       0.6613462 -0.26660174 0.82556057 -0.036174398
000060 93 cd 16 bf 10 fc 1b 3e 04 e8 3c 3e 71 15 86 3d
       -0.5890743 0.15232873 0.18447882 0.065470584
000070 6a 54 70 be 51 f4 81 3e 3b 10 1a 3d e3 b8 83 be
       -0.23469701 0.2538171 0.037613135 -0.25726995
000080 03 14 4e be 77 f5 f6 3c ee 48 94 be 61 88 04 bf
       -0.20124821 0.030146344 -0.2896189 -0.517706
000090 f5 de a2 bd c4 6e ed be 66 68 a6 bc f4 1d 9d 3e
       -0.07952682 -0.4637357 -0.020313453 0.30686915
0000a0 44 8e a7 be b3 83 d7 3d 1d a9 38 3e 8b 15 46 3c
       -0.32725728 0.105231665 0.18033262 0.012090097
0000b0 e3 da e4 be 43 d6 d7 bd 9f 70 8d 3e 45 3f 98 3c
       -0.44698247 -0.10538914 0.27624986 0.018584857
0000c0 df 06 12 bf 16 3e a6 bd 97 9d ab 3d 50 fc 17 be
       -0.57041734 -0.08117311 0.08379667 -0.14842343
0000d0 9d 0e 6e bc b8 a9 fd be 75 55 30 be c2 f2 e3 3e
       -0.014529851 -0.49543548 -0.172201 0.44521147
0000e0 2e e5 be 3d f5 9b a3 3d 29 f0 07 bf af 73 53 bd
       0.09321056 0.07988731 -0.5310083 -0.051623996
0000f0 fa b3 9a be da 9f 85 3e 76 54 5f bd b6 4d cf 3d
       -0.30215436 0.2609852 -0.054523908 0.10122244
000100 a1 b0 50 3e c7 60 49 be 54 e5 dd be 83 a9 5a 3e
       0.20379879 -0.19665824 -0.43339026 0.21353726
000110 d3 25 61 3e e2 c9 6e 3e 7b 17 d1 3e b7 cb c7 bd
       0.21987085 0.233192 0.40838227 -0.097556524
000120 01 cd 22 be 9e 53 aa 3a 97 cf 1f be 4e 11 27 be
       -0.15898515 0.001299489 -0.15606533 -0.16315195
000130 43 06 2a 3e 2c 45 11 3d ab eb e9 bd bf f1 61 bc
       0.16603951 0.035466358 -0.11421903 -0.013790547
000140 5d 89 e9 bd 14 e5 9e 3e 97 ff a6 3d 96 68 59 3e
       -0.11403153 0.31034148 0.08154219 0.21231303
000150 5c 75 25 bd 16 97 c6 3e 52 1e ac 3e f5 3f 3e bc
       -0.040395126 0.38787144 0.33616883 -0.011611928
000160 28 36 98 3e dc ae 18 be 19 bf 5c 3e 8b fc b5 bd
       0.29728818 -0.14910454 0.21557273 -0.088860594
000170 8c b2 ce 3d 8b d5 60 be 43 67 fb bb 38 86 cb 3d
       0.10092649 -0.2195646 -0.007672222 0.099377096
000180 fb 8c 8f be 6e ee 91 3e aa 06 3c 3e 48 88 6a 3e
       -0.28037247 0.2850222 0.18361917 0.2290355
