FinalModels/BR/CleanData1Models/br-3-5000-91-128-0.001-0.7364.pt (torch, 1511 bytes, 1 tensors)

dnn.0.weight f4 [1, 100]
0.08575215 -0.047381733 -0.07075989 0.098514035 -0.2180501 0.05164521 0.086387284 -0.011812933
0.15501308 0.10513178 0.00394611 0.16216195 -0.28740454 -0.07586851 0.1128069 -0.17498489
-0.15360738 -0.061051194 -0.0016279184 0.08450168 -0.021878606 -0.26611188 0.08547971 -0.12222339
0.019346032 -0.053456407 0.04084982 0.11049219 0.017686255 -0.037684012 0.10623289 0.016050315
-0.04131861 0.27763122 0.13288897 0.122048154 0.0069797304 0.017565876 -0.08179149 -0.009927197
0.41814238 -0.007215218 0.09051426 0.07766246 0.0656545 -0.025577966 -0.08179094 -0.014800672
0.13683969 -0.12036 -0.015697952 -0.13112383 -0.08559644 -0.02842475 -0.036868162 0.031538095
0.045735136 -0.013271306 0.25480214 -0.10207962 0.18733053 -0.2317424 0.22103482 -0.0037701498
-0.09062916 0.015746314 0.28448188 -0.22319652 -0.24823429 -0.19180234 0.08054625 0.023742223
0.009705101 0.10655588 -0.103865355 -0.018875893 -0.059313998 0.0645701 0.0206691 0.12764145
-0.102263674 -0.11659355 -0.11612901 -0.081333265 0.13763261 0.034703974 0.03345267 0.0952882
0.18943982 -0.06577032 -0.08051387 0.11945963 -0.094523445 0.12463343 0.037588436 -0.25868735
0.007106872 0.093777165 -0.022227949 0.017871838
00000000: d39e af3d 5913 42bd 90ea 90bd bac1 c93d
00000010: 8748 5fbe ed89 533d d1eb b03d 088b 41bc
00000020: c0bb 1e3e 554f d73d 5f4e 813b c80d 263e
00000030: b026 93be f360 9bbd 4e07 e73d 3d2f 33be
00000040: 414b 1dbe d110 7abd e15f d5ba 380f ad3d
00000050: c33a b3bc d13f 88be fc0f af3d 4250 fabd
00000060: 927b 9e3c 1bf5 5abd 2452 273d bb49 e23d
00000070: c4e2 903c 8d5a 1abd a190 d93d f37b 833c
00000080: b43d 29bd ae25 8e3e 0c14 083e 62f4 f93d
00000090: 39b6 e43b 50e6 8f3c 4c82 a7bd afa5 22bc
000000a0: c216 d63e a36d ecbb 8a5f b93d 7f0d 9f3d
000000b0: de75 863d e288 d1bc 0282 a7bd 857e 72bc
000000c0: b41f 0c3e 4e7f f6bd fe98 80bc 5345 06be
000000d0: 304d afbd 05db e8bc 1203 17bd 172e 013d
000000e0: c454 3b3d e46f 59bc 6d75 823e 1f0f d1bd
000000f0: 93d3 3f3e e14d 6dbe f456 623e 9e14 77bb
00000100: c89b b9bd 6afe 803c 9ca7 913e a18d 64be
00000110: 2131 7ebe d567 44be 6ff5 a43d 0d7f c23c
00000120: 2502 1f3c f839 da3d 5cb7 d4bd 9ea1 9abc
00000130: 3cf3 72bd 543d 843d 3f52 a93c 71b4 023e
00000140: 9e6f d1bd 99c8 eebd 0cd5 edbd 0e92 a6bd
00000150: 90ef 0c3e c125 0e3d ab05 093d 7626 c33d
00000160: 83fc 413e 97b2 86bd 75e4 a4bd 40a7 f43d
00000170: 8295 c1bd d03f ff3d 55f6 193d ab72 84be
00000180: c3e0 e83b 3e0e c03d 6317 b6bc f667 923c
